wine_quality_regression/model0.pth (torch, 171755 bytes, 14 tensors)

weight f4 [18, 3, 5, 5]
000000 d2 91 9d bd 7c 6c 51 3c 9a 97 23 bd 31 8c 31 3d
       -0.07693829 0.012782212 -0.0399395 0.043346588
000010 97 3c c6 bc a7 b7 38 3d c7 1b 95 bd 13 3c e6 3b
       -0.024198813 0.04509702 -0.07280689 0.0070262044
000020 7c 65 24 3d 0b 35 ac bd a6 2d ea bc 1a 96 20 3a
       0.040135846 -0.08408555 -0.02858622 0.00061258825
000030 fd 45 94 bd aa e2 f8 3d fa 49 e3 3c cd e5 87 3d
       -0.07239912 0.12152608 0.027745236 0.06635628
000040 29 cc 07 3e c4 f3 db 3d 03 1c 18 3b f1 59 86 3d
       0.13261475 0.10739854 0.0023210056 0.06560124
000050 8b 98 92 bd 55 59 4c 3c 72 24 8d 3c 93 0b 18 3d
       -0.071580015 0.01247247 0.017229293 0.037120413
000060 f6 26 ff 3d 69 d4 78 3d 51 f9 c6 3d f7 05 b9 bd
       0.12458603 0.060749445 0.09715522 -0.09034341
000070 20 23 ac bd d2 61 d0 3c df 7c 74 bd 8b 85 3b bd
       -0.08405137 0.02543727 -0.0596894 -0.045781653
000080 f5 5e f7 3d 49 39 fa bc 4f 79 f3 bc 79 38 c1 bd
       0.120786585 -0.030544894 -0.02972093 -0.094345994
000090 e2 66 6c 3d 5b 17 06 bd df 3c 12 3e f0 e7 5f 3d
       0.057715304 -0.032737117 0.14281033 0.054664552
0000a0 00 5a cc bd c8 0f 05 bd 15 7c c3 3c f7 83 12 3e
       -0.09978104 -0.032485753 0.023862878 0.14308153
0000b0 f1 35 02 3d 19 f1 79 bd 6f 85 67 bc c4 90 02 3e
       0.031789724 -0.061020944 -0.014130934 0.12750536
0000c0 31 6d 0e 3e d2 1f 09 3e ca cf 0d be 0c 43 c1 bd
       0.1390884 0.13391045 -0.13848796 -0.09436616
0000d0 a6 7a fc bc 52 05 f2 bd 43 92 05 be 20 76 ff 3c
       -0.030820202 -0.11817421 -0.13044076 0.031184256
0000e0 ad e1 71 bd ea 37 05 be 55 5e b1 bd b6 2c 43 bd
       -0.05905311 -0.13009611 -0.086605705 -0.04765006
0000f0 60 e2 6f bd 11 ee a2 bc 16 93 73 3c 7e 48 66 bc
       -0.058565497 -0.01988891 0.014866611 -0.014055369
000100 6b cb 8d 3c 58 2d 09 3d 35 77 d4 bd 08 7c ca bd
       0.017308911 0.03349051 -0.103742994 -0.09886938
000110 ff 9f 83 3d 33 82 d9 bd c7 dd 07 be 28 bb a8 3d
       0.06427001 -0.10620537 -0.13268195 0.08238822
000120 7c a8 ba bd df 5b e5 bd 3b b4 22 bd 21 d7 45 bd
       -0.09114167 -0.11199164 -0.039722662 -0.048300866
000130 19 ac d3 bc 67 28 bc 3d 4c 59 f4 3d 74 ca a0 3d
       -0.025838898 0.09187394 0.119310945 0.07851115
000140 5b 7b 70 ba da a0 0e 3d 91 9a b9 ba 6e c1 9f 3d
       -0.0009173655 0.03482137 -0.0014160444 0.07800566
000150 a5 53 45 bc 1c da df bd 6d 38 42 b9 e1 4f 77 3d
       -0.012043868 -0.10930273 -0.00018522302 0.060378913
000160 0b fe 4d bd b9 17 8c bd ed 3a 9f 3c 57 57 4c 3d
       -0.050291102 -0.06840462 0.019437278 0.04988798
000170 85 dc 8c bd 17 f9 7a bd 9d 6a bb 3d 9b 1a f9 bd
       -0.06877998 -0.061272707 0.09151194 -0.12163278
000180 5e 6c d9 bd cd 13 e3 3d 64 f7 78 bd b8 c5 e3 3d
       -0.106163725 0.11087761 -0.060782805 0.11121696
000190 21 e7 1d 3d 7f 16 3d 3d 86 10 a7 bd 48 54 66 bd
       0.0385505 0.046164032 -0.081574485 -0.05623272
0001a0 1d 1b b4 3d 9f 3c d5 bd 5f 7e 79 3d 52 3a 8d 3c
       0.08794234 -0.10411953 0.060911532 0.017239723
0001b0 34 4d e2 3d 46 49 fd 3b 62 a4 89 bd 33 41 a2 bd
       0.110498816 0.007729682 -0.06720807 -0.07922592
0001c0 68 a5 65 bd fb aa b2 bc 54 b6 dd 3d e8 c0 de bd
       -0.056065947 -0.021810045 0.10825792 -0.10876638
0001d0 db 9b c1 bb 2a 0d ce bc 44 d5 4f 3d 3e 15 31 bc
       -0.005908472 -0.025152761 0.050740495 -0.010808287
0001e0 1c eb 0b 3d ab 46 d6 3d 9c d3 c8 bd 78 6c e2 3c
       0.034159765 0.104626976 -0.09805986 0.027639613
0001f0 1d 13 c5 3d 44 bf c8 3d 37 6e 48 bd 30 76 e1 3d
       0.09622786 0.09802106 -0.048933234 0.110088706
000200 f3 8f ea bd 6d dc a9 bd de 9b a7 3d 74 f1 ba 3d
       -0.114532374 -0.08293996 0.08184026 0.09128085
000210 38 11 b6 bd 9d a5 45 bd 86 ab 63 bc b5 5b a9 3c
       -0.08890003 -0.048253644 -0.013895875 0.020673612
000220 66 fa 86 bd f6 ee 7e 3d b9 3d b5 bd b5 b6 8a 3c
       -0.065907285 0.06223961 -0.08849663 0.016932825
000230 55 30 19 3d c5 de 1e bd aa 7f af bd ce db 72 bd
       0.03739961 -0.03878667 -0.08569272 -0.059291653
000240 d0 59 55 bc 80 f1 f5 3c 2b d8 8e 3d 4c 93 02 3c
       -0.013021901 0.030022383 0.069748245 0.007969689
000250 f3 c3 ab bd bc 3c dd 3d 22 db 94 3d 36 9c 30 bd
       -0.08386984 0.108026 0.07268359 -0.043117724
000260 5b 9c 06 3d ec ba 45 3d 6a 03 6d 3b 36 8e f6 bd
       0.032863956 0.048273966 0.0036165365 -0.12038843
000270 a4 37 27 bc 85 c0 60 3c f6 ca b2 3d a3 06 1b 3d
       -0.010206137 0.013717775 0.08730118 0.037848126
000280 28 87 d0 bd ac 67 d7 bd 32 79 d2 bd d0 25 71 bd
       -0.10182029 -0.10517821 -0.102770224 -0.05887395
000290 2e 10 86 bd 7c 7b 80 3d 1a ed 8f 3d 64 c4 f0 3c
       -0.06546055 0.06273553 0.070276454 0.029390521
0002a0 fb fe 05 3d 43 89 d0 3d f3 ff 78 3d 2e f3 de 3d
       0.03271387 0.101824306 0.060790967 0.108862266
0002b0 33 79 0d 3d 06 ca a3 bd 4e d1 94 3d f8 80 9f 3d
       0.034539413 -0.07997517 0.07266484 0.07788271
0002c0 d3 c3 4a 3d da 0d ac bd d5 80 ca bd fc cf 04 bd
       0.04950316 -0.084010795 -0.09887854 -0.03242491
0002d0 bc 11 74 bd 5d 7a e9 bd 25 d9 60 3d 93 e1 dc bd
       -0.059587225 -0.11400292 0.054894585 -0.10785212
0002e0 1f e7 83 3d 8f 40 59 3d 18 1f 7b ba 47 f3 95 bd
       0.06440567 0.053040083 -0.00095795235 -0.07321792
0002f0 79 82 9e bd a5 f8 58 3c 5c 19 f2 bc b8 17 10 bc
       -0.077397294 0.013242875 -0.029553108 -0.0087947175
000300 a1 32 71 3d 4a bb 7a bd e3 ec a1 bd 91 dc 8e 3d
       0.058886174 -0.06121377 -0.07906511 0.069756635
000310 23 5d 8f bc 25 e3 60 3d 26 01 59 3c 50 24 7a 3d
       -0.017500466 0.054904122 0.013244903 0.061069787
000320 d7 74 c7 bc 61 71 f3 3c d2 f3 32 bd 30 38 7f 3d
       -0.024347706 0.02971715 -0.043689556 0.062309444
000330 30 0d d0 3d e3 3e e1 bd 18 a0 b0 bd b6 7a 73 bd
       0.10158765 -0.10998323 -0.086242855 -0.0594432
000340 a5 45 37 3d bb 3f 16 bd ac 33 0b bd a6 0e bf 3d
       0.044744153 -0.03668187 -0.033984825 0.09328966
000350 4d 48 a9 3d 27 54 e2 3b 4e b0 b3 bd d6 f6 36 3d
       0.082657434 0.0069070044 -0.08773862 0.044668995
000360 b4 ae 1e 3d 24 64 bc 3d fb a8 68 3c 1a 07 e1 bc
       0.03874083 0.09198788 0.014200444 -0.027469207
000370 9a d2 7b 3c 1a 6e 07 3e 43 31 b5 3d fa 24 dd 3d
       0.015370036 0.13225594 0.088472866 0.10798068
000380 22 de 9a 3d be 80 f4 bc 42 cd ec bd a4 57 37 bd
       0.075619 -0.029846545 -0.11562587 -0.044761315
000390 74 bc a1 3d 36 c0 cb bd 6a f6 ea bc 9d e7 ef 3c
       0.07897273 -0.09948771 -0.028681953 0.029285247
0003a0 f2 4e 9a bd d8 eb 61 bc c9 0b e8 bd 1f 4a 00 3d
       -0.07534589 -0.01378914 -0.11330373 0.031320687
0003b0 b5 58 e9 bb 6b 5f ea 3c 17 e4 6b 3d 7a e5 c1 3d
       -0.0071211704 0.028609952 0.05759057 0.09467597
0003c0 45 af f0 3d 72 ea 3d 3d 13 6b bd 3d 1a 5a 8a 3d
       0.1175218 0.046366163 0.092489384 0.06755467
0003d0 ec ac c0 3d 62 e3 d3 3d 48 08 ed 3d 42 fe dc bc
       0.09407982 0.10346104 0.11573845 -0.026976708
0003e0 80 84 36 bd 48 77 3b 3d d1 5e 7e 3d 3e 8f 49 3d
       -0.044559956 0.045768052 0.062102143 0.049208872
0003f0 b1 1a cf 3d 8d fa a5 3d e2 2b 9e bc ce 3d bb 3d
       0.10112513 0.081044294 -0.019308034 0.09142648

bias f4 [18]
000000 35 7a b9 3d 33 4b 56 bd 64 1e 94 3d b2 5c c2 bd
       0.09056512 -0.05231781 0.07232359 -0.094903365
000010 7e d8 93 3c d7 ce 73 3d 9f d2 df bc b3 bf e1 bd
       0.018047567 0.05952343 -0.027322112 -0.11022892
000020 a4 33 2a bc bf 1b 8b 3d 6e 5b 6c 3d 23 9c d6 3c
       -0.010388289 0.067924015 0.05770438 0.026197499
000030 62 c7 b8 bd 43 a6 66 3d f3 01 75 bd 83 1f 7f 3d
       -0.09022404 0.056310903 -0.059816312 0.06228591
000040 6e 17 7c bd 81 d3 32 bd
       -0.06154578 -0.043658737

weight f4 [28, 18, 5, 5]
000000 cf 64 d7 3b c7 b3 fb bc da 93 c5 bc 26 69 64 3d
       0.0065732966 -0.030725373 -0.024118353 0.05576434
000010 ba 0f 0b 3d e4 11 c3 bb 5e bd be 3a bc 24 fe 3c
       0.033950545 -0.0059530605 0.0014552285 0.031023376
000020 c3 27 cd 3c 71 77 9b bc 90 37 54 bd a3 30 d9 bc
       0.025043374 -0.018977853 -0.0518108 -0.02651245
000030 bf f7 ad 3b 0b 7a fe bc 07 82 47 3d 20 0c 10 bd
       0.0053090747 -0.031064054 0.048707988 -0.035167813
000040 a9 9e 23 bd c9 54 22 bc ca bc 83 3c ad 5d e2 ba
       -0.039946232 -0.00990791 0.016081233 -0.0017270349
000050 57 0c fa 3c f7 09 fe bc 8c ed 24 3d 2f 31 d0 bc
       0.030523462 -0.031010611 0.040265605 -0.025414078
000060 3c 4a 1a bd bf 4b 95 3c 48 ae 96 bc 45 01 c9 3b
       -0.03766845 0.018224595 -0.01839365 0.0061341845
000070 d1 ee 34 3d 51 76 70 bc 38 8c 1b 3d f3 20 bd 3c
       0.044173066 -0.014676646 0.03797552 0.023087
000080 77 a6 a5 3c 13 a1 5c 3c 3b b4 9c 3c e3 f9 c2 bc
       0.020220978 0.013466137 0.01912891 -0.023800796
000090 af a9 26 3d 69 2e 6e 3c 61 9e 4f bb 14 da 35 3d
       0.040689167 0.014537432 -0.0031680095 0.04439743
0000a0 b5 66 23 3d 6e 47 15 3b 9f da 1a bd 4f c2 9f bc
       0.03989287 0.002277817 -0.03780615 -0.019501833
0000b0 e6 00 25 bd 7f eb 38 bd 0a 72 0b bd 10 29 19 3d
       -0.04028406 -0.04514646 -0.034044303 0.037392676
0000c0 5d cc 83 3c 3c 0a 26 3d 55 ee 8b bc 59 22 8a bc
       0.016088659 0.040537104 -0.017081419 -0.016862081
0000d0 a2 b0 1f bd ec 39 ae bb d6 e0 1f bd be 34 8e 3b
       -0.03898681 -0.0053169634 -0.03903278 0.0043397835
0000e0 5d 6b 0b 3d 47 5d b5 bb ba 90 3e bd 42 5f a3 bc
       0.034037936 -0.005534801 -0.04652474 -0.019942883
0000f0 63 25 0f 3d 53 ba e9 bc 2e 79 a7 3c 22 6b 92 3c
       0.034947764 -0.02853123 0.020443525 0.01787335
000100 c3 18 d5 bc 9e 62 38 3c d7 0e 5f bc e1 42 0a 3d
       -0.026012784 0.011253981 -0.013614378 0.033755187
000110 a6 00 69 bb 25 c3 d3 3c 8c ca ae 3c 3d 79 9c bc
       -0.0035553365 0.025849888 0.021336816 -0.01910078
000120 56 63 df 3c 5f 6c d9 3c 3d a6 1f bd 3b 49 3f bd
       0.027269047 0.026540933 -0.038976897 -0.046700697
000130 f7 8c 30 3d b0 63 af bc 34 4c a2 3a b8 a6 3a bd
       0.043103185 -0.02140984 0.001238233 -0.04556915
000140 73 95 e7 bb 7f 0b 96 bc e0 c8 c9 bc 8f 05 30 bd
       -0.0070673763 -0.018316029 -0.024631917 -0.04297405
000150 b2 1f 0b bd 0b d1 0b 3c 73 3a 88 bc 46 12 75 3c
       -0.033965774 0.008533726 -0.016629433 0.01495797
000160 4d 5f 19 bd fb d4 f6 bc d8 dc 87 bc 92 7e a4 bb
       -0.0374444 -0.030130854 -0.016584799 -0.005019971
000170 86 e9 05 3d c7 03 14 bd 2b ab 0a bc ad 96 80 bc
       0.03269341 -0.036136415 -0.008463661 -0.015696848
000180 8e 6d 01 3d 44 85 9b bc 04 fe 0a 3d 46 04 08 3d
       0.03159862 -0.018984444 0.033933654 0.0332072
000190 bb 0a 54 bd 32 67 65 bd d0 66 c9 bb 02 fb 22 bb
       -0.051768046 -0.056006618 -0.0061462894 -0.002486885
0001a0 3f 43 b1 3b 34 81 ee 3a 5c 51 be 3b 6d d4 f0 3c
       0.0054096277 0.0018196465 0.0058080386 0.029398168
0001b0 69 c0 64 bc 78 25 30 bd f3 c4 d3 3c b9 1b 19 3d
       -0.01396189 -0.043004483 0.025850749 0.037379954
0001c0 d0 44 f3 3c d4 d5 e9 3c 10 b5 d2 3c a0 b2 4f 3d
       0.029695898 0.028544344 0.025721103 0.05070746
0001d0 bb 07 aa 3c e3 dd f5 3b 2e e0 34 3c e6 a3 0c 3d
       0.02075564 0.0075032576 0.011039777 0.034335993
0001e0 57 83 5e 3c a9 3c c6 3c e6 fc 40 3d 10 cf b7 3c
       0.013581119 0.024198847 0.047116183 0.022437602
0001f0 64 ae bf 3c 90 81 42 bd 38 77 25 3d ee 82 26 3c
       0.023398586 -0.04748684 0.0403969 0.010163052
000200 74 3f 15 3c c0 f2 f9 bc eb ee dc 3c 66 bf d3 bc
       0.009109367 -0.03051126 0.026969394 -0.025848102
000210 12 80 1f bd 9e e0 62 3c 86 e1 d7 3c 9a 29 5b bd
       -0.038940497 0.013847498 0.026352655 -0.05350647
000220 b3 e4 3c bd fb e0 98 3c 84 9d 12 bd f3 15 0a 3d
       -0.046116542 0.018661967 -0.03579475 0.03371234
000230 2d 97 63 bd 97 7b 26 3d ef bc f8 3c b1 73 89 bc
       -0.055564094 0.04064521 0.030363528 -0.016778799
000240 12 de 81 bc 79 21 0b 3d b8 d8 12 3d ac 65 aa bc
       -0.015852962 0.03396747 0.03585121 -0.020800434
000250 12 e8 11 bc 1f 91 29 bd aa 28 aa bc 32 be 11 3a
       -0.0089054275 -0.041398164 -0.020771343 0.00055596523
000260 18 cf 26 bd 0b 71 a4 3c 4f 60 80 bc d3 7f dd 3c
       -0.040724844 0.020073434 -0.015670924 0.02703849
000270 ae 8b 1d bb 68 55 fa bc 5a 75 12 bc 10 8c 33 bd
       -0.0024039554 -0.030558303 -0.008939112 -0.043834746
000280 94 13 17 3d 0d 15 0e bc ef 70 87 3b 83 08 e0 3c
       0.036883906 -0.008672011 0.004133336 0.027347809
000290 6b 29 3d bc 0a 76 6a 3c c9 8a 24 bd f6 0c d9 bc
       -0.011545519 0.014310369 -0.04017142 -0.026495438
0002a0 85 23 2c 3d 8a 9d 48 bd 0d 75 d1 3c c8 f7 35 bd
       0.04202606 -0.048978366 0.02556851 -0.044425756
0002b0 bb c7 ad bc 01 6e d6 3c 47 5b 0c bd 9f 1d 89 3c
       -0.021213403 0.0261755 -0.034266736 0.016737757
0002c0 af ed ca 3c 23 12 3e 3c 5d 6c 15 3d c8 52 c8 3c
       0.02477154 0.011601004 0.036480296 0.024453536
0002d0 8b 81 c0 3c a8 c4 33 bd bd ec 99 bb 06 1e 44 bd
       0.02349927 -0.043888718 -0.004697411 -0.047880195
0002e0 1d 1a 49 3c f6 88 22 bc 48 1b 60 3c 62 5c b1 3b
       0.012274292 -0.009920349 0.013678379 0.005412624
0002f0 84 94 0e 3d d8 2e b7 bc eb 34 b5 bc ca 5c 67 bc
       0.034809604 -0.022361204 -0.02211996 -0.014121244
000300 38 b8 2a bd bf 2a 01 bd f5 86 af 3c 14 a8 02 bd
       -0.04167959 -0.031534906 0.021426657 -0.031898573
000310 87 a3 0f bd 43 4e 37 3a 9f 0b 1a bd f2 3a 6c bd
       -0.03506806 0.0006992558 -0.03760874 -0.057673402
000320 88 fa c4 3b d7 66 6e bc 73 06 22 bd f6 f8 cc bc
       0.006011311 -0.014550886 -0.03955693 -0.025021058
000330 76 4d 11 3c 77 89 25 bd 74 28 15 3b 1b 46 ad bc
       0.008868566 -0.0404143 0.0022759708 -0.021151593
000340 e6 a9 39 3d f4 a5 38 bd 46 06 e0 bc 87 79 d3 bc
       0.045328043 -0.04508014 -0.027346741 -0.025814785
000350 eb 31 0c 3d a1 1a 57 3d e9 87 7a bc 9b 6b 19 3b
       0.034227293 0.05251563 -0.015291193 0.0023410085
000360 22 95 58 3d 38 97 0f 3d 62 a8 a0 3c 39 74 d6 3c
       0.0528766 0.035056323 0.019611541 0.026178466
000370 7f 9f f9 bc 02 78 51 3d 8e bc cb 3b 28 58 eb bb
       -0.030471561 0.05113984 0.006217546 -0.00718214
000380 a0 61 0e 3c ae c2 9b bc c6 4c 0a 3d 8b 4c 31 bb
       0.008690268 -0.019013729 0.033764623 -0.002705368
000390 09 d0 69 3d e9 b2 15 3d e0 3a 03 bc af 2f 85 3c
       0.057083163 0.036547575 -0.008009642 0.016258089
0003a0 c2 69 7d bc d3 60 62 3d 16 12 0c 3d c4 5f 53 bd
       -0.015467109 0.05526812 0.034196936 -0.051605
0003b0 d2 89 e5 ba b0 30 12 3d 52 86 03 3c b1 f9 0f 3d
       -0.0017512387 0.035690963 0.00802763 0.035150234
0003c0 de ef a2 3c 28 85 85 3c 91 60 48 3d a8 b6 32 3d
       0.019889768 0.016298845 0.048920218 0.043631226
0003d0 91 92 33 3d b8 0f 3e 3c 54 1d 98 bc b0 59 36 bc
       0.04384095 0.011600427 -0.018568672 -0.011129782
0003e0 fc aa fe 3c 1d 72 7d 3c a5 91 22 3d e8 af 9a 3b
       0.031087391 0.015469101 0.03968968 0.0047206767
0003f0 bd 61 91 bc 7c 0b 99 3b 2e a8 1f bd f8 f4 11 3d
       -0.0177468 0.0046705585 -0.038978748 0.03563401

bias f4 [28]
000000 d0 2b 9a bc 20 bf c0 bc 51 1c 33 3d b3 85 ec 3c
       -0.01881972 -0.023528636 0.043728177 0.028872347
000010 58 ec a7 3c e0 a4 0b bd 0b 8c 18 3d b4 59 3b bd
       0.02049844 -0.034092784 0.03724293 -0.045739844
000020 7a e4 41 bd c4 fb 9b 3c fe 58 07 bd 8d fd 60 bc
       -0.047337033 0.01904095 -0.033043854 -0.013732326
000030 7c 45 e0 bc f6 7c 44 3c 76 91 25 3c fd 56 2a bc
       -0.027376883 0.011992684 0.010105481 -0.010396716
000040 1f fd 0c bc 4d 62 ce 3c b3 5d 07 bc 15 d7 30 bd
       -0.008605271 0.025193358 -0.008262086 -0.04317387
000050 27 21 9b bc 12 c2 93 ba f1 33 de 3a 35 f7 c1 bc
       -0.018936707 -0.0011273047 0.0016952736 -0.023677448
000060 ad ea a3 39 16 97 0a bc 09 30 d9 bb 68 10 e9 bc
       0.0003126463 -0.008458873 -0.0066280407 -0.028450206

weight f4 [32, 28, 3, 3]
000000 66 de 56 bd dd 4e 48 bc 3c 45 28 bd 70 9d 68 ba
       -0.05245819 -0.012225834 -0.041081652 -0.00088735577
000010 fb ac 19 3a 61 c6 74 bd ea 92 97 bc 8e 8e 23 3d
       0.0005862263 -0.0597595 -0.018502671 0.039930873
000020 0a 42 51 bd 72 6a 08 bd 06 8a a5 bc 83 6f 6c bd
       -0.05108837 -0.03330464 -0.020207416 -0.057723533
000030 12 0c 06 bd d4 55 df 3c 38 04 d6 bc ff 1d 4f 3d
       -0.032726355 0.027262606 -0.026125059 0.050565716
000040 a2 3c 68 3b 24 42 00 bd 3c 3b 7c bd 3f 93 74 bc
       0.003543653 -0.031313077 -0.061579928 -0.014927684
000050 e5 47 ba bb 32 91 53 3d 0b d3 e3 3b ba 3d d9 bc
       -0.00568484 0.05165214 0.0069526485 -0.026518691
000060 24 4f 62 bd 1b c7 3a bc dd c5 69 bd 71 35 24 3d
       -0.055251256 -0.0114000095 -0.057073463 0.04009003
000070 4b fd 69 bd 1f e6 1b bd df 1e 24 3d 3c ff 7b bc
       -0.057126325 -0.038061257 0.040068503 -0.015380677
000080 6c dd 8b bc 62 9f e0 bc 98 43 80 bd 12 92 e6 3c
       -0.017073356 -0.02741975 -0.062628925 0.028145824
000090 c8 80 f8 bb 63 29 3c 3c e4 51 e9 bc 4b 06 59 bd
       -0.0075837113 0.011484477 -0.028481431 -0.052984517
0000a0 79 7f 4b bc dc e1 0b bc c5 ca 9e 3c 54 28 11 bc
       -0.012420529 -0.008537736 0.019383797 -0.008859713
0000b0 7a 3d cc bc 70 ff 27 3d 1c 0a f1 3c 36 0b 31 3d
       -0.024931658 0.04101509 0.029423766 0.043223582
0000c0 0a 90 2f 3d e7 ac c1 3a 63 04 2b 3d d9 5d b0 bb
       0.042861976 0.001477626 0.04175223 -0.0053822813
0000d0 9d de a9 3c 15 c3 ad ba 9c b7 9d 3c 8c 7c 4a bd
       0.020736033 -0.0013256992 0.01925259 -0.049435183
0000e0 d9 d3 36 3d 37 af f1 bb 48 09 79 3d dd 7e 46 bd
       0.044635627 -0.0073756236 0.060799867 -0.04846083
0000f0 82 66 b9 3c 3d ac 09 bc c7 67 5c bb 45 49 1a 3d
       0.022631887 -0.008402881 -0.0033631192 0.03766753
000100 6b 3d df bc 35 4d 9f bb f4 95 39 3d 5c c3 8e bc
       -0.027250966 -0.0048614987 0.045309022 -0.017427139
000110 d2 30 1d bb 10 bd c9 bc 50 25 f1 bc c5 9d 63 3d
       -0.0023985398 -0.024626285 -0.029436737 0.055570383
000120 5a 97 53 bb 9c cc 71 bd d5 d1 c6 bc 5e 46 88 3d
       -0.0032286257 -0.05903302 -0.024269978 0.066540465
000130 11 4f f6 bb f5 19 ba bc 9b f6 c6 3b d5 55 a3 3a
       -0.0075167497 -0.022717455 0.006071878 0.0012461493
000140 30 b2 e9 bc 22 37 d8 bc 03 69 14 3d 8d ea 3d 3d
       -0.02852735 -0.026393477 0.03623296 0.046366263
000150 53 c6 d1 3c 4e d9 d7 3c fc c7 db 3c 88 01 79 bc
       0.025607264 0.026348736 0.026828758 -0.015198119
000160 76 86 9c 3c 14 5f 05 3c 00 c6 58 bd f6 19 63 3d
       0.019107085 0.008140344 -0.052923203 0.05544468
000170 e0 5e 90 bc fe 58 d1 bb e9 51 6f 3d a8 a5 7a 3d
       -0.017623365 -0.0063887825 0.058427725 0.06119314
000180 c7 fb 3e 3d dc 1d 58 3d 5b cf cf bc 6f cd 37 3d
       0.046626832 0.05276285 -0.02536743 0.04487365
000190 e5 db 43 3d 35 a8 72 bd 97 7b 2f 3d ef 63 68 bd
       0.04781713 -0.059242446 0.042842474 -0.05673593
0001a0 93 e2 2b 3d a6 f0 fd bc f3 95 59 bd 0b fd 0b bd
       0.041964125 -0.03099854 -0.05312152 -0.034176867
0001b0 a7 2c 74 bc 23 88 0a bd eb 58 ef 3c 3f f8 02 3d
       -0.014903224 -0.033821236 0.029217204 0.031975027
0001c0 60 8a 5f 3d 27 77 69 3d 8c 9a 31 3d 82 10 6f b9
       0.054575324 0.0569984 0.043360278 -0.00022798966
0001d0 a9 87 04 3d 38 ca 91 3c ec 8f 44 3d 47 78 3b bd
       0.032355938 0.01779662 0.047988817 -0.045769002
0001e0 66 a1 00 3c d0 a2 ef bb e3 23 a5 3c db 6a fe 3c
       0.00785098 -0.00731311 0.020158714 0.031056812
0001f0 eb c5 82 3d e7 95 04 bd 92 af 29 3d 1b 5a a9 3c
       0.06385406 -0.03236952 0.041427203 0.020672848
000200 a5 18 ed 3c e2 15 fb 3c 8f da 76 bd 33 c2 75 bc
       0.028942415 0.030650083 -0.060267027 -0.014999914
000210 7a dc c8 3c f0 37 44 3d 4d 38 e8 bc 86 96 53 3d
       0.024519194 0.04790491 -0.028347159 0.051657222
000220 46 2a 52 3d 1c d2 28 bd 70 29 e4 3c 7f dd 3e 3d
       0.051309846 -0.041216 0.02785179 0.046597954
000230 be 7d 3b 3d d1 1f e5 3a fc 9d 3e bd a2 72 10 bd
       0.045774214 0.0017480796 -0.046537384 -0.035265572
000240 7e e8 6d bd cf c3 86 bd f0 7a 01 3d 1d 1d 50 3b
       -0.05808305 -0.06580316 0.031611383 0.0031755634
000250 59 6b a1 bc cd 61 ec bc 88 44 c6 3c 28 d1 3e bd
       -0.019704508 -0.028855229 0.0242026 -0.046586186
000260 7a 31 73 bd 47 df 47 bd 2f 79 6d 3d b5 bf d8 bb
       -0.059373356 -0.04879692 0.057976898 -0.00661465
000270 dd 2d c9 bb a4 ab 77 3c 88 ef 3b 3c fb 6a 2d bd
       -0.0061395005 0.015116606 0.011470683 -0.042338353
000280 c3 d8 76 bd 16 fc 70 3d 01 08 48 3d ff dd 5d bc
       -0.060265314 0.058834158 0.048835758 -0.0135416975
000290 fe 5d 48 3d 25 ec 2b 3d 90 43 9f 3c aa 59 d8 3c
       0.048917763 0.04197325 0.019441396 0.026409943
0002a0 09 be 5b bd 38 9f 49 bd b8 44 ee bc fb 43 e6 3c
       -0.05364803 -0.04922411 -0.029085502 0.028108587
0002b0 60 86 b0 bc f8 30 d5 bc d5 67 d2 3c 08 27 72 bd
       -0.02154845 -0.026024327 0.025684277 -0.059119254
0002c0 a9 e4 b3 3c ea c9 df bc c3 60 32 3d c8 68 74 bd
       0.02195962 -0.02731796 0.04354931 -0.05967024
0002d0 c4 33 ac bb 4a f4 80 bd 64 41 ed 3b 7b 6a 86 3c
       -0.0052551944 -0.062965944 0.007240461 0.016408196
0002e0 25 25 e0 3a 9f 35 bf bc 3d 21 65 3d 4e e5 68 3d
       0.0017100914 -0.023340998 0.0559399 0.056859307
0002f0 28 2c 50 3c e9 53 8d bc 75 5d 9a 3a 87 47 cd 3c
       0.01270584 -0.017251926 0.001177712 0.025058521
000300 88 43 37 3d 19 69 2d bd 02 c8 b4 3b 71 31 c7 bc
       0.044742137 -0.042336557 0.005517007 -0.024315568
000310 2d b0 1c bd cc 98 93 ba ff 03 50 bd 31 35 af 3c
       -0.03825395 -0.0011260747 -0.05078506 0.021387668
000320 d8 be 8f 3d f7 73 9d 3c c8 97 53 3d 7f c7 cd 3c
       0.070188224 0.019220335 0.05165842 0.025119541
000330 41 80 6c bd c4 6a f3 bc 9b eb 39 3c d8 ec 58 bd
       -0.0577395 -0.029713996 0.011347677 -0.052960247
000340 a4 ca 81 3c 35 6a c6 bc 2a 1d 39 bc 77 67 d7 3c
       0.015843697 -0.024220565 -0.011298457 0.026294453
000350 72 12 7e bc 72 0c 15 bd 3d ad ba bc a8 d9 c4 bc
       -0.015507327 -0.036388822 -0.022787685 -0.024029568
000360 ee 51 51 bb 56 a6 fd bc ee eb 40 3c fe f0 60 bd
       -0.0031939703 -0.030963104 0.011775 -0.054917328
000370 ea 1c b7 bc 54 78 7a bd 7c 27 31 3c 8c c7 6a bd
       -0.022352654 -0.06114991 0.010812636 -0.05731921
000380 66 48 4d 3c c5 93 24 3d 7c 95 1a ba 5f 45 77 bd
       0.012529468 0.040179987 -0.00058969087 -0.06036889
000390 6e 92 16 3d 50 9c a3 3c 14 29 0c bc d5 d1 0d 3c
       0.03676074 0.019971997 -0.008554716 0.008655985
0003a0 09 2f 05 3d 9d 5c 43 bd cd e7 f9 bc 8a 6d 8a 3d
       0.03251556 -0.047695745 -0.030506039 0.06759174
0003b0 62 83 91 3c 04 ed 86 bc f3 f0 8b 3d 6a ac 40 bc
       0.017762844 -0.01647044 0.06833067 -0.011759857
0003c0 d7 42 6b bb c7 04 19 3d 6f 58 01 3d bc f7 eb bc
       -0.0035897994 0.03735807 0.031578477 -0.028804652
0003d0 43 80 06 3d 47 b9 b0 3c f2 b7 c7 bc 81 20 b7 bc
       0.032837164 0.021572722 -0.024379704 -0.022354366
0003e0 9c 0d 1e 3d e7 b9 b1 3c f3 ea f4 bb 0d 44 07 3d
       0.038587198 0.02169509 -0.007474297 0.033023883
0003f0 5b 08 aa 3c 7f 32 8f bd e9 c9 22 3b bf e5 91 3c
       0.020755937 -0.06992053 0.0024839586 0.017809747

bias f4 [32]
000000 ee 34 e6 bb a5 53 b4 ba af 9b 21 bb 29 99 12 bc
       -0.0070253527 -0.0013757838 -0.0024659445 -0.008947649
000010 b0 52 8f 3b 38 51 df 3c 62 a8 1e bb 54 91 22 bd
       0.004373871 0.027260408 -0.002420925 -0.039689377
000020 73 4d 1b bd 72 19 a5 3c 35 5b 2f 3d 48 9a 02 3d
       -0.03791566 0.020153735 0.04281159 0.031885415
000030 8f 31 dc bc 6b 99 c3 3c 9a 1b f2 bb c7 96 13 bd
       -0.0268791 0.023876866 -0.0073885443 -0.036032464
000040 c5 44 78 bd 5b 5b 4e bd b3 1d a5 3c 58 d4 b4 3b
       -0.06061246 -0.050380092 0.020155763 0.0055184774
000050 b3 ec e7 bb 75 49 f2 3b ce b0 02 bd 9f d0 76 3b
       -0.0070777773 0.0073940107 -0.031906895 0.003766097
000060 86 08 c1 bb 18 b5 20 bd 5b 07 e8 3c 45 51 70 3d
       -0.0058909087 -0.039235204 0.02832382 0.058671255
000070 63 9c 19 3c 4f 6b f1 3c 52 b5 02 3d d5 f7 43 b7
       0.009375664 0.029470114 0.0319112 -1.1680609e-05

weight f4 [60, 288]
000000 1d 28 7b bd a2 23 4c bd 01 b7 2a 3d 67 c7 fa 3c
       -0.061317552 -0.04983867 0.041678432 0.03061266
000010 6a 30 85 3b 98 49 2a 3d 51 59 5f 3c 72 12 1e bd
       0.0040646093 0.04157409 0.013632135 -0.03859181
000020 9a a3 60 bc 7c 38 a4 bb ac 42 0d 3d 5e 57 43 3d
       -0.013710881 -0.0050116163 0.03448741 0.04769074
000030 05 fb 2d 3d c6 99 ef 3c 3f b7 ad bc 05 af bf 3c
       0.04247572 0.02924813 -0.021205543 0.023398886
000040 5f 77 06 bd cf 63 85 3c ac e2 44 3d 60 b9 6d 3d
       -0.032828685 0.016282944 0.048067734 0.058038116
000050 94 0b fc 3c b2 15 08 3c 06 a8 07 3d 28 bf d4 bb
       0.03076724 0.008305954 0.033119224 -0.006492514
000060 5d d5 82 3d 2f a0 4b 3c 93 aa 38 bd 81 f2 48 bb
       0.06388352 0.012428327 -0.045084547 -0.0030662122
000070 eb 13 47 3d 57 a8 f1 3c f1 1a 62 3d 4c 69 83 3c
       0.04860298 0.029499216 0.055201475 0.01604142
000080 be d9 4f bd f0 27 4c bd b2 e3 96 bc 62 ca 4f bd
       -0.050744765 -0.049842775 -0.01841912 -0.050730117
000090 f6 47 13 bd a7 79 16 bd 2c 6a 3f 3d 36 3c 37 bd
       -0.0359573 -0.03673711 0.046732113 -0.044735156
0000a0 81 65 65 bd 46 f9 4f 3d 94 d2 b5 3b 70 1e b3 bc
       -0.056005005 0.050774835 0.0055487845 -0.0218651
0000b0 fc ab 65 bb fb e4 80 bd 95 1e 46 3d 3e 44 d4 bc
       -0.0035045138 -0.062936746 0.04836901 -0.025911447
0000c0 fd fc 14 bd 60 17 da 3c ed b6 53 3c f3 e0 8a bc
       -0.03637408 0.026622474 0.012922031 -0.016952967
0000d0 6a 33 be bc ad 94 b6 bc 01 0b f9 3b 60 39 62 3b
       -0.023217876 -0.022287691 0.0076001887 0.0034519061
0000e0 6b 20 c6 39 ea 6e ed bc 92 90 18 bd 7f ad 80 bc
       0.00037789656 -0.028983552 -0.037247248 -0.01570773
0000f0 60 e1 5a 3d 17 a5 57 bc a1 e8 15 bd 8d bf b6 bc
       0.05343759 -0.013161919 -0.036598805 -0.022308135
000100 41 aa bb bc 8e a9 07 bd c9 e6 85 3c ad 96 02 3c
       -0.022908332 -0.033120684 0.016345399 0.007970494
000110 71 2d 82 3d ca 2a 59 3d 3e b1 2b 3c 49 b2 4f 3d
       0.063563235 0.053019322 0.01047927 0.050707135
000120 98 23 22 bd 97 40 ab 3b c1 6b 05 3d d2 29 f8 3c
       -0.039584726 0.0052262056 0.032573465 0.030293379
000130 74 22 bc bc 2d 1f 09 3c 22 9b a4 3b a7 c4 30 bd
       -0.022965647 0.008369249 0.005023376 -0.043156292
000140 c7 49 51 bc 17 e9 4e bd 35 e5 4e bd 87 eb 0e 3d
       -0.012773938 -0.05051526 -0.050511558 0.034892585
000150 09 e5 2c bd 7f 83 1f bc 37 b3 33 bd 6d cf dc bc
       -0.042210612 -0.009735941 -0.043872084 -0.026954377
000160 82 81 2b 3a 91 01 3d 3d cb 55 84 bc bf 91 23 3d
       0.00065424305 0.046144072 -0.01615419 0.039933916
000170 6d 84 06 39 69 a7 c7 bc 5b 5f 7a 3c 5c b9 db bc
       0.00012828568 -0.02437182 0.015281524 -0.026821785
000180 01 75 c4 bc 15 7b 4f bd b5 cb 88 3b 54 76 42 3d
       -0.023981573 -0.05065449 0.0041746744 0.047476128
000190 4c 3e 02 bd 36 3a 23 3d 16 b8 00 bd a8 72 2f 3b
       -0.031797692 0.039850436 -0.031425558 0.0026771221
0001a0 90 6e 1d bd ce 70 40 bc 01 47 36 bd 5a e9 96 bd
       -0.03843552 -0.011745645 -0.04450131 -0.07368727
0001b0 89 3d ff 3c e5 7b 40 bd aa a7 73 3c d6 f2 94 3c
       0.031157272 -0.046993155 0.014871517 0.0181822
0001c0 15 30 40 bd d9 e6 4d bd 62 c6 08 bd a4 6b dc 3c
       -0.046920855 -0.05026898 -0.033392318 0.026906796
0001d0 d8 f6 d6 bc 23 3b 64 3d 9f 8d cc ba 5f e6 5e bc
       -0.026240751 0.05572046 -0.0015606171 -0.013604729
0001e0 a9 ca 3f 3d 19 fb 6b bd 20 7b 07 bc 07 9c b2 bc
       0.04682413 -0.057612512 -0.008269101 -0.021802915
0001f0 ca ed 65 bd 95 97 6a 3d 02 25 3b bd 78 9a 42 3a
       -0.056134976 0.057273466 -0.04568959 0.00074235303
000200 fc 5b 62 bd c7 96 21 3d 25 1a 51 bd 6e f6 a0 bc
       -0.055263504 0.039450433 -0.051050324 -0.019648757
000210 f2 a5 5e 3d 30 f1 42 bd 3a 1e 7a 3d 17 9f db 3c
       0.054357477 -0.047593296 0.061063983 0.026809258
000220 91 6d 22 3c 16 f0 2e bd 6e 01 19 3d bb 89 1d 3c
       0.009913818 -0.042709433 0.03735488 0.009615357
000230 c0 cf a4 bc 21 ed 2c bd 89 3b 54 bd 0f ac 42 3d
       -0.020118594 -0.04221833 -0.05181459 0.04752737
000240 91 c0 29 3c 71 ee c5 bc cf 56 b5 bc 24 ba 45 bc
       0.010360853 -0.02416155 -0.02213612 -0.012068305
000250 93 40 79 3c 27 56 80 3d df a7 d7 bb a6 85 5e bd
       0.01521315 0.06266432 -0.006581291 -0.054326676
000260 2d fa 7f 3a 9e 82 71 3d 76 25 81 3d fa 71 02 3d
       0.0009764757 0.058962457 0.06305973 0.031846978
000270 55 fc bd bc 81 67 07 3d e1 15 89 bb 5b 2b 17 3d
       -0.02319161 0.033057693 -0.0041835164 0.03690658
000280 e9 1c 5d bd ce 24 17 bd a0 31 8e 3c 27 b3 c1 bb
       -0.05398265 -0.036900334 0.017357647 -0.005911249
000290 18 eb 59 bd 72 e8 fb 3c dd 2f 50 3b f5 8d 4d 3d
       -0.05320272 0.030750487 0.003176681 0.05018421
0002a0 36 26 00 3d 00 8e 2c ba d9 a4 e7 bb a5 b4 bb ba
       0.03128644 -0.0006582439 -0.007069212 -0.0014320804
0002b0 ae 6a 6c 3c fe ac 87 3c 5d 1d 28 bd 0b 7e 99 3b
       0.014429731 0.016561981 -0.041043628 0.004684215
0002c0 31 b3 82 3d 4a ce 01 ba a8 a9 27 3d 7d 5f 31 3a
       0.06381834 -0.0004951699 0.04093328 0.0006766243
0002d0 58 22 0d 3c 83 0b 25 3d 18 4d 16 bc 4e 68 46 bd
       0.008614145 0.04029418 -0.009173654 -0.048439316
0002e0 62 dd 50 bd 9a f3 06 bd e5 9a 39 bd 41 11 55 3b
       -0.050992377 -0.03294716 -0.045313735 0.0032511505
0002f0 10 81 66 bd 59 17 53 3d 43 d5 36 bd 31 21 9d 3c
       -0.056275427 0.051535938 -0.044636976 0.019180866
000300 b5 95 87 bd 8b d6 76 3c 15 c3 70 bc e1 78 24 bd
       -0.06620351 0.0150657995 -0.014694949 -0.04015434
000310 97 dd 27 3d 10 e3 58 3d ce c4 98 bc 45 55 15 bd
       0.04098281 0.05295092 -0.018648531 -0.036458272
000320 09 eb 82 3c fc 9c 83 bd 75 88 65 3b 8e d6 ef 3c
       0.015981214 -0.06426427 0.0035023962 0.029277112
000330 4d aa b1 3c 92 a3 54 3d e7 14 b4 bc 35 23 bf bc
       0.021687651 0.051913805 -0.021982623 -0.023332218
000340 90 f2 0a 3a d5 4d b4 3c 96 fb cf 3c 64 e9 99 3b
       0.0005300427 0.02200977 0.02538852 0.004697012
000350 3d 68 cf 3c 10 a2 3f 3c 87 13 41 3c a8 5b 4a bd
       0.02531826 0.011696354 0.011784441 -0.049403816
000360 31 b6 95 3d 15 5f 84 3d 00 c8 ab 3c a8 d6 36 bd
       0.07310141 0.06463448 0.02096939 -0.044638306
000370 dd 52 ee 3c 2c 78 14 3d 9f 91 ec bc 06 6c fe bb
       0.029092247 0.036247417 -0.028878031 -0.0077643422
000380 74 55 18 bd 52 a9 14 bd 42 01 0f 3d 7f 51 8c bc
       -0.03719087 -0.03629429 0.03491331 -0.017128704
000390 0f 6e f7 bc 8e f8 07 bc 8c fb f1 3a d2 5f 5e 3d
       -0.030203847 -0.008299006 0.0018461808 0.0542906
0003a0 e9 33 4a 3d 55 5c e6 3b fb b5 9a bc e9 e5 72 bd
       0.04936591 0.00703005 -0.018885603 -0.05930129
0003b0 04 e7 21 3c 41 d5 bd 3c c7 19 5f 3d 83 2a 4d bd
       0.009881739 0.023172976 0.054467943 -0.05008937
0003c0 1d f0 5f 3d 83 ee 50 3d 29 78 7b 3d 15 e9 34 bd
       0.05467235 0.051008713 0.06139389 -0.044167597
0003d0 f7 16 42 3d e1 69 a1 3c b6 6f 58 3d 0e 10 1a bd
       0.047385182 0.019703807 0.05284091 -0.037612967
0003e0 31 fe ab bc 47 66 58 3c 81 36 5a bd f5 cc 78 3d
       -0.020995231 0.013207979 -0.053274635 0.060742337
0003f0 0c 41 2b 3d e2 ae cb 3c f4 73 71 bd d6 d9 f4 38
       0.04181008 0.024863664 -0.058948472 0.00011675402

bias f4 [60]
000000 61 10 b4 bc a0 bd 4f bd 14 16 5f bd ce e4 33 3d
       -0.021980466 -0.05071795 -0.054464415 0.043919377
000010 2e 6c 5f 3d 46 f3 cb bc 47 0b 1a bb e1 02 fe bb
       0.054546528 -0.024896275 -0.0023505257 -0.007751808
000020 0f 13 f7 bc 57 00 0a 3d 1f bc 0a bd 46 3c 1e bd
       -0.030160455 0.03369173 -0.033870813 -0.0386317
000030 74 b4 38 3c aa 78 df 3c 1a 0e 41 bd 17 02 e2 bc
       0.011273492 0.027279217 -0.04713259 -0.027588887
000040 5e c8 3a bc 64 c4 3d 3d e3 a9 7f 3c 68 b5 58 3d
       -0.01140031 0.04632987 0.015604469 0.052907377
000050 8a e0 34 3d 07 eb 60 bd c8 53 01 3d b3 bb ac bb
       0.04415945 -0.05491164 0.03157404 -0.005271399
000060 8f e6 9c 3c c2 d5 15 3d 12 7c 50 3d f7 30 ed bb
       0.019152908 0.03658081 0.050899573 -0.007238503
000070 c2 ca 93 bc 97 27 27 bd ac 26 1d bd 9c d4 d1 bc
       -0.018041018 -0.04080924 -0.03836696 -0.025614075
000080 8e 6e 5c bd b0 58 c2 bc 50 a5 48 3d fb 93 21 bc
       -0.05381637 -0.02372393 0.04898578 -0.009861941
000090 1e 57 e2 3c 5f 7e 29 3d b2 53 44 3d 03 7f 3f 3d
       0.027629431 0.041380282 0.04793138 0.046751987
0000a0 80 de a2 bc 08 94 91 3c aa fb 6b 3d 02 4a 0a bd
       -0.019881487 0.017770782 0.057613052 -0.033761986
0000b0 bc 14 be 3c 65 d3 3a bd 12 c3 4e 3c 46 75 cf 3c
       0.023203246 -0.045611758 0.012619751 0.025324475
0000c0 53 b8 00 3d 4c 6f a8 3c 14 78 ae bc b0 83 c9 bc
       0.031425785 0.020560883 -0.021297492 -0.024598926
0000d0 ae 5f 65 bd 3a d7 98 bc fe ad da 3c 3e f5 1f bd
       -0.05599945 -0.018657316 0.026694294 -0.03905224
0000e0 c1 0e 54 bd 60 74 47 bd 61 89 5b 3d c7 5e 08 bd
       -0.051771883 -0.04869497 0.05359781 -0.03329351

weight f4 [20, 60]
000000 55 92 2d bd 41 86 c1 bd ce 5e 88 bd 23 ba 92 bd
       -0.04237588 -0.09449435 -0.066587076 -0.07164409
000010 ec 74 1d 3c c6 27 f1 bc af 6d 8a 3d e1 81 3d 3d
       0.009610396 -0.02943791 0.06759202 0.04626644
000020 2c 52 70 bd e0 2f ae 3d c2 ad cf bc de 97 15 bd
       -0.058672115 0.08505225 -0.025351409 -0.036521785
000030 3c 19 c5 3d 8e 93 2b bd 2c e6 bb 3d 8f ae b6 bc
       0.09623954 -0.041888766 0.09174761 -0.022300033
000040 d8 e4 e4 bd ba ad c9 bd dd d2 f9 3d a6 a0 1a bd
       -0.11176461 -0.09847589 0.12198422 -0.037750863
000050 ac 61 e1 bd 7d 82 28 3d e2 53 b6 bd 2b f9 2b 3b
       -0.110049576 0.04114007 -0.08902718 0.0026241045
000060 9b 08 72 bc 27 eb 8c bd e1 2d 9e 3d 23 27 16 3d
       -0.0147725595 -0.06880789 0.077235945 0.036658417
000070 21 d1 fe 3b 99 30 50 bd 83 51 d3 3c 7c b2 c8 3d
       0.007776395 -0.050827596 0.025795704 0.09799668
000080 41 34 04 be 71 81 03 bd d7 d1 9f bd 33 f7 91 3d
       -0.12910558 -0.032105867 -0.07803696 0.07127228
000090 31 8e 44 bd 2d e5 d9 3d 87 d0 8e bd 0b 66 ad bd
       -0.047987167 0.10639415 -0.06973367 -0.08466729
0000a0 bb 59 75 bd 61 fd dd bd c2 0a a2 bc ef f1 06 bd
       -0.059900027 -0.10839344 -0.01978052 -0.03294557
0000b0 9b 13 fc bd 60 65 80 bd 65 10 b2 3c 0b f5 85 3d
       -0.12308427 -0.06269336 0.021736333 0.06540879
0000c0 15 c7 ed 3d af 7a d6 3b 86 91 94 3c e6 bf a1 bd
       0.116102375 0.0065453867 0.018135797 -0.0789793
0000d0 4e af 17 bd 32 15 c2 3d 36 93 44 3d 98 a8 3d bd
       -0.037032418 0.09476699 0.047991954 -0.04630336
0000e0 0e 23 f7 3d 5c 00 7a 3d 9d e2 ca bd 8f f4 af bd
       0.12067233 0.0610355 -0.09906504 -0.08591568
0000f0 79 e3 4c 3c 39 c4 5c bd 34 83 90 bd 80 8b e2 bd
       0.012505406 -0.05389807 -0.07056275 -0.11061764
000100 ac 1f 9e bd 97 28 9d bd 6f b8 b9 bc a6 de 52 bc
       -0.07720885 -0.076737575 -0.022670953 -0.012870466
000110 e8 84 85 3d 56 13 c9 bb 7c 23 db bd 5c 19 81 bd
       0.065194905 -0.006136338 -0.107001275 -0.06303665
000120 55 e8 fe 3d 2f a1 33 bc 3a 2d 0c be 62 48 cd bd
       0.124466576 -0.010963722 -0.13689128 -0.100235716
000130 2b cb dd bd 2a 44 9f 3d 70 29 9d 3d e7 be c8 3d
       -0.10829767 0.07776673 0.07673919 0.09802037
000140 2a 05 11 bd 15 4c c7 3c f1 cd c1 bd 4a 9a f5 bd
       -0.035405315 0.02432827 -0.09463108 -0.11992319
000150 8b f1 da bc 48 6b cd bd 07 f4 d5 3d 23 c4 cd 3d
       -0.026726505 -0.10030228 0.10446935 0.10047176
000160 58 cf 53 bc ee 75 6f 3d b6 e4 17 bd 75 0b b6 3d
       -0.012927853 0.058462076 -0.03708335 0.08888904
000170 64 c2 7a bd d1 61 01 be 20 b4 d7 3d 05 22 e5 bc
       -0.06122054 -0.1263497 0.10532403 -0.027970323
000180 5b a8 7f bc 74 03 e7 3d 80 a3 c7 bc 72 98 fc 3d
       -0.015604104 0.112799555 -0.024369955 0.12333764
000190 5e 75 9e bd 41 a7 36 3d f6 6b ac bd 73 18 ef 3d
       -0.0773723 0.0445931 -0.084190294 0.11674585
0001a0 cc 81 3f bc 34 7f ae 3d 8c 26 d0 bd 4c a1 c1 3b
       -0.011688661 0.08520356 -0.10163602 0.0059091207
0001b0 28 f6 53 bd c0 b6 8a bd f1 7b 96 bd 86 07 db bd
       -0.051748425 -0.06773138 -0.07347859 -0.10694794
0001c0 08 f4 fe bd 46 25 ef bd 23 f0 13 3c 3f d5 79 bd
       -0.12448889 -0.11677031 0.009029421 -0.060994383
0001d0 e0 1e 80 bd 02 07 b6 3d f8 12 6c 3d b4 9c a5 3d
       -0.06255889 0.088880554 0.057635278 0.080865294
0001e0 96 a2 1b 3d d6 2b 0d bd 39 fa de 3c 91 b4 bf bd
       0.03799685 -0.034465633 0.027218925 -0.09360612
0001f0 a4 fa 16 bd 3a 24 03 3e 25 c1 d9 bc 49 2c 47 bd
       -0.036860123 0.12806788 -0.026581356 -0.048626218
000200 1d 4e 19 bc 70 63 bf bd b3 da e0 bd 45 ab 24 3c
       -0.009357003 -0.09345138 -0.109792136 0.010050599
000210 cf 73 91 3d 74 0c ae 3d 3b f6 0e 3e ef d4 4d 3d
       0.07102167 0.08498469 0.13961117 0.050251897
000220 14 31 32 3d 95 cf 6a 3c 8a 8d 13 bd 6e 78 8a bd
       0.043503836 0.014331718 -0.036023654 -0.067612514
000230 cc cb 99 bc 80 38 bf bd ea 70 87 bd 2b 43 c3 3d
       -0.018773936 -0.093369484 -0.066133335 0.09534296
000240 c4 86 5f 3d ec 09 ab bd 91 4d 12 be a6 e6 83 bd
       0.054571882 -0.08351502 -0.14287402 -0.06440477
000250 3b 07 a7 3d 06 7c 39 3d 30 77 c0 bd 7c 20 0d 3e
       0.08155676 0.045284294 -0.09397733 0.13781923
000260 40 98 33 3d b3 4e d5 3d 47 96 b5 3d d6 14 09 3e
       0.04384637 0.10415401 0.08866554 0.13386855
000270 67 af 88 3d e3 11 e5 bd 6a 5b d0 bd 55 7d 71 bc
       0.0667408 -0.11185052 -0.10173686 -0.014739354
000280 bc a4 9c bd 08 c8 30 3d 12 10 1b 3d 11 72 51 3c
       -0.07648608 0.043159515 0.037857123 0.012783543
000290 a1 fa fc 3d 5b 2b e7 3c 1c 6e 9c bd 82 4e db bd
       0.12352491 0.028218916 -0.07638189 -0.107083336
0002a0 51 69 db 3a be af e1 3d 5d ba df b7 e4 ca 21 bd
       0.0016739761 0.11019848 -2.6670454e-05 -0.039500132
0002b0 59 97 82 3d bb 69 28 3d ec 3f 3a bd 82 76 92 3c
       0.063765235 0.041116457 -0.045471117 0.017878775
0002c0 61 0a 48 bd f6 67 13 3e b2 75 bf 3b 04 81 2e 3d
       -0.048838023 0.14395127 0.005842888 0.042603508
0002d0 c9 68 e6 bd 3f d0 40 bd 31 bf de bc 87 92 36 bd
       -0.11250455 -0.0470736 -0.027190777 -0.044573333
0002e0 72 ff ac 3d 12 1d a3 3c 83 c7 e8 bd fc fa bb bd
       0.0844716 0.019911323 -0.11366179 -0.09178731
0002f0 1a d7 0b be fc a5 19 be d2 2d 9d bd 4d 38 42 bd
       -0.13656273 -0.15004724 -0.07674755 -0.047416974
000300 ce f9 94 3d 3c 85 63 bd 1b 39 5f 3b c3 07 ee bc
       0.07274209 -0.055546984 0.0034061137 -0.029056435
000310 f2 16 ba 3d 83 75 bc 3d 81 c8 7b 3d a8 d9 b6 3d
       0.09086408 0.09202101 0.061470512 0.089282334
000320 0a 00 5b 3d 2d 2b d0 3c 6c 61 8f bb a2 dc 0a bd
       0.053466834 0.025411213 -0.0043756273 -0.033901818
000330 da 13 63 3d 19 05 98 3d 5b c9 16 be 62 31 bb bd
       0.055438854 0.07422847 -0.14725249 -0.091402784
000340 f8 20 bb bc b4 23 d3 3d 5e 05 91 3d 8a 0f b1 3c
       -0.02284287 0.10309544 0.07081102 0.021613855
000350 e6 86 e4 3c d9 5a f3 bd b7 b8 0f bd 6f 78 2e 3d
       0.027896356 -0.11882562 -0.035088267 0.042595323
000360 13 b7 a4 3d 9e 18 22 bd be ee cb bc f0 a7 fc 3c
       0.08042731 -0.039574258 -0.024894115 0.030841798
000370 1f 05 81 bd 43 b1 18 3d e6 04 2b 3d 45 11 07 3d
       -0.06299805 0.037278425 0.04175272 0.032975454
000380 b1 5b 05 3e 32 1c a6 bc 64 db 88 3c b7 63 f5 3d
       0.13023259 -0.020277116 0.016706176 0.1198191
000390 dd c5 35 bd 3a b0 02 bd 3d b8 a2 3c f2 68 6f 3d
       -0.04437815 -0.031906344 0.019863242 0.058449693
0003a0 30 a7 86 3c 09 fa c1 3c fd 2b 9c bd 59 00 00 be
       0.016437143 0.023678796 -0.076255776 -0.12500133
0003b0 a6 83 3b bb e5 61 8a bd a1 8f dc bd 7f d2 38 3d
       -0.0028612404 -0.06756953 -0.107695825 0.04512262
0003c0 6a df a6 3d 09 51 f5 3b f0 b6 ae 3d 8d 00 74 3d
       0.081480816 0.007486467 0.08530986 0.059570838
0003d0 ef a5 99 bd 93 12 14 3d 95 fe 0c bb e6 51 f1 3d
       -0.075023524 0.036150526 -0.0021514047 0.11783199
0003e0 c7 17 95 3d 72 65 95 3c 00 7d 89 bd 9a 39 95 bd
       0.07279926 0.01823685 -0.06713295 -0.07286377
0003f0 64 25 a9 3c 35 92 94 3d a8 d3 c1 bd cc 3e e7 3d
       0.020647712 0.07254449 -0.09464198 0.112912744

bias f4 [20]
000000 32 e0 bd 3d 7f 54 60 bc 32 12 e5 3d fc a3 ac bc
       0.092712775 -0.01369202 0.11185111 -0.021074288
000010 c9 59 cc 3d 46 00 8c 3c 42 36 20 3d 72 12 bc ba
       0.09978063 0.017089974 0.039114244 -0.0014348759
000020 b6 26 4f ba 4f df df 3d 8c 79 d9 bd a4 81 5d bd
       -0.0007902192 0.109312646 -0.10618886 -0.054078713
000030 ab 60 7d bd d1 48 f6 bd f4 ef 39 3d eb 61 64 bc
       -0.061859768 -0.120256074 0.045394853 -0.013939361
000040 16 f0 af 3d 86 e8 8e bd 7e c8 06 bc a0 9c 82 3d
       0.08590715 -0.06977944 -0.008226512 0.0637753

weight f4 [12, 20]
000000 82 c9 22 3e c9 47 14 3e 8c e5 51 3e fd 4c 4c 3e
       0.15897182 0.14480509 0.20497721 0.19951244
000010 2b 7a dc 3d f0 f7 b6 bd 11 62 13 be 83 33 48 bd
       0.10765489 -0.08934009 -0.14392878 -0.04887725
000020 a4 c0 07 be 13 bd 1c 3e 15 a4 72 3e ef bf 0d be
       -0.1325708 0.15306501 0.23695405 -0.13842748
000030 ec 02 35 be df 7e a1 bd f8 39 18 be 69 a5 37 3d
       -0.17676896 -0.07885527 -0.14865863 0.04483548
000040 c2 a1 4e 3e d5 ac 1b 3e a7 3d 49 be 9b b4 99 bc
       0.20178893 0.15202649 -0.19652425 -0.018762877
000050 38 95 11 bd f0 4c 56 3c a7 de b9 3d aa d2 e3 bd
       -0.035542697 0.013079867 0.09075671 -0.11124165
000060 ce e3 fa bc 7e 5f ad 3c 7a bd fa bd 44 13 53 3e
       -0.030626204 0.021163698 -0.12243171 0.20612818
000070 b2 8c 99 bd 0b 15 c6 bc 0d b4 c9 bd 1c 52 06 bd
       -0.074975386 -0.024179956 -0.09848795 -0.03279315
000080 38 7d 0c bd 8f cc c5 bb 2f fd 87 bd 4c 9c 5d 3d
       -0.034299105 -0.006036348 -0.06640088 0.054104134
000090 f5 e9 21 3e 8a 80 ea bb 02 8e 9c bc 7f e8 3a be
       0.15811904 -0.0071564363 -0.019110683 -0.18252753
0000a0 94 3d d7 bd 77 7d 28 bd e2 74 93 3b b0 3f c3 3d
       -0.10509792 -0.041135278 0.0045000175 0.09533632
0000b0 7d 38 73 3d 46 85 7f 3e ea 08 55 3e 8c 3a 81 3b
       0.059380043 0.24953184 0.20804182 0.003943747
0000c0 34 08 d7 3b e5 45 43 be 68 f3 e3 3d 16 a7 9b 3e
       0.006562257 -0.19069631 0.111304104 0.30400914
0000d0 92 e7 87 bc 85 11 e9 3d 08 bf e7 bd 41 af 39 be
       -0.016589914 0.11380295 -0.11315733 -0.1813326
0000e0 fc 69 8e 3d e3 e5 74 3e 1d 22 4d 3e 80 40 18 3e
       0.06953809 0.2391582 0.20032544 0.14868355
0000f0 e9 36 c6 bd 03 08 81 bd 34 83 f7 bd ba 20 6c be
       -0.09678442 -0.06300356 -0.12085572 -0.23059359
000100 45 ea 36 bc a2 0b 23 3d 09 2d 67 be ff 80 7d bd
       -0.011164253 0.039806016 -0.22575773 -0.0618906
000110 b0 05 1d be 63 53 36 3d 64 8b 8b 3e 1c 78 af 3d
       -0.15334201 0.044513118 0.27254784 0.08567831
000120 6c d0 2b 3c b1 db 32 3d a0 89 87 bd 01 9b e8 3d
       0.010486703 0.043666545 -0.06618047 0.1135769
000130 10 b1 37 3d 74 76 18 be a2 cb 45 3c d0 27 1a 3e
       0.044846594 -0.14888936 0.012072476 0.1505425
000140 1f 1e 9c 3d f9 c5 92 3d a8 35 0d 3e 73 54 07 3e
       0.07622933 0.071666665 0.1379 0.13215809
000150 73 fc 34 3e 80 06 56 3e 09 d5 25 be ea 42 9a 3d
       0.17674427 0.20900917 -0.16194548 0.07532294
000160 85 16 54 3e 5a d4 48 3e c6 77 7f bd a9 93 1a 3b
       0.20711716 0.19612256 -0.062370084 0.0023586547
000170 66 d3 63 be 20 01 5e 3d cd 0a 3d bd b2 6e a1 3d
       -0.22248611 0.05420029 -0.04615288 0.078824416
000180 45 dc 59 be 6d 8d cb bc bd dd 62 bc 36 04 10 3e
       -0.21275432 -0.02484771 -0.013846812 0.14064106
000190 4c 15 aa 3d 22 06 d5 bd 99 3c 95 bd 41 70 02 3e
       0.08304843 -0.1040156 -0.07286949 0.12738134
0001a0 f5 ea d5 bd e1 c8 2a be a6 55 13 bc 64 26 1a be
       -0.10445205 -0.16678192 -0.008992588 -0.15053707
0001b0 f8 63 28 be 1a aa 94 3c c2 4f 2b 3e 9c 56 09 3b
       -0.16444385 0.018147517 0.16729644 0.0020956164
0001c0 9d 0e 07 be 24 6d b2 3d af e2 bc 3d 96 94 84 bd
       -0.13189168 0.08712223 0.09222924 -0.06473653
0001d0 93 aa 59 3e 77 e1 5f 3e 3d 28 19 be 06 40 fc bd
       0.21256475 0.21863352 -0.14956756 -0.12316899
0001e0 9c 30 1d be 2d 60 58 be 78 1d c6 bc 58 75 bd bd
       -0.15350574 -0.21130438 -0.024183974 -0.09250897
0001f0 5c 0a 17 be a2 61 52 bd 40 f8 90 3e a2 53 ad bd
       -0.14750046 -0.05136264 0.283144 -0.08463217
000200 86 cc b0 3d 6d ee 98 bd 23 8c 54 3e 29 a3 c4 3d
       0.0863276 -0.07467351 0.20756583 0.09601433
000210 b9 70 73 bd 1f bd 3c be 98 62 0b bd 56 4b c4 3d
       -0.059433673 -0.18431519 -0.034029573 0.09584682
000220 f0 33 4e 3e 14 93 7c 3e 5f 9d 3a be 08 46 3d 3e
       0.20137 0.24665481 -0.18224095 0.18483746
000230 73 69 52 bd f1 ad 5f be f0 28 81 3d a1 60 3a bd
       -0.051370095 -0.21843697 0.06306636 -0.04550231
000240 b9 18 8c 3d 45 73 1b be dd 64 42 3e fa 01 ba bd
       0.06840653 -0.1518069 0.18983789 -0.09082408
000250 42 e0 57 be 26 5c 50 3c 91 43 1f be e7 9f f6 3d
       -0.21081641 0.012717282 -0.15553118 0.12042218
000260 46 8b 0b 3e 37 ed 5d 3e 4d b2 f3 bd 4a d9 8f 3c
       0.13627347 0.21672522 -0.118992426 0.017559666
000270 95 bb 5a be 8e 61 97 bc bf f1 ac bc a2 89 b2 3c
       -0.2136062 -0.018479135 -0.021111367 0.021794144
000280 1f 7f 4e 3b 39 ff 29 bd 85 4e 1f 3e 75 dc d5 bd
       0.0031508876 -0.041503165 0.15557297 -0.104424395
000290 c4 c7 47 3e 4c a8 49 3e e0 e2 07 3e 56 94 18 3d
       0.19509798 0.19693106 0.1327014 0.03725084
0002a0 36 4b 12 3e 47 e0 66 3e 58 11 6b 3d 0d 36 11 bb
       0.14286503 0.22546493 0.057389587 -0.002215746
0002b0 e5 d2 53 be bd 48 3a be 87 d2 3b be 2b 80 99 bd
       -0.20685919 -0.1819181 -0.18342029 -0.07495149
0002c0 c6 54 25 3e 61 fd 43 be 5e f1 62 3e 17 42 0c be
       0.1614562 -0.19139625 0.22162387 -0.13697086
0002d0 3c 33 0e bd f1 83 1a be 82 38 38 3e 6c 56 0a 3e
       -0.03471683 -0.15089394 0.17990306 0.1350953
0002e0 0a 76 59 be 3d e9 7b 3b 53 2e 44 be c2 1f ca bb
       -0.21236435 0.0038438581 -0.19158296 -0.0061683366
0002f0 f9 6c 50 be c4 76 55 3e dd 04 98 3d bc e6 55 3d
       -0.2035407 0.20846087 0.074228026 0.052222
000300 34 ca 2b 3e 5b b5 85 3e af 65 26 3c b6 6b 31 3c
       0.16776353 0.26114926 0.010156079 0.010828903
000310 59 fc eb 3d eb 12 4b be ec ba 2b 3e 99 15 b5 bc
       0.11522741 -0.19831435 0.16770524 -0.022105025
000320 92 60 8f 3c 95 6f 1f 3e b6 c8 14 3d e2 ac 75 bd
       0.017502103 0.15569909 0.036324225 -0.059979327
000330 ce fb b6 bd 91 ec bb bd f3 50 a7 3d b4 79 2d 3e
       -0.08934747 -0.09175981 0.08169737 0.16940957
000340 22 76 f6 bd a4 b3 fb 3d 0f 03 58 be b4 a0 3a be
       -0.12034251 0.12290123 -0.21094917 -0.18225366
000350 95 17 5b 3e b8 d0 5c bc a4 d1 e5 3c fe 54 8a 3d
       0.21395715 -0.013477497 0.028054066 0.06754492
000360 6e f3 d2 bd b0 37 de 3d 32 40 58 be c4 1a f5 3a
       -0.10300337 0.10850465 -0.21118239 0.0018699993
000370 01 19 c3 bd 7c 6f 24 3e f8 42 45 be 86 67 39 3e
       -0.095262535 0.16058153 -0.19263828 0.18105897
000380 47 e6 0d be 58 93 f7 3c 46 73 20 3d c3 cf 52 3e
       -0.13857375 0.030221626 0.039172433 0.20587067
000390 54 13 fb 3d a3 22 cd bc 79 ec 6c be 2d 19 c0 3d
       0.12259546 -0.02504093 -0.23137082 0.09379802
0003a0 93 a0 4f 3e 92 62 f0 3d 50 0f d1 bd 5e a4 12 3e
       0.20276098 0.11737551 -0.10207999 0.14320514
0003b0 ea 8b 5a be 11 b3 18 3d 50 d2 c9 bd 86 a6 a2 bc
       -0.21342435 0.037280146 -0.09854567 -0.019854795

bias f4 [12]
000000 43 29 fd bd 75 a7 09 3e 5e 13 c3 3d 72 5d 5e 3e
       -0.12361386 0.13442786 0.095251784 0.21715334
000010 4f 48 8e bc 26 de 32 3d de f9 17 3e 77 e7 62 3e
       -0.017368464 0.04366889 0.1484141 0.2215861
000020 28 73 0a be ba f4 5d 3c 6d c3 4f 3c 91 59 57 be
       -0.13520491 0.013547117 0.0126808705 -0.2103026

weight f4 [10, 12]
000000 4c 0a a5 3e ec 8a 48 be d7 2c 0a be 69 23 cd bc
       0.32234418 -0.19584244 -0.13493668 -0.025041299
000010 a8 a1 32 be 00 7d 64 3e c6 27 1b be 37 88 20 3e
       -0.1744448 0.22313309 -0.15151891 0.15676962
000020 87 f6 12 3e 57 7b 19 3e fd 38 2e 3e 3f cd ad bd
       0.14351855 0.14988457 0.17013927 -0.08486413
000030 7f 89 22 3d 9e f8 b6 bd 02 66 5f 3e 03 8d 4b be
       0.039681908 -0.08934139 0.21816257 -0.1987801
000040 42 cf 9c bd 70 d8 6c 3e 6d b7 a5 3e a9 6f 4d bd
       -0.07656719 0.2312944 0.32366505 -0.050155316
000050 2b e2 03 3e 27 c8 ad be a8 02 7f 3e 92 e5 09 be
       0.12879245 -0.33941767 0.24903357 -0.1346648
000060 01 c5 7f 3e 5b 90 29 be 4c 45 98 bd de 73 49 be
       0.24977495 -0.16558973 -0.07435092 -0.19673106
000070 74 06 83 be 97 6e 64 be f9 3b df ba a8 d2 08 be
       -0.2559086 -0.22307812 -0.0017031423 -0.13361609
000080 13 43 27 be bc 72 22 be 91 a4 e6 3c 61 42 e7 bd
       -0.1633418 -0.1586408 0.028154643 -0.11291958
000090 4d 63 38 bc 50 f0 55 bd 5e 89 b1 3c 6c 65 88 be
       -0.011254144 -0.052231133 0.021671947 -0.2663988
0000a0 25 3b 40 be 4f bb 11 bd 30 cc 50 3e 95 4c d7 bc
       -0.18772562 -0.035579022 0.20390391 -0.026281634
0000b0 2c fa 10 be 99 db 2b be 6a 69 4b be 8f aa a7 bd
       -0.14157933 -0.16782989 -0.19864431 -0.08186828
0000c0 81 ce 3e be d4 f4 02 3e 4b b5 77 be d0 2d 21 3e
       -0.18633462 0.12788707 -0.24190252 0.15740132
0000d0 e5 3e 8f 3e 5d 44 b9 3d f2 7f 04 bd 41 30 ef 3d
       0.27977672 0.090462424 -0.03234858 0.116791256
0000e0 39 7f 86 3e 95 82 4c 3d 34 c8 17 3e 8d f4 18 3e
       0.26268938 0.04992922 0.14822465 0.14937039
0000f0 db 23 1e be db 87 8c bc 5d 8c bd 3e 47 43 3b bc
       -0.15443365 -0.017154625 0.3702115 -0.011429614
000100 cd 3a e2 bd dc 69 85 bd 03 a6 a5 be 21 d9 45 be
       -0.110463716 -0.06514332 -0.3235322 -0.1932111
000110 9d bb a6 3e e1 bc 42 3e 2e 0b 62 3e 9d 1b 8d be
       0.32565013 0.19017364 0.22074577 -0.2756013
000120 70 9d 40 be 1c 42 90 be 4a b5 75 3e cc e2 2d bd
       -0.18810058 -0.28175437 0.23994938 -0.04245262
000130 af 65 b6 3e 97 ff fa 3d e1 85 90 be ca ea 6f 3d
       0.35624453 0.12255781 -0.28227141 0.05857352
000140 60 dd 1f be 57 29 e8 3d 70 8b 6a be 7b 9a aa 3c
       -0.15611792 0.1133601 -0.22904754 0.020825615
000150 ad b5 d1 bd 45 e5 5b be ac 39 72 3e c4 5a da bd
       -0.1023973 -0.21474178 0.23654813 -0.106618434
000160 ef c9 7e be f9 4b 90 be 7a 40 6d be 97 4b 14 3e
       -0.24881719 -0.28182963 -0.23169127 0.1448196
000170 88 9a a6 bd 9c 77 28 be 5a 24 a2 bd 17 5a 0b be
       -0.08134943 -0.16451877 -0.0791709 -0.13608585
000180 f1 89 17 bb b3 9b 87 3e d6 93 99 3d 97 9b 89 be
       -0.002312299 0.26485977 0.074989006 -0.26876518
000190 30 9b 53 be eb a5 55 bd f9 21 4f be 3d 63 61 be
       -0.20664668 -0.052160185 -0.20227803 -0.22010513
0001a0 5f 9b 84 be 67 84 96 3d 46 59 80 be e6 87 4b 3e
       -0.2589979 0.073494725 -0.2506811 0.1987606
0001b0 fc 0c 83 bd b7 0c e0 bd 42 5f 1b 3e 44 8a a6 3e
       -0.06398961 -0.10939925 0.15173057 0.32527363
0001c0 f2 f3 8a be 6b 47 4b 3e 60 93 3f 3d e1 2a 67 3e
       -0.2713924 0.19851463 0.046771407 0.22574951
0001d0 d6 04 c9 bd 83 ff 33 3e 7c c6 88 be fa 42 0b bd
       -0.098153755 0.17577939 -0.26713932 -0.03399942
