wine_quality_regression/model0.pth (torch, 172267 bytes, 14 tensors)

weight f4 [18, 3, 5, 5]
000000 da 75 ae 3d 78 e5 20 ba b8 dd 24 bd 0f e1 b5 3d
       0.08518572 -0.0006137709 -0.04025051 0.08880817
000010 c8 93 6c 3d 3b a1 cd 3c b7 b8 4d bd 51 ef 13 bc
       0.057758123 0.025101295 -0.050224986 -0.009029225
000020 04 3a ad 3d ac d5 9d 3d 30 fa 92 b8 f0 3d c9 3d
       0.08458331 0.0770677 -7.0084236e-05 0.09826267
000030 4e ae ae 3d cf 08 a1 3d 3e 5f d6 3c fb 00 3f 3d
       0.0852934 0.07863008 0.026168462 0.046631794
000040 04 1a ee 3d 66 c6 cd 3d f3 63 a4 bc f1 13 90 bd
       0.11626056 0.10047607 -0.02006719 -0.070350535
000050 69 b4 cf 3d 6f 51 ce 39 c0 1f d1 3d 76 18 da 3d
       0.101418324 0.00039352055 0.10211134 0.10649197
000060 ea 17 04 3e 99 02 ed bd c7 7a 62 be a9 b8 00 be
       0.12899747 -0.11572761 -0.22117148 -0.12570442
000070 92 a2 d9 bd ed 6b 29 be a1 aa 1f bd 3c f0 f1 bc
       -0.10626711 -0.16545077 -0.038981084 -0.029533498
000080 30 af 73 be a0 aa c6 bd 70 5d 59 be c8 00 60 be
       -0.23797297 -0.09700513 -0.2122705 -0.21875298
000090 01 09 5e be 55 24 23 be d4 96 3c be e8 51 21 be
       -0.21683122 -0.15931828 -0.18416911 -0.15753901
0000a0 dc 1c 53 be c9 e0 84 bd 18 dc 43 be a2 47 6f bd
       -0.20616478 -0.06488187 -0.19126928 -0.058417924
0000b0 81 01 63 bd 2f 49 32 be a0 ea 28 be a1 e9 59 be
       -0.055421356 -0.1741073 -0.16495752 -0.21280529
0000c0 ce e0 31 bd 87 99 8f bd fd 51 1a 3e 03 3e ac 3d
       -0.04342728 -0.07011705 0.15070339 0.08410265
0000d0 78 0a 15 3e 4f 66 84 bd 44 e8 67 3d fe 68 43 3e
       0.14554775 -0.06464826 0.05661799 0.1908302
0000e0 13 9d a9 3d 6e 97 aa 3d 6f fa 70 3d ab d7 22 3c
       0.08281913 0.08329664 0.058832582 0.009939115
0000f0 43 0c a6 3d 8c 44 3e 3e 52 86 f3 3d be 5c 35 3e
       0.081078075 0.18580836 0.11890854 0.1771116
000100 ec b8 ac 3c 8d 5e 00 3e e0 6f c9 3d b4 93 a4 3d
       0.021084271 0.12536068 0.098357916 0.08035985
000110 70 24 b6 3d 7e b5 1c 3e de 3f a2 3d 52 0e 5a 3e
       0.08893669 0.15303609 0.07922338 0.21294525
000120 b0 26 6a 3e 43 91 46 3e 2c c7 4e 3e 27 13 1d 3e
       0.2286632 0.1939135 0.20193166 0.15339337
000130 ac 53 86 3e 40 0b 12 3e 65 21 4b 3d c2 a7 8e 3d
       0.26235712 0.14262104 0.049592394 0.06965591
000140 f1 74 4a 3e 14 94 1c 3d 49 70 f7 bd 11 13 4f be
       0.19771172 0.038227156 -0.120819636 -0.20222117
000150 de 50 da bd dc 39 ee 3d 4b 95 2d be f4 bc 7a be
       -0.106599554 0.116321295 -0.16951482 -0.24486142
000160 e1 5f 56 be 43 4d 37 bd 51 34 58 3d b6 9c 0e be
       -0.20935012 -0.044751417 0.052784268 -0.13926968
000170 7f 62 2c be 32 83 aa 3d ec 00 4b 3d c8 9f 87 bd
       -0.16834448 0.08325805 0.049561426 -0.06622273
000180 79 f7 85 bd 9a 9f 14 3e 9d 95 0c 3e a9 e0 b9 3d
       -0.06541342 0.14514008 0.13728948 0.09076054
000190 b9 3d 54 3e 21 33 8c 3e 60 2b ae bc 7a 4c e4 3d
       0.2072667 0.27382758 -0.021260917 0.11147399
0001a0 d8 e7 40 3d 1a 2a 1f 3e f7 7d 16 bd ca b5 ff bd
       0.047096103 0.15543404 -0.036741223 -0.124858454
0001b0 c7 24 41 be 31 82 3d bd 33 8b cf bd 88 78 57 be
       -0.18861686 -0.04626674 -0.10133972 -0.21042073
0001c0 09 59 93 be fa e2 58 be 85 e1 ad bb b4 02 58 3c
       -0.28778866 -0.21180335 -0.005306425 0.013184238
0001d0 a2 f5 98 bd 1c f1 d2 bd ab 29 c3 3b 51 f4 c0 3d
       -0.07468726 -0.10299894 0.005955895 0.094216
0001e0 88 44 b3 bd 27 49 26 bd 7d 91 db 3d 02 25 6d 3e
       -0.08753306 -0.040597107 0.10721109 0.23158649
0001f0 92 49 35 3e 1a f1 a6 3d 1c b8 2f 3e 5e b1 0d 3d
       0.17703846 0.08151455 0.17160076 0.03459298
000200 6a d7 53 bd 3b 5f ad bd 9c 74 12 3d f6 7b 9c bd
       -0.051719107 -0.084654294 0.03575574 -0.07640831
000210 40 a5 79 bd e1 a6 18 be 27 d1 ad bd be 23 98 bd
       -0.06094861 -0.14907409 -0.08487158 -0.07428692
000220 85 d1 46 be 0e 4e 67 bd 1b f5 87 3c 2a b8 43 3d
       -0.19415863 -0.056470923 0.016596368 0.047783054
000230 ac 73 24 bd 8e b3 c0 bc 0e 3b 12 be 33 4d a1 3d
       -0.040149376 -0.023523118 -0.1428034 0.07876053
000240 8a dc 91 3d 4c 76 f7 bd 98 4e 24 bd d3 59 c6 3d
       0.071221426 -0.1208311 -0.040114015 0.09685101
000250 08 0f 35 3e ca 37 7e 3e 01 54 4e 3e d2 de ab 3d
       0.17681515 0.2482597 0.20149232 0.08392109
000260 97 08 b5 bd 17 71 82 be ed 12 d3 3d 38 0e 38 3e
       -0.08839529 -0.25476906 0.10306344 0.17974174
000270 89 3f 78 3e 82 17 0c be 1f 6e 56 be be 09 bc 3c
       0.24242987 -0.13680843 -0.20940445 0.022953864
000280 df 14 fa 3d 78 a0 ef 3d cc f8 85 be d1 96 7a be
       0.12211012 0.11700529 -0.2616638 -0.24471594
000290 e1 5d 1f 3d 6a 83 1a 3e aa 9d 7c 3d 96 0f 84 be
       0.03890789 0.15089193 0.061673798 -0.2579314
0002a0 c5 7f 6a be af 2a 5c 3e 97 1d 12 3e 2a 03 39 bd
       -0.22900303 0.21500657 0.142691 -0.045169033
0002b0 04 51 0d be 0d 6d 07 be 2a 1e 3c 3e 77 56 31 3e
       -0.13800436 -0.13225193 0.18370882 0.1731814
0002c0 5b 59 44 3e fe 61 5f be b3 91 64 be bc 92 db 3d
       0.19174711 -0.21814725 -0.22321205 0.10721347
0002d0 31 54 44 3e 3b 96 e4 3d 30 e8 75 be 7d f6 93 be
       0.19172741 0.11161467 -0.24014354 -0.28898993
0002e0 f6 79 47 3d ad f9 16 3e 69 72 49 3e fe c6 88 be
       0.048700295 0.14743681 0.1967255 -0.2671432
0002f0 e4 76 54 be e2 5f 8b 3d d8 b2 c2 3d 48 e8 0e 3e
       -0.20748478 0.068053976 0.09506768 0.13955796
000300 06 3c be bd 72 15 8f be 7d 83 24 3e 93 cc 3f 3e
       -0.09288792 -0.2794605 0.16065784 0.18730383
000310 ec e0 e5 3d 24 25 74 be c9 73 33 be e1 a5 6d 3e
       0.11224541 -0.23842293 -0.17524637 0.23207809
000320 88 b1 22 3e bb 9b 40 3e 42 d3 08 be 79 34 5c be
       0.15888035 0.18809406 -0.13361838 -0.21504392
000330 8b d1 87 bd af 64 21 3e 57 8b 1a 3d 3e 67 20 be
       -0.06631764 0.15761064 0.03773054 -0.15664384
000340 1f 19 01 be fe 0b 0f 3e 16 ca 10 3e 73 29 90 3e
       -0.12607239 0.13969418 0.1413959 0.28156623
000350 cc 90 38 be e7 a3 9a be d8 33 53 3d a1 18 4e 3e
       -0.18023986 -0.30203173 0.051563114 0.20126583
000360 8c 03 ec 3d d5 3f 9e bd 6c 78 6f be 2e a0 9c 3d
       0.11524114 -0.07727019 -0.23385781 0.07647739
000370 31 fd b7 3c 70 a3 f8 3b a2 bd 51 be 25 6d 53 3c
       0.022459598 0.0075878426 -0.20482495 0.01290444
000380 36 0d 32 3e db 6f b1 3d 2d 09 c6 bd 08 ff 8a 3d
       0.17387852 0.08663913 -0.09669719 0.067869246
000390 27 44 ee 3c 93 26 00 3e b1 9d 33 bd ae 5c 89 bd
       0.029085232 0.12514715 -0.043851558 -0.0670713
0003a0 71 49 c7 bd 8d 3e 47 3d 55 56 dd 3d 8b ba 5b bd
       -0.09730805 0.048643637 0.10807482 -0.053644698
0003b0 af f3 69 3d 1b af 7b bd 35 53 0b bd fa 3e 13 3e
       0.05711716 -0.06144629 -0.0340149 0.14379492
0003c0 0a 38 b6 3c 05 b0 9b bd ba 72 89 bc b2 31 ed bd
       0.022243518 -0.076019324 -0.016778339 -0.11581744
0003d0 44 04 98 bc b1 a0 48 3d cd 8c 03 ba 8d 2b cf bd
       -0.018556722 0.048981372 -0.00050182344 -0.101157285
0003e0 63 86 af 3d ec ad 1a bd 1b 07 bd 3c 30 4c e0 bd
       0.08570554 -0.03776352 0.023074677 -0.109520316
0003f0 1a b1 a6 bd b3 a2 e7 bc 14 e5 83 bc 9b 76 cd 3c
       -0.08139248 -0.028275823 -0.016100444 0.02508097

bias f4 [18]
000000 7a 7d 14 3d 68 33 ee bd dd 0e 20 3d 9a b4 da bc
       0.036252476 -0.11630899 0.039076675 -0.026697446
000010 e1 52 b9 bc 16 52 f0 bc 3e 97 32 3d 63 4b d6 3d
       -0.022622528 -0.029336017 0.043601267 0.104635976
000020 db a5 b8 bd df 19 80 3d b9 a9 7a 3d 48 3e 87 bd
       -0.090160094 0.062549345 0.061197016 -0.06603676
000030 38 a9 e2 bd 7b 75 b9 bd da 4d 9a 3d 3e 4f 30 3d
       -0.11067432 -0.09055611 0.0753438 0.04304432
000040 5b f1 d5 bc 12 f9 1e bd
       -0.026116064 -0.03881175

weight f4 [28, 18, 5, 5]
000000 e7 b8 13 3d f5 23 13 bd 89 27 56 3d 24 a7 05 3d
       0.03606501 -0.035922963 0.052283797 0.0326301
000010 a5 09 b3 bc 23 73 8c bc ad 12 20 bd 90 ce 7b bd
       -0.021855185 -0.017144745 -0.03908031 -0.06147629
000020 51 eb b4 bc 17 1f 05 bd 57 7e 12 bd 4a 7a cb bd
       -0.022084864 -0.032500353 -0.03576502 -0.09935434
000030 4c aa ba bd 39 20 c8 bd 7e cb 6c 3c e2 fd be 3d
       -0.09114513 -0.09771771 0.014452813 0.09325768
000040 8c d4 ac 3d 5f ce ea bc 3a 98 ad bc a6 49 53 3c
       0.084389776 -0.028662859 -0.021190751 0.012895977
000050 cd b1 74 3d 01 97 ae 3d c6 df 06 3d 89 91 96 bc
       0.059739877 0.085248955 0.03292825 -0.018379943
000060 af 8e 23 bd a7 5a 09 bc cb bf 01 3d a4 03 4e 3d
       -0.039930996 -0.00838343 0.03167705 0.05029644
000070 b4 e3 d4 3c a4 ac 3d 3d 4c 93 3d 3c 63 3e 6a 3d
       0.025987484 0.04630722 0.011570763 0.057188403
000080 7a 8c 1e 3d 72 dd 1e 3d 99 e3 d3 bc 1a 72 2e bd
       0.038708188 0.038785405 -0.025865363 -0.042589284
000090 04 6d 04 3c 17 dc 23 3d b1 5c 48 3d cb 24 88 3c
       0.008082632 0.040004816 0.048916522 0.016619107
0000a0 f1 42 97 bd 0d 64 b7 bb 57 3a e7 3d 72 7f d6 3d
       -0.07385815 -0.005596644 0.11290424 0.10473527
0000b0 29 42 8c 3d cf 75 e3 bd b2 a9 87 bd 73 7d e1 bd
       0.068485565 -0.111064546 -0.06624164 -0.11010256
0000c0 81 8a 85 3b 49 04 94 bc bf 10 30 3c 57 eb 08 3d
       0.004075349 -0.01806845 0.01074618 0.033427563
0000d0 36 9b 3b 3d e6 5e 7b 3b 1b b4 41 bd ca 02 25 3c
       0.045802318 0.0038356124 -0.047290903 0.010071466
0000e0 41 41 d4 3c 58 9c e4 ba 32 bf 18 bd c1 69 d5 bd
       0.025910022 -0.0017441614 -0.037291713 -0.104205616
0000f0 00 0e 49 3d 92 fa 81 bb 1f 6d 09 3c 5b ca a5 bd
       0.049085617 -0.003966638 0.008387833 -0.08095237
000100 58 01 f0 bd 90 9c e7 bc 6a 9b 50 bc 40 1f 65 bd
       -0.11719006 -0.028272897 -0.012732366 -0.055938005
000110 41 5c 98 bd 4c 8c a1 bd 5f 91 9e bd a1 c2 cd bd
       -0.07439471 -0.07888088 -0.07742571 -0.10046888
000120 27 dc 9b bd 35 21 73 bd e3 79 17 be 14 e0 e5 3c
       -0.0761035 -0.05935784 -0.1479259 0.02806095
000130 58 18 c9 bc f0 c9 55 3c 8a 6b 1e bb f4 81 0e 3d
       -0.02454774 0.013048634 -0.0024172985 0.0347919
000140 6f 6b 16 3b 57 54 9e 3c 0a ec 4a bc 62 6a 3c bd
       0.002295222 0.019327326 -0.012385378 -0.045999892
000150 2b 38 c3 bc 9c d2 c3 bc 34 96 80 3c fe f1 7a 3c
       -0.023830494 -0.023904137 0.015696622 0.0153164845
000160 72 49 db bc ad 22 f2 bc 33 ae 62 bd b7 eb 08 3c
       -0.02676842 -0.02955755 -0.05534191 0.00835698
000170 dc aa 96 bc 42 91 dc bc 84 95 08 3b d3 6d 9b 3c
       -0.018392019 -0.026924733 0.0020841071 0.018973267
000180 31 5c 49 3b 22 4f 76 bc 4e 24 e5 bc 4e 2a ee 3c
       0.0030725116 -0.015033515 -0.027971413 0.029072907
000190 eb 85 4c bc ec d6 8c ba 1e 7f 99 3c f6 45 5b 3d
       -0.0124831 -0.0010745204 0.018737372 0.053533517
0001a0 5a 96 1c bd 1d cc 0e bc 0a ef b9 bc 7c 55 58 3d
       -0.038229324 -0.008715657 -0.02269699 0.0528159
0001b0 2a 58 59 bc 74 f1 82 bd f3 68 60 3d f0 76 e4 bd
       -0.013265649 -0.0639371 0.054787587 -0.11155498
0001c0 e6 34 4d be 8c 25 15 be 6d 90 0b be ab 86 0a 3e
       -0.2003971 -0.14565104 -0.13629313 0.13527934
0001d0 ca 35 09 3e 0e 54 70 3d a8 01 96 3c 8d 3a b2 bd
       0.13399425 0.05867391 0.018311337 -0.08702574
0001e0 8f bf e1 bc 9a 09 c9 3d ee 26 37 3e 2c a3 eb 3d
       -0.027557163 0.098162845 0.17885944 0.11505732
0001f0 7b e7 48 3b c4 a5 ad 3c 08 16 9d 3d ad 02 ff 3c
       0.0030655551 0.021197207 0.07670218 0.031129206
000200 14 8f 83 3d 41 ed d6 3d 03 bc 34 3c 69 31 be bc
       0.06423774 0.10494471 0.011031154 -0.02321692
000210 09 0d 34 3d 45 b0 6e 3d c3 cf 25 3d 16 50 92 bd
       0.043957744 0.058273572 0.04048134 -0.071441814
000220 58 97 f6 bd 32 f2 bd bd 95 e3 a8 bd 31 8f bd bd
       -0.12040585 -0.09274711 -0.08246533 -0.09255827
000230 71 d1 44 3d 02 38 9e bd 48 03 d8 bd 79 c7 c4 bd
       0.0480513 -0.077255264 -0.10547501 -0.09608359
000240 ba 19 8a bc f8 d9 d3 3d 79 62 ba 3d 07 4b 9f 3c
       -0.01685797 0.103443086 0.091008134 0.019444956
000250 46 58 c2 bc 61 4b c0 bc 3a 57 75 3c 2e 97 08 bd
       -0.023723733 -0.023473443 0.01497441 -0.0333473
000260 e2 ca 48 3d 25 04 d2 3c 2b 5e c8 3b c6 90 ea 3c
       0.04902161 0.025636742 0.0061147413 0.028633486
000270 4d a6 06 bd 65 a8 49 3d ea cc f4 bb 28 80 d0 bb
       -0.03287344 0.04923286 -0.0074707167 -0.0063629337
000280 f4 7e d2 3c 6c 96 ce 3c 0f 5d 19 bd bc de 11 3d
       0.025695302 0.025218211 -0.037442263 0.035612807
000290 a9 b7 42 bb 85 8f b6 3c b0 c5 86 3c 07 ac 13 3d
       -0.002971152 0.022285232 0.016451687 0.03605273
0002a0 6f 8e ba ba 11 45 66 3d c6 73 6a 3d be ed 25 3c
       -0.0014233122 0.05621821 0.057239316 0.010127483
0002b0 79 84 08 bc 7a 09 81 3c 8a fe 0e 3c 05 d1 ff bb
       -0.008332365 0.01575159 0.008727679 -0.0078068995
0002c0 49 c9 36 bd 0f 6b 0f bd ba 00 30 bd d3 a4 7d bd
       -0.044625554 -0.03501421 -0.042969443 -0.061924767
0002d0 8c 45 ab bc 36 cd 86 3c 8e 9c 28 bd 62 c5 b2 bc
       -0.020907186 0.016455274 -0.041164927 -0.021822635
0002e0 b7 de 4a bd fe c0 c6 bc 38 d5 9d 3d ba 58 ae 3d
       -0.049528804 -0.024261948 0.07706684 0.08513017
0002f0 5e 88 88 3c 39 fb 9f 3b 99 6b 94 bd 48 be 4c bd
       0.016666587 0.004882243 -0.07247085 -0.049986154
000300 1c 2e ad bc 62 01 59 3d 82 98 1f 3d 70 52 29 3d
       -0.02114015 0.052979834 0.038963802 0.041338384
000310 4f d5 ce bb f9 c1 77 ba f1 34 8a 3c 3f 91 f5 bc
       -0.0063120495 -0.00094512064 0.016870948 -0.029976485
000320 d9 f2 1e 3c 0a 3c ad 3c 44 60 dc 3c f3 ab 52 bc
       0.009701454 0.021146793 0.026901372 -0.012858379
000330 a6 e7 98 bc ca 19 08 bd 1e 81 c3 bc 7f 23 d3 bb
       -0.018665146 -0.03322772 -0.023865279 -0.0064434404
000340 f8 28 b0 3c be 8b 70 3c fb 4e 48 bd 24 88 09 be
       0.02150391 0.014681755 -0.048903447 -0.1343084
000350 a9 cf 1d be 45 99 04 be 6d 96 07 be d6 e4 e9 3d
       -0.15411247 -0.12949093 -0.13240977 0.114206
000360 54 0d 29 3e 8d 2e 1b 3e fa c5 9c 3d 60 46 57 3d
       0.1650899 0.15154476 0.076549485 0.05255735
000370 3c bf ea bc d1 58 54 3d 54 0f 09 3e b4 b9 b2 3d
       -0.02865564 0.051842514 0.13384753 0.08726826
000380 4d b8 93 3d 9f 5a cf bc c5 81 4a bb f3 b9 e0 3c
       0.07212887 -0.025311766 -0.0030900103 0.027432417
000390 f1 c5 68 bc 81 30 bb bc 1c 04 2b bd 86 f0 ba 3c
       -0.014207349 -0.022850277 -0.041751966 0.022819769
0003a0 d2 81 9e bc 9a 6a d4 3c ca fc af bc 89 de 33 bd
       -0.019349013 0.025929738 -0.021482844 -0.043913398
0003b0 eb 19 02 3d 3d be f4 3b 50 4b 3b ba fa 6a af bc
       0.031763 0.0074689672 -0.00071447063 -0.021413315
0003c0 11 ee d9 bb 81 c0 38 bc 92 5a 87 bc ad 38 85 bc
       -0.006650694 -0.011276365 -0.01652268 -0.016262377
0003d0 ae 9e 33 bd 05 a7 18 bd 51 9b 83 bc 0b c9 b8 bc
       -0.0438525 -0.037268657 -0.016065272 -0.022556802
0003e0 80 00 58 3d fe a1 69 3c 7e 7b c1 3c c1 e4 32 3d
       0.05273485 0.014259813 0.023618456 0.043675188
0003f0 af 07 2d 3c d6 e7 99 bd 2a e6 9b bd ed b1 ef bb
       0.010560914 -0.07514922 -0.0761226 -0.0073149116

bias f4 [28]
000000 c0 4a f1 3c 9c 0e 21 bc e1 ba 2d bc 84 f7 a2 3c
       0.029454589 -0.009830143 -0.010603637 0.019893415
000010 8e 7b ce 3b c4 87 07 b9 5f 46 2d 3b 3c 36 c6 3c
       0.00630135 -0.0001292518 0.002643965 0.024195783
000020 b4 ad 12 3d 50 34 10 3d 6f 12 97 3c 40 77 3b 3c
       0.035810187 0.03520614 0.018441407 0.011442006
000030 ff 95 00 bd e1 73 23 3d 42 88 a2 bc 15 f7 c4 bc
       -0.031393047 0.039905433 -0.019840363 -0.0240436
000040 b6 f4 b7 bc f8 b8 a3 3c 36 6e 30 bb 44 6d ce 3a
       -0.022455554 0.01998566 -0.002692116 0.0015749116
000050 d9 ad e4 bc 83 0a 6d ba 02 88 d3 bc 60 75 8e bc
       -0.027914928 -0.0009042399 -0.02582169 -0.017389953
000060 69 c3 9c 3a 51 9d f4 bc e1 c6 e5 bb 74 95 47 3c
       0.0011960092 -0.02986017 -0.0070122336 0.0121816285

weight f4 [32, 28, 3, 3]
000000 85 7f ce bd 3f 69 bc bd c0 3f 27 bd 70 29 ad bc
       -0.10082916 -0.091997616 -0.04083228 -0.021137923
000010 97 4d ee 3c a0 f5 90 3d bd b3 ac 3c db 76 43 3d
       0.029089732 0.07078099 0.0210818 0.04772077
000020 69 ae 49 3d f6 7c d2 bc 01 d8 2f bd b5 c0 d5 3c
       0.049238596 -0.025694352 -0.042930607 0.026092866
000030 c6 78 9c 3d d6 89 47 bd 26 79 6d bc 16 69 bd 3d
       0.07640223 -0.048715435 -0.014494216 0.09248559
000040 64 ab 5b bd 41 6d a9 bd 51 ee 53 3d b4 2f 2f 3d
       -0.053630248 -0.08272792 0.051740948 0.042770103
000050 e5 46 75 3d 55 2e c0 bc b9 b2 b5 3b 4e ee 85 bc
       0.059882063 -0.023459593 0.005544987 -0.016348984
000060 f6 64 0d bd d3 5e 55 3d 0d ab cc bc f7 26 2d bb
       -0.034520112 0.052092385 -0.024983907 -0.002642093
000070 57 3f 87 3c 38 8c 59 bd 8b bb bf bb c4 09 56 bc
       0.016509695 -0.05311224 -0.0058512143 -0.013063852
000080 cc e0 a7 bd dc bb ea bc 4e 12 a0 bc 65 b4 bc bd
       -0.081971735 -0.028654031 -0.019539978 -0.09214095
000090 94 90 f1 3b da 6d bb bc 04 3e d2 bd 57 ab a9 bd
       0.0073719714 -0.02287953 -0.10265735 -0.082846336
0000a0 d5 64 f1 bd e4 6a 8c bd b2 65 60 3d df be 80 bb
       -0.1178681 -0.06856325 0.054784484 -0.0039290036
0000b0 97 3d 22 be 24 ed 25 3d 4f 0b 3a bd 05 83 32 3d
       -0.15843807 0.040509358 -0.04542094 0.04358198
0000c0 8d a9 2a bd fa fb 6e bc 5a 56 46 bd 34 35 3f bd
       -0.041665602 -0.014586443 -0.048422195 -0.046681598
0000d0 12 26 2b 3d fa 6e 00 bd 4f e4 23 bc dd 27 c5 3c
       0.041784354 -0.031355835 -0.0100031635 0.02406686
0000e0 76 ca c3 bd 77 91 66 3d ae 29 bc bc 47 98 89 bd
       -0.09560101 0.05629107 -0.022969093 -0.06718498
0000f0 c9 84 12 3d 71 7c 04 3d 58 51 75 bc b4 0c 18 bc
       0.035771165 0.03234524 -0.014973007 -0.009280372
000100 4c fb 53 3c 4d 2f 24 3d fd 7a 8b 3d d6 2f bd 3d
       0.012938332 0.040084172 0.068105675 0.092376396
000110 2b 24 bf 3d 4e fe 55 3c 2f 83 a0 3d 55 8f 36 3c
       0.0933307 0.013061119 0.07837521 0.011142571
000120 ae 34 84 3c 4b 38 48 3d f7 31 c6 3a 1b 64 72 3d
       0.0161384 0.04888181 0.0015121092 0.0591775
000130 51 88 f5 ba 0b 9e ff bb 7f 83 3f bc f9 1a 56 bb
       -0.0018732642 -0.0078008226 -0.011689066 -0.0032669886
000140 ea d7 b4 3c 36 34 6d 3d d1 43 55 3d 25 b1 3e bc
       0.022075612 0.05791112 0.052066628 -0.011638914
000150 b7 4a d8 3c 41 56 d3 bd 16 49 34 bc 03 31 bc bd
       0.026402814 -0.10319186 -0.011003753 -0.09189036
000160 eb 67 99 bd 77 65 cb bb 3a 80 f9 bc 1a 99 f7 ba
       -0.07490524 -0.006207164 -0.030456651 -0.0018890232
000170 01 30 20 3d 80 2b 73 3d f8 01 93 bc c9 b0 4a 3d
       0.03910828 0.059367657 -0.017945275 0.049485
000180 b4 e3 4d 3d 81 1d a4 3c d6 b3 37 bc e5 dc 31 3d
       0.050265983 0.0200336 -0.01121231 0.043423552
000190 03 50 bb 3d 2d 1b b7 3c 11 a2 82 ba 8d 0c 13 3c
       0.091461204 0.022351826 -0.0009966512 0.00897516
0001a0 c4 d3 78 3d 72 82 d3 ba 8d 87 ea bc 44 26 ad 3d
       0.06074883 -0.0016136898 -0.028629089 0.08454564
0001b0 20 88 29 3d 09 54 ce 3c cb db ab 3d 90 2a fd bd
       0.041389585 0.025186555 0.083915316 -0.12361634
0001c0 2e 76 b0 bd be ad a8 3d 9d 61 e2 bc aa 81 47 3d
       -0.08616291 0.08236264 -0.027634436 0.04870764
0001d0 d2 f0 b3 3d 6c 03 af 3d a9 de 43 3c 0f 2c a3 3d
       0.08786167 0.085455745 0.011954942 0.07967388
0001e0 c8 2f 19 bd 24 4a 3d bd c9 62 8c bc 90 ff 2b 3c
       -0.037399083 -0.046213284 -0.017136948 0.010497943
0001f0 39 c0 62 3d 0b 23 71 3d 23 26 bb 3a 34 ff c9 3c
       0.0553591 0.05887131 0.0014278333 0.024657823
000200 ad 60 35 bd 6b 01 1a 3d 06 94 29 3d 0b 3b 89 bd
       -0.04428165 0.03759901 0.04140093 -0.06700715
000210 38 dc 7e 3d c0 a1 d8 3b 86 1b d8 bc 6c 87 50 bd
       0.062221736 0.006611079 -0.026380312 -0.0509104
000220 12 e2 5d bd 36 6f 21 3b fd a3 10 bc 72 84 7b bd
       -0.054170676 0.0024632937 -0.00882816 -0.061405607
000230 b1 73 0f bd 7a 2e 3a bc 65 92 b8 bd 6e 2b c2 bd
       -0.03502244 -0.01136362 -0.090122975 -0.0948094
000240 ec d2 b5 3c 58 eb ba 3c f7 cf c8 3c 43 54 ef 3d
       0.022195302 0.022817299 0.024513228 0.116859935
000250 ab 28 71 3c 81 2f 1a bd 5c f6 57 3d 31 26 c9 3d
       0.014719169 -0.03764296 0.05272518 0.098217376
000260 75 3e fb 3c 28 ed 86 3b ea 1d 5c bd f6 1d 98 bc
       0.03066943 0.0041176267 -0.053739466 -0.018568974
000270 99 d3 88 3d 3d 46 96 bb 87 17 68 bd e3 20 61 bd
       0.06680984 -0.00458601 -0.056663062 -0.054963004
000280 45 dd f8 3b 27 ea 20 3c d1 b3 f3 3d 7d 8e b5 3d
       0.0075947368 0.009821451 0.11899532 0.08865068
000290 f8 af a7 bb ae 45 2c bc e6 28 42 3d 44 74 d2 3c
       -0.0051174127 -0.01051466 0.047402285 0.025690205
0002a0 c2 ba 1c 3d 0d 44 c9 3b 24 f2 cb bc 77 45 92 3d
       0.038264044 0.0061421455 -0.024895735 0.071421556
0002b0 37 d0 d4 3c 25 de 69 3d f5 72 84 3d d4 14 da bc
       0.02597819 0.05709662 0.06467239 -0.02662126
0002c0 d5 e6 41 bd f3 7d c4 bb 60 a5 70 3d 25 27 03 bd
       -0.04733928 -0.0059964596 0.058751464 -0.032019753
0002d0 71 4b d1 3c 2a 2a 0c 3c 8f a9 8b bd ab c5 fe 3c
       0.025548669 0.008554975 -0.0681945 0.031100115
0002e0 ff f7 03 3d 7b 28 17 3d 78 70 0a be 54 96 e0 bc
       0.03221893 0.03690384 -0.13519466 -0.027415432
0002f0 e0 e7 9f bd 14 f9 9f 3d 8b 94 9f 3d 8a 16 79 3d
       -0.078078985 0.0781118 0.07792004 0.06081251
000300 86 98 74 3a 5b 29 d8 bc c8 58 a3 bc 22 90 f4 bb
       0.0009330589 -0.026386907 -0.019939795 -0.007463471
000310 cd cc 95 bd 4a 5b df bc a4 a8 5e 3c b1 29 f3 bc
       -0.07314453 -0.02726521 0.013590012 -0.029682966
000320 62 19 e7 bc 83 6a ab 3c f1 22 24 bc 33 07 d3 bc
       -0.028210346 0.020924812 -0.010018096 -0.025760269
000330 9f bc ba 3d 55 1f 6b 3c 23 bf 78 bd 73 44 a7 3d
       0.09118008 0.014350732 -0.060729157 0.081673525
000340 04 8f c1 3d f8 fe 00 3e cc bc a9 bd 06 42 ab bd
       0.09451106 0.12597263 -0.08287963 -0.08362202
000350 4b 12 2f 3b 81 f0 a5 bd 4f da 39 bd 05 2c be ba
       0.0026713784 -0.08102513 -0.04537421 -0.0014508968
000360 e9 8a 3e bd 05 b0 40 3d d4 e0 c5 3d 43 e6 7c 3d
       -0.046519194 0.047042865 0.09662023 0.061743032
000370 10 b2 e3 3c dd 8b 3e 3d a6 69 41 bd 55 eb 3d bd
       0.027794868 0.046520103 -0.047219895 -0.04636701
000380 d3 ab 95 3d 23 c8 7e bc 95 ae 55 3c f5 f5 12 3d
       0.073081635 -0.015550646 0.013042112 0.035879094
000390 71 a4 ee bd e1 90 1e 3d b7 a2 57 bc be 22 9a bd
       -0.116524585 0.038712386 -0.013161353 -0.07526158
0003a0 14 56 1c 3c d2 e5 8c 3d e5 52 e9 bc 1c 0f 52 3d
       0.009542007 0.06879772 -0.02848191 0.05128394
0003b0 d3 b5 96 3d 33 93 21 3d 18 c9 2e 3d 25 80 6e 3d
       0.07358899 0.03944702 0.042672247 0.058227677
0003c0 83 05 08 3c fd 91 aa b9 53 dd ca 3c 58 4b 6c bd
       0.008302095 -0.00032533697 0.024763739 -0.05768904
0003d0 19 0f 37 bd 5c cb b0 bc 80 04 4b 3c de 0a 04 3d
       -0.044692133 -0.021581344 0.01239121 0.032236926
0003e0 f9 74 2d bc 2a 8f 8f bd 74 12 7c bc 2e f8 38 3d
       -0.0105869705 -0.07009728 -0.015385259 0.045158558
0003f0 82 fa 76 bb 76 21 71 bd 4d 8e 89 3d a1 1e 72 3c
       -0.0037685935 -0.0588698 0.06716595 0.01477781

bias f4 [32]
000000 6a 49 af 3c 54 6a 6a 3d 43 9d 11 bd 8b f7 2b bd
       0.021397311 0.05723031 -0.035550367 -0.041984122
000010 15 06 10 3d 2c 20 eb 3c 23 b3 40 3d 3d 67 e8 bb
       0.03516205 0.028701864 0.047045838 -0.007092385
000020 0e b5 c3 bc 39 e9 be bb 8d 00 7c bd 48 d6 38 bd
       -0.023890045 -0.005826142 -0.061523963 -0.04512623
000030 bc 28 4b 3b ce 5d 65 3d 68 a2 53 bd f9 35 44 bd
       0.0030999621 0.055997662 -0.051668555 -0.047903035
000040 3c 23 52 bd 18 74 ea 3b 48 57 04 3d ea 18 90 bc
       -0.051303133 0.0071549527 0.0323098 -0.017590005
000050 b3 c6 ba 3c cb f0 e2 3c 9a 0b ed 3c 86 87 86 3d
       0.022799825 0.02770271 0.028936196 0.06568818
000060 a3 48 44 bd 59 79 af bb b6 39 52 3c ff 6a 54 bd
       -0.047920834 -0.005355042 0.012831142 -0.051859852
000070 70 58 bc ba 41 f3 78 bd 9e a8 24 3d e6 4d 26 bd
       -0.0014369618 -0.06077886 0.04019987 -0.040601633

weight f4 [60, 288]
000000 9c 50 62 3d c1 17 ce 3d a5 fc 1e bd 13 1c bd 3d
       0.055252656 0.100631244 -0.03881516 0.0923387
000010 33 a7 12 bd c7 a4 e9 bc 95 76 f7 3c f7 fb 18 bd
       -0.035803985 -0.028520955 0.030207912 -0.037349667
000020 b6 c9 fe bc b4 3d 73 bc aa 9b d3 bc 26 c3 24 bd
       -0.031102043 -0.014846254 -0.025831062 -0.04022517
000030 74 e7 de ba 70 13 95 3c 39 54 43 bb c2 f9 f5 bd
       -0.0017006234 0.018197745 -0.002980484 -0.12010528
000040 37 f3 a9 bd 9a 0f ca 3b bb ee 27 3d 29 6f 72 bc
       -0.08298343 0.0061664106 0.040999155 -0.01479701
000050 42 c9 25 bd e2 a9 16 bd 1f 21 54 bd 7b a6 93 3c
       -0.040475138 -0.036783107 -0.0517894 0.01802372
000060 db 45 a0 bc 42 ae 00 bd e8 71 55 bd fc bf 24 bc
       -0.01956456 -0.031416185 -0.052110583 -0.010055538
000070 ee 10 54 3d a9 06 03 3d 3f 82 c8 3c 8f 5d 8f 3c
       0.051773958 0.031988773 0.024476169 0.017500667
000080 0b 0f 72 bb 9c 80 f0 3b 73 17 5c bd 15 5d 33 3d
       -0.0036935236 0.00733955 -0.0537333 0.04378994
000090 06 50 f5 36 ae 69 19 3d af 02 bf 3c 7b 17 f7 3c
       7.310885e-06 0.0374543 0.02331671 0.030162564
0000a0 23 ed 89 3d 9b 12 9a bd c3 d0 20 bd 41 25 8e bd
       0.06734683 -0.0752308 -0.03926159 -0.06940699
0000b0 db 47 0e bd 59 14 82 3d 81 82 83 3d f4 54 ac 3d
       -0.034736495 0.06351537 0.06421376 0.08414641
0000c0 41 38 d8 3c bd db 81 39 df ca 91 3d c7 55 70 bd
       0.026394011 0.00024768515 0.07118773 -0.058675554
0000d0 67 37 37 3d f8 31 e4 3c 16 20 d9 3c ca 0a e0 bd
       0.04473057 0.027855858 0.026504558 -0.10939558
0000e0 72 61 22 3b 72 25 91 ba 0a 28 6b bd c2 a4 94 bb
       0.002477732 -0.0011073782 -0.05741123 -0.004536242
0000f0 dd e4 82 3d f8 c4 18 bd a6 77 fb 3d fb 2e 05 bd
       0.063913085 -0.03729722 0.122786805 -0.032515507
000100 f7 88 e8 bb 33 8c b4 3b 92 66 e9 bd 7a 40 88 3c
       -0.0070964056 0.005509877 -0.11396517 0.016632307
000110 e8 97 38 3d 09 86 44 bd a4 61 b1 bb 6c 0d 1b 3d
       0.045066744 -0.04797939 -0.005413251 0.037854597
000120 38 06 03 bd 15 4b d2 bd 17 ef a0 bd 78 ca c7 bc
       -0.031988353 -0.10268227 -0.07858103 -0.024388537
000130 c5 14 4c bd 7e 94 86 bd 5e f9 93 bd 12 35 90 bb
       -0.049824495 -0.065712914 -0.072252974 -0.0044008577
000140 c3 ed b5 bd 63 ac 2f bc cd a0 4b bd 7c a7 61 3c
       -0.0888324 -0.010722253 -0.0497139 0.013772842
000150 8c 1e a9 bc dc 49 43 bd 4f 69 cc 3c fd 28 5e bb
       -0.020644449 -0.04767786 0.024952559 -0.0033898943
000160 5c 01 3e 3d bd 53 d7 3c 81 9f 2b 3d 07 ba 5b bc
       0.046388015 0.026285047 0.04190016 -0.013411052
000170 11 9b 5d 3c ac 87 09 3d ab b2 2a bc 42 6a 04 3c
       0.01352574 0.033576652 -0.010418574 0.008081974
000180 f3 f1 c3 3c 27 c1 ad 3b 02 8b 19 bb 0c bf 39 bd
       0.023919081 0.0053025666 -0.0023428802 -0.045348212
000190 08 95 7b 3c 00 f6 6f 3c 1e f5 2c bd 74 03 c0 bc
       0.015355356 0.014646053 -0.04222595 -0.023439147
0001a0 a9 d7 ed bc 7f c3 d2 bc 8f fb fc 3c 3f 23 d8 bd
       -0.029033499 -0.025727985 0.030881671 -0.10553598
0001b0 ea cc 31 3c 8f b4 22 3d d0 14 88 bd fe 6d 9a 3a
       0.010852078 0.039722975 -0.06644595 0.0011782048
0001c0 d6 3b ad bc 4b c2 17 bd 0b 87 bb 3d f9 07 20 3d
       -0.021146696 -0.037050527 0.09156617 0.039070103
0001d0 5a 71 1a 3d 62 01 62 3d 26 28 02 3c 32 9d e0 3a
       0.037705757 0.0551771 0.007944142 0.0017136692
0001e0 4c b2 4e 3c 5d 08 0f 3d 38 e9 31 3d 2e 07 6e 3c
       0.0126157515 0.034920085 0.043435305 0.014528079
0001f0 c3 84 be 3c 98 74 3a bc af c2 98 bd 7b 61 2c bd
       0.023256665 -0.011380337 -0.07459008 -0.042085152
000200 42 fa 95 3d bb a9 9b bd 91 c4 1c bd 16 d5 b4 bc
       0.073231235 -0.07600733 -0.038273398 -0.022074264
000210 43 38 b2 bd 77 10 4f bd c8 e9 06 bc 9f 70 7e bc
       -0.08702137 -0.05055281 -0.008234449 -0.015529781
000220 bc 18 c1 bc 16 62 35 bc d3 50 39 3d e8 44 67 bd
       -0.023571365 -0.011070749 0.045243096 -0.0564622
000230 3f 3a 62 3a c9 17 3b 3d b6 f5 1d 3d 9a 4b 0b 3d
       0.0008629895 0.04567698 0.038564406 0.034007646
000240 8f 5d 8f 3c 81 c2 e3 ba 41 72 b1 ba 6a 08 50 3d
       0.017500667 -0.0017376692 -0.0013538079 0.050789274
000250 66 c2 85 bd e7 1a 62 bc e2 07 2a 3d f5 3c 06 bd
       -0.06531219 -0.013800359 0.041511424 -0.032772977
000260 ae 7d 2b 3d 48 ba 81 3c 0d f3 81 bb 73 7f b8 bc
       0.041867904 0.015835896 -0.0039657415 -0.02252171
000270 8a 02 39 3d d7 e3 95 3d 39 e3 5a bd 02 0d 8c 3a
       0.045168437 0.073188476 -0.053439353 0.0010685029
000280 79 fc 76 3d 77 c6 83 bd c0 04 84 3d e0 8e da 3c
       0.06029937 -0.064343385 0.064462185 0.026679456
000290 5f 9e d6 3c 3d 28 c5 bc 63 21 95 3d f3 9b 04 bd
       0.026198564 -0.024067039 0.07281759 -0.032375287
0002a0 22 70 36 3d fe c2 8e 3d fb c0 60 3c ed 09 6d 3c
       0.044540532 0.069707856 0.013717885 0.0144676985
0002b0 85 5f 18 bc f3 43 3d bd d5 be 0b 39 e5 0f 3d bd
       -0.009300117 -0.04620738 0.00013327163 -0.046157736
0002c0 a1 a9 31 bc d0 8b 0e 3d 7f 80 97 bd fe a8 59 3d
       -0.010843665 0.034801304 -0.073975556 0.05313968
0002d0 22 4a 9e bc 24 f0 fb bc 9a 85 d4 bc d1 f8 ae 3c
       -0.019322459 -0.030754156 -0.025942612 0.02135888
0002e0 c1 ac cd bc 1c 3c b6 bc 65 7c ec 3c 7f 17 75 bc
       -0.02510679 -0.02224546 0.02886791 -0.014959215
0002f0 2a 98 e6 3b 0e e7 7e 3c 77 ee c0 3c 46 f0 39 3c
       0.0070371823 0.015558017 0.023551209 0.01134879
000300 2e d4 13 bc 06 c7 6d bd ae b2 9b bc 81 87 a7 bb
       -0.009022756 -0.05805113 -0.0190061 -0.005112589
000310 0d 16 0f 3d f6 a2 02 bb 97 6d 83 bd 0c dc ff 3a
       0.03493314 -0.0019933558 -0.06417387 0.0019520535
000320 44 f0 21 bd 55 5a 2a bc e2 0a 54 3a f1 63 b9 3c
       -0.039535776 -0.010397513 0.000808878 0.022630664
000330 e9 a0 61 bd ea a8 f7 3c a1 7c 2f 3d 52 06 15 bd
       -0.055085097 0.030231912 0.042843465 -0.03638298
000340 ff c6 1e bd 70 c0 55 3c 1a 55 88 3d 4f a2 23 bd
       -0.038763996 0.013046369 0.06656857 -0.03994971
000350 f6 c9 cb bc ea ca 78 3d b7 dd 70 bc 8f 50 9b 3d
       -0.024876576 0.06074039 -0.014701298 0.07583725
000360 e4 51 78 3c 19 4a 9b bc 2d 8d c3 3d c7 7a 88 bc
       0.015156243 -0.018956231 0.095484115 -0.016660107
000370 ce 2e 8a 3d a6 08 a3 ba 43 06 3b bc 46 91 48 3d
       0.067472085 -0.001243849 -0.011415067 0.04896667
000380 19 8f f8 bc f0 70 2c 3d f3 e5 4b bd d3 09 0b bd
       -0.030341672 0.042099893 -0.049779844 -0.033944916
000390 d4 19 23 bd d1 5f 06 bd 2a 7f aa bc c0 6f 44 3d
       -0.039819553 -0.03280622 -0.02081259 0.047958136
0003a0 69 13 59 3b e6 10 9d 3c bd d3 9a 3c b8 e7 10 3d
       0.0033123142 0.019173097 0.018899793 0.035377234
0003b0 7a c4 8d 3d cf ac 8b 3c f3 b1 28 bd 7b 82 42 3d
       0.069222406 0.017050175 -0.04118533 0.047487717
0003c0 e7 06 bd bd 40 1e 87 bd 55 69 42 bd b7 16 4c 3c
       -0.09229832 -0.065975666 -0.047463734 0.0124565875
0003d0 0a a4 d5 bc 61 b9 20 bc 9f 85 25 bd 77 55 fc 3c
       -0.026079196 -0.009809823 -0.040410634 0.030802472
0003e0 78 bf 14 bd e9 50 e1 3c 9d 1d fc 3c 96 a8 f6 3c
       -0.03631541 0.027504401 0.03077584 0.030109685
0003f0 f2 e0 c8 3c ce af 03 bd 50 06 c3 3c d4 a6 02 bc
       0.024521325 -0.032150082 0.023806721 -0.007974345

bias f4 [60]
000000 a1 6a f4 3b af 96 37 bd 32 d7 c3 3b 08 1a ac 3c
       0.007459 -0.044821437 0.005976581 0.021008506
000010 32 4a 84 bc 2d 17 40 3d 37 a3 80 bb f6 00 f7 bc
       -0.01614866 0.046897102 -0.0039257067 -0.030151825
000020 12 80 41 3d f0 84 5d bd 6d e7 3b 3d b2 5e 31 bd
       0.047241278 -0.054081857 0.045875 -0.0433032
000030 af 47 4f bd ba c7 00 bd b0 59 39 3c 8f f6 c1 3c
       -0.050605472 -0.031440474 0.011312887 0.023677139
000040 d4 d5 d0 3c de 56 69 bd c6 b7 4d bd d7 ce b9 bc
       0.025492586 -0.05696761 -0.050224088 -0.022681637
000050 a1 b6 47 bd 1e 38 58 bd 76 d9 df bc f4 b2 29 3d
       -0.048758153 -0.052787893 -0.027325373 0.04143043
000060 41 39 f6 3c 2a 3b 04 3d d5 61 66 3d 39 e6 f3 bb
       0.030056598 0.032282986 0.056245644 -0.007443216
000070 b0 9f 04 bd 00 1f 57 bd f9 1a 14 bd c6 e1 29 bd
       -0.032378852 -0.0525198 -0.036158536 -0.04147508
000080 02 a6 aa bc e8 4f 08 3d b3 93 2c bd 21 95 51 3b
       -0.020831112 0.03327933 -0.042133044 0.0031979757
000090 46 c8 7e 3d 14 b6 22 bc 1d 3e 26 bd e2 9c 03 bd
       0.062202714 -0.009931106 -0.04058658 -0.032132037
0000a0 ce 2a 57 3d b8 46 3d bd ea 87 c6 bb b8 c1 81 bc
       0.052531056 -0.04621002 -0.0060586827 -0.015839443
0000b0 69 00 4e bd 53 96 24 3d 22 74 eb bc bd 19 3e bd
       -0.05029336 0.040182423 -0.0287419 -0.046411265
0000c0 55 98 4a bd 3c ff d7 bc cc 9d 9e 3c 6e 04 30 3c
       -0.04946168 -0.026366822 0.019362353 0.010743244
0000d0 32 f6 16 3d d0 1c d3 bc ee 49 4c bd ca 5c 40 bb
       0.036855884 -0.025770575 -0.049875192 -0.0029352182
0000e0 5a b3 b7 3c 6e 1c 3e bd 81 c2 26 bb 87 8e 19 3c
       0.022424389 -0.04641383 -0.0025445523 0.00937236

weight f4 [20, 60]
000000 28 98 70 3d 51 2b fb bd 88 4c 7a 3b 98 ce bd 3c
       0.058738858 -0.12264121 0.003819259 0.0231698
000010 4e 2b f4 bd 17 7d 2b bd f8 9e d8 3d e0 9e 18 3d
       -0.11922322 -0.04186734 0.10577196 0.03726089
000020 1e ce 6c bb 65 76 0e be fb 1d 39 bd 57 8b 2b 3e
       -0.0036133598 -0.13912351 -0.045194607 0.16752373
000030 2c a2 ec 3d e1 f5 e3 bd 98 10 df bd 91 01 63 bd
       0.11554369 -0.11130882 -0.10891837 -0.055421416
000040 bb f0 09 3e 8f 0e 12 3e 79 0b 71 bd db 51 2c bd
       0.13470738 0.14263366 -0.05884883 -0.04207025
000050 a4 6c c0 bd b3 1b 85 bd 37 38 82 bd 8e fb 9c bb
       -0.093957216 -0.06499424 -0.063583784 -0.00479073
000060 a5 86 91 bc 38 3c db bd cd 63 f2 3c 49 ca ab bd
       -0.017764399 -0.10704845 0.029588604 -0.08388192
000070 be 4f 11 3e dc a1 06 3d cb b4 92 bc 86 59 d0 bd
       0.14190575 0.032869205 -0.017908474 -0.10173325
000080 20 fa 07 be 29 f3 8e 3d f8 e1 ca bd 54 22 3d 3e
       -0.13279009 0.06979973 -0.09906381 0.18470126
000090 42 76 50 bd f3 60 8c bd 91 1b 95 3d d2 b8 f5 bb
       -0.05089403 -0.06854429 0.072806485 -0.007498839
0000a0 b0 70 01 bd 36 62 a9 3d fb ce 1f be 88 4f 2c 3d
       -0.031601608 0.082706854 -0.156063 0.042068034
0000b0 c1 bb ad bd c9 d2 f6 bd 81 67 5b bb 3d 1b e2 3d
       -0.08483077 -0.12051923 -0.0033478441 0.110403515
0000c0 7d af 07 bd 0a 35 a7 bd 18 41 61 3c c0 13 d0 bd
       -0.033126343 -0.08164413 0.01374843 -0.10160017
0000d0 83 8c e2 3d 14 b6 a7 bd 5e e9 16 3e 87 b9 91 bd
       0.11061957 -0.081890255 0.1473746 -0.07115465
0000e0 1a f4 0d 3e 12 3a 40 bd 3c 3c 13 3c 63 4b 07 3e
       0.13862649 -0.04693038 0.008986529 0.13212352
0000f0 9d cc 56 bd 8f e2 21 bd d8 0c 67 bd 02 f0 0a be
       -0.05244123 -0.039522704 -0.056408733 -0.13568118
000100 fd 29 48 3d d3 e0 d1 bd a8 77 5a bd 79 ce de 3d
       0.04886817 -0.1024796 -0.05333677 0.10879225
000110 9a 6e 8a 3d f7 d5 e0 3c 94 7d ed bd cf aa d6 3d
       0.06759377 0.027445776 -0.11596218 0.10481798
000120 d5 e8 81 bd fc e4 0f be dd aa 32 bd aa 21 64 bd
       -0.06343237 -0.14052194 -0.04361998 -0.055696167
000130 b1 13 6a 3d 99 55 2d 3d f3 5d 39 be 78 0b bf bc
       0.057147685 0.04231796 -0.18102245 -0.023320898
000140 05 3e 84 bd 19 f7 8d bb 8d 46 df 3d 99 a1 99 bd
       -0.06457142 -0.004332435 0.10902128 -0.075015254
000150 a9 59 8b bd e0 a8 04 bc 1b 35 c2 bd e5 06 9c 3d
       -0.06804211 -0.008096904 -0.09482785 0.076185025
000160 d8 3d 2b bd 89 e9 23 be 23 15 70 3d 2e 0b a5 bd
       -0.041807026 -0.16007055 0.058613908 -0.08058773
000170 32 6c a5 bc 14 97 a6 3d 9a 95 79 3e 53 6b 07 3e
       -0.020193193 0.081342846 0.24373475 0.13224535
000180 4a 30 bb 3d 22 a5 0a 3c 95 f7 5e bd 53 6e 95 bc
       0.0914007 0.008462222 -0.05443533 -0.018241083
000190 b9 d6 45 be 48 d1 0a be bd 6d af 3c ba 5c 6e 3e
       -0.19320191 -0.13556397 0.021414632 0.2327756
0001a0 47 da 28 be 64 15 9e 3b 2c ec 12 3e 43 8a 00 3e
       -0.16489516 0.0048243273 0.14347905 0.12552743
0001b0 fa f2 df bc 1f c8 1d 3d 11 32 c8 bd 3a 31 0e 3d
       -0.02733754 0.03852093 -0.097751744 0.034714915
0001c0 df 08 b9 bd 2f 72 7c bb 51 1f 72 3d 97 c0 24 be
       -0.09034895 -0.0038520207 0.059111897 -0.16089092
0001d0 58 5b 17 be 5a 7e 99 bc 82 fa 90 bc e3 fe ae bd
       -0.14780939 -0.018737007 -0.017697576 -0.085447095
0001e0 2d b6 89 bc dc 52 03 bd c6 49 fc 3d 06 7d 74 bd
       -0.016810501 -0.032061443 0.12318759 -0.059689544
0001f0 d8 ee 21 bd 01 27 80 bd 9d 4b ac 3d 31 73 67 3d
       -0.03953442 -0.062574394 0.084128596 0.05650634
000200 21 b2 d7 bc d1 ea 67 bc 60 93 82 bc 39 3b bc 3c
       -0.026330056 -0.014155106 -0.015939415 0.022977458
000210 cc 35 0f be fe c2 1b 3e c9 c9 1e 3d 88 f0 0d be
       -0.13985366 0.15211102 0.038766656 -0.13861287
000220 e4 7d 0c be b7 64 c8 3c 1c 4e 53 3d c6 15 ae 3d
       -0.13719898 0.024462087 0.051588163 0.08500247
000230 3c 4c 07 be 02 49 76 bd 04 1e 11 3e 7b af 06 3c
       -0.13212675 -0.06012822 0.14171606 0.008220549
000240 91 45 a2 3d b3 cb bb 3d ad 2c 25 bd 5c 5f a5 3d
       0.07923425 0.09169712 -0.04032581 0.08074829
000250 a7 00 87 bc 7a 95 ca 3d 9a 66 81 bc 16 c2 b3 bb
       -0.016479803 0.09891792 -0.015795995 -0.0054857833
000260 43 93 8b bd 21 af f8 3c 53 34 3d 3d a9 23 d7 bd
       -0.06815197 0.030356945 0.04619248 -0.105048485
000270 2a 1c 22 3e 58 14 20 be 45 d2 ef 3c 07 13 ec bd
       0.15831056 -0.1563276 0.029275069 -0.11527067
000280 fd fa 3f bd 5b f7 48 bd 14 58 f1 3d 74 51 9f 3d
       -0.04687022 -0.04906402 0.11784378 0.07779208
000290 c2 8a 32 be 23 82 65 3d cc 69 55 3e 93 66 a6 3d
       -0.17435744 0.05603231 0.2084114 0.08125033
0002a0 92 7c 03 be 9d 42 d5 3c e6 8d dd 3d df d6 c9 3d
       -0.12840489 0.02603274 0.108180806 0.098554365
0002b0 15 82 36 3d e5 1c 1a 3e 53 25 1a be 61 22 e5 3d
       0.04455765 0.15050085 -0.150533 0.11188198
0002c0 67 b8 45 bd c0 11 64 bd df 8c 16 bd 4a d9 8f 3d
       -0.048271563 -0.05568099 -0.03675544 0.070238665
0002d0 a3 15 28 bd a6 8a 52 bc 42 41 5c 3d 12 d8 f9 3d
       -0.04103626 -0.012850439 0.053773172 0.12199415
0002e0 cd e9 ad bd d8 17 3d bc e8 04 29 bd ae dc 90 3d
       -0.084918596 -0.011541329 -0.041264445 0.07073341
0002f0 e5 88 0d 3d 0d b8 09 3e 2f 3a 41 3d dc b0 ba bd
       0.03455438 0.13449116 0.04717463 -0.091157645
000300 fc 8b a1 bb 53 5c 54 3d 95 88 9c 3c b4 c4 00 be
       -0.0049300175 0.05184586 0.019108096 -0.12575036
000310 8d 29 c1 bd f1 e7 c0 bb 44 c6 5b 3e a8 40 fa bc
       -0.09431753 -0.0058870246 0.21462351 -0.030548409
000320 f9 fe 99 bb 4c 51 a7 3c 72 a2 7d 3d 29 9f 10 be
       -0.0046995846 0.020424508 0.061922498 -0.14123215
000330 16 6f d5 3d 92 95 9d bd 97 6f ff bd f9 90 b1 3d
       0.104215786 -0.07694544 -0.12472456 0.086702295
000340 ee 96 56 3e 87 1d 10 3e e4 db aa 3d 28 06 a9 bd
       0.20956013 0.14073764 0.08342722 -0.08253127
000350 4a 10 b4 bd 69 bf a2 bd 05 3f be bc 56 ba 06 3e
       -0.087921694 -0.07946665 -0.02322341 0.13157019
000360 5f d7 ee bc be e5 6c bd 04 1f 1d 3e a2 4a 27 bd
       -0.029155431 -0.057836287 0.15343863 -0.04084266
000370 2d c8 bc bc 30 02 3e 3e 4f 45 45 3e 29 43 9d bd
       -0.02304467 0.18555522 0.1926472 -0.076788254
000380 12 b4 81 bd 19 f8 0f be c9 d2 8d bd c9 f9 0f be
       -0.06333174 -0.14059485 -0.0692497 -0.14060129
000390 48 29 06 3e 77 6c 61 3d 3f e6 4f 3d da 6a 2e 3d
       0.13101685 0.05503508 0.05075669 0.04258237
0003a0 8a e5 96 3d ba 97 30 bd fc fc 9e 3d fa 93 9f bc
       0.07368 -0.043113448 0.07763097 -0.01947974
0003b0 a4 1b 55 bd 4d 14 c3 3d eb c9 c4 bd 16 04 86 3c
       -0.052028313 0.095253564 -0.09608825 0.01635937
0003c0 e2 cd da 3d e8 55 0d bc dc 15 58 3b fb 6e 35 3e
       0.106838 -0.008626439 0.0032972014 0.17718117
0003d0 f1 eb ef 3d 36 af 2c 3e 2d 47 a7 3d f4 8e a9 3d
       0.11714924 0.16863713 0.081678726 0.08279219
0003e0 0a 09 67 3d 4f 41 93 bc 1f 81 e9 3d 8a 80 46 3d
       0.056405105 -0.017975478 0.11401581 0.04846243
0003f0 b8 0e f2 3b 02 58 c9 bd e8 36 5d bd 0c 55 ce 3d
       0.0073870085 -0.09831239 -0.05400744 0.10074815

bias f4 [20]
000000 69 84 d9 3c 7f 1b 79 bd a1 ec c1 bd 1f e1 f4 bc
       0.026552396 -0.060817238 -0.094689615 -0.029892502
000010 25 7a c2 3d a7 f4 12 be 00 31 9b bd 17 da 3e 3d
       0.094959535 -0.1435114 -0.075777054 0.046594705
000020 92 a1 13 3d 58 9e 7c 3d ce d3 8a bc ea 23 e0 3d
       0.036042757 0.061674446 -0.0169467 0.1094435
000030 eb 63 4d bd 7c 67 b5 3a ac 3a 99 bc 8a e2 41 bd
       -0.050144117 0.0013840045 -0.018704735 -0.047335185
000040 15 1a 93 bc a1 c7 b0 3d 37 03 cf 3c dc 30 f2 bd
       -0.017956773 0.08631826 0.025270088 -0.118257254

weight f4 [12, 20]
000000 72 47 26 bc 36 ce 73 be da 4f 50 3e 58 57 a8 3d
       -0.01014887 -0.23809132 0.20342961 0.082197845
000010 0e ee 3e 3d 4d 63 38 3e fc 81 5c bd 2b 47 91 be
       0.046613745 0.1800663 -0.0538349 -0.2837461
000020 a8 ff 33 3e 46 a1 a2 3e 46 83 33 bd b2 d6 d8 3d
       0.17577994 0.31763667 -0.043826364 0.10587825
000030 40 a1 21 be 39 45 27 be f8 8b 57 3e 9c d1 a3 3e
       -0.15784168 -0.16335 0.21049488 0.31995857
000040 12 40 90 3e 57 15 72 bc 1b 6b 62 be 60 cc 32 3e
       0.28173882 -0.014775596 -0.2211117 0.17460775
000050 ad 3d c1 3e 60 46 d3 3d 7c 4c b4 bd d2 8e 76 3e
       0.37742367 0.10316157 -0.08803651 0.24077919
000060 f0 41 fe 3d 2b 6f 6f 3d cc 30 b9 3e 07 b8 19 3e
       0.1241492 0.058455627 0.36170042 0.15011607
000070 20 2f 62 bc 07 cf 0a bb df a4 b0 bc 35 f3 80 3e
       -0.013805181 -0.0021180527 -0.021562992 0.25185552
000080 1f 4d 61 be b0 1c 68 be 90 51 d5 3d a8 cf 3d 3e
       -0.22002076 -0.22667193 0.104159474 0.18536246
000090 82 51 38 3c 16 8e 23 be 16 c2 cd 3e 3c 73 e9 3d
       0.011249902 -0.1597217 0.40187138 0.11398932
0000a0 0e fa 70 be 9f fe 3a bd 30 41 ec bd 40 fd 07 be
       -0.23532888 -0.04565298 -0.11535871 -0.13280201
0000b0 75 51 3f 3e 38 d6 ce 3e 79 8a 5f 3d 0d ec 98 3e
       0.18683417 0.4039781 0.054575417 0.29867592
0000c0 4f a3 af bc 73 b2 b4 bd b5 80 5c bd d2 68 e1 3d
       -0.021440176 -0.08823099 -0.053833682 0.11006321
0000d0 c1 0a 01 bc 8d 98 7d 3e ba 27 f0 bc 00 4c 53 be
       -0.007876099 0.24765225 -0.029315818 -0.2063446
0000e0 af c3 00 be fd 3f 8c bd de c2 a6 bd 02 4e 30 bd
       -0.12574647 -0.06848142 -0.08142637 -0.043043144
0000f0 d7 9b 14 be 65 b4 9f bd be b3 db 3d 6b 4b 5c bd
       -0.14512573 -0.077980794 0.107276425 -0.05378286
000100 9a 8b 22 3e 9d 97 28 bc 23 1e 9d 3d d5 9c 3e 3c
       0.15873566 -0.010290054 0.07671764 0.011634071
000110 c8 43 bf 3d 34 96 b1 bd fc c4 8f 3d e2 7a a9 3e
       0.093391 -0.08671227 0.07019994 0.33101565
000120 83 66 91 3d 9c 38 87 be 73 1a 5c 3e 6e c5 95 bc
       0.07099631 -0.26410377 0.21494465 -0.018282618
000130 3f 63 28 be 08 d3 ac 3e 05 78 15 be a1 bc cf bc
       -0.1644411 0.33754754 -0.14596565 -0.0253585
000140 4e 83 12 3e 36 79 93 bd 43 79 39 3d 5c 8f b4 bd
       0.14307901 -0.072008535 0.04528166 -0.08816406
000150 1f 84 d9 3d b7 01 4f 3b b7 8f ed 3d 60 1c fc bc
       0.10620903 0.0031586715 0.11599677 -0.030775249
000160 1f 58 25 3d 46 fd 20 3e 90 e7 41 bd 01 d7 15 be
       0.040367242 0.15721616 -0.047339976 -0.14632799
000170 42 8b c9 3d c3 b1 86 3e 6a fb 74 be 74 1b 57 3c
       0.098410144 0.26307496 -0.23924032 0.013129104
000180 45 9f 08 3e a6 d6 fa 3d cd e6 90 3e de b0 d4 3e
       0.13342007 0.12247972 0.28301087 0.4154119
000190 33 87 1c be d8 ff fd 3d 5a 05 46 3e e7 58 8a be
       -0.1528595 0.12402314 0.19337979 -0.27020952
0001a0 9b 95 67 3e 86 07 8d 3c f6 25 98 be 95 da df bb
       0.22615664 0.017215502 -0.29716462 -0.006831477
0001b0 b2 57 4e be 5a 2f c5 bc cf a1 54 be 31 95 1d be
       -0.2015064 -0.02407043 -0.2076485 -0.15388943
0001c0 56 cb 91 bc 60 5f 57 3e b2 37 9d 3e 12 e2 8b 3d
       -0.017797153 0.21032476 0.30706555 0.06830229
0001d0 e1 9f 85 3e c3 f1 26 be e4 ab 60 bd ed a7 33 be
       0.2609854 -0.16303162 -0.054851428 -0.17544527
0001e0 04 88 00 bd 74 09 d8 3d fc 92 19 be 6b 03 05 bd
       -0.031379715 0.10548678 -0.14997476 -0.032473963
0001f0 40 db 6b 3e 7b 4e 18 3e 12 af 33 be 49 56 43 3d
       0.23032856 0.14873688 -0.17547253 0.04768971
000200 f8 ca dc 3a b8 8b 43 3d 10 30 2c be 0d 6d ab 3c
       0.0016845157 0.047740668 -0.1681521 0.020926023
000210 d9 8c bc 3d cb b5 1a be d1 ea d6 3c 91 a7 c7 3e
       0.09206552 -0.15108411 0.026235016 0.3899503
000220 01 b7 97 3e f6 d5 b2 3d 3d 34 30 be f2 ea 3d be
       0.29631808 0.08732216 -0.17207427 -0.18546656
000230 70 bd 31 be 8b df f5 3e 31 f4 b1 3e f1 4a 88 be
       -0.17357421 0.48022112 0.34756616 -0.26619676
000240 d5 2a 81 3e 94 7d 94 bd a1 09 de 3c cd 16 24 3c
       0.2522799 -0.072505146 0.0271042 0.010015202
000250 88 3c 7c 3d ff f5 58 be 22 99 53 be 2e 36 19 3e
       0.061581165 -0.2118759 -0.20663884 0.14962074
000260 64 bc 55 be f4 33 ee 3d 59 dd 29 3e 73 ad 7b be
       -0.20872647 0.11631003 0.16588344 -0.24577884
000270 cd cd 48 be 21 b9 e8 3d 55 00 1d be c4 bc 0d 3d
       -0.19609757 0.113634355 -0.15332158 0.03460385
000280 84 dc a4 3d 89 a4 86 bc 2c c5 6d be 48 17 c3 3c
       0.080498725 -0.016435878 -0.23219746 0.023814812
000290 9c 8f 81 3e da 7b 93 3d a2 08 6f be 23 a1 98 3e
       0.25304878 0.07201357 -0.23343137 0.29810438
0002a0 15 9f c3 3d 43 c5 bc 3d 53 11 17 3c 30 18 33 be
       0.09551827 0.09217312 0.009220439 -0.17489696
0002b0 bf f1 5b 3e 9e cd c4 bc 36 df 03 3e 10 89 64 3e
       0.21478938 -0.024023827 0.12878117 0.2231791
0002c0 6e 21 7e be 63 bf 52 be f6 97 2d 3e f5 e6 a4 3e
       -0.2481744 -0.2058082 0.169525 0.32207456
0002d0 f9 3d bc bb b5 7c 3e be db bd ac bc 51 41 1d 3c
       -0.0057446924 -0.1860226 -0.021086624 0.009598092
0002e0 84 01 f4 3d 6e 4c 98 3e ca fb 00 3b 00 90 ec 3c
       0.119143516 0.2974581 0.0019681328 0.028877258
0002f0 6c ca 07 bd ca 59 a8 bd 14 13 6f 3d 3e c3 96 3d
       -0.03315203 -0.08220251 0.058367804 0.07361458
000300 20 85 24 bd 9f 98 0e be 5c df b9 3e b7 56 0d 3e
       -0.04016602 -0.13925408 0.36303222 0.1380261
000310 23 50 1f be 08 d2 5d 3d eb 8c e5 3d 1e 5d fa bd
       -0.15557913 0.05415538 0.112085186 -0.12224792
000320 27 3f 98 3d 88 51 2d be 6c 0c 41 be b3 23 7a 3d
       0.0743392 -0.16925633 -0.18852395 0.0610692
000330 fe 33 9d 3e c4 52 3f be 05 79 70 bd 5f d9 d1 3d
       0.3070373 -0.18683916 -0.058709163 0.10246538
000340 57 34 67 3e b1 ab 80 3e 28 03 5e 3e 47 34 6b 3e
       0.2257856 0.2513099 0.21680892 0.22969161
000350 16 c4 31 3e 5c bd 32 be 10 b1 42 3d b0 45 e4 bb
       0.17359957 -0.17455047 0.04753214 -0.006966315
000360 0c c8 56 be ce 13 1e 3e 29 e0 1b bd 69 a3 e7 bd
       -0.2097475 0.15437242 -0.038055573 -0.11310465
000370 fb 71 43 be 5b d9 59 3d 4b 82 3a 3c cf f6 b2 3e
       -0.19086449 0.053185802 0.011383603 0.34953925
000380 fb 8c a5 bd 26 1e d8 3d 4e 60 85 bd 47 e7 af bd
       -0.080835305 0.10552625 -0.06512509 -0.085890345
000390 d5 98 be 3e 82 79 b7 3e 48 0f 00 be 93 2e 3c be
       0.37225977 0.3583489 -0.1250583 -0.18377142
0003a0 60 f7 09 be 28 c5 c1 3d 55 50 85 bd 38 96 78 bd
       -0.13473272 0.09461433 -0.06509463 -0.060690135
0003b0 4c 6a 0f bc d8 a4 5a 3d 47 19 97 3d 43 c5 13 3e
       -0.0087533705 0.053379864 0.07377868 0.14430718

bias f4 [12]
000000 03 e9 d5 3d a3 ed 3b be 85 d3 b2 bd f8 54 70 3d
       0.10444834 -0.1835237 -0.087317504 0.058674783
000010 85 b5 35 be ba dd 4b 3c 51 72 d3 bd 3f e0 75 3e
       -0.17745025 0.012443 -0.103245385 0.24011324
000020 0d 5b 2c 3d e9 17 ff bd 8d d6 14 3e 64 19 84 3d
       0.04207902 -0.124557324 0.1453497 0.064501554

weight f4 [10, 12]
000000 a1 7f ac 3c ff af 16 3f 10 31 96 be 22 6b 9f bd
       0.021056952 0.588623 -0.29334307 -0.07784106
000010 02 7b c4 be e9 8a a0 bd e0 be c6 bb 8f cb 92 be
       -0.38375098 -0.07838995 -0.0060652345 -0.28670928
000020 f6 b7 72 3d 76 cd 3c 3e c5 aa ca 3c f7 75 54 be
       0.05925747 0.18437752 0.024739632 -0.20748125
000030 1f 77 aa 3e 12 fa 73 be 23 9b 00 3e 6d 76 5e 3d
       0.33294007 -0.23825863 0.1255918 0.05431216
000040 c6 2f bd 3d 17 74 6d be 25 9a 2e be be 7a 67 be
       0.09237628 -0.23188816 -0.17050989 -0.22605416
000050 d9 75 7a be eb bf 20 3e a6 51 99 be 5e a1 1b 3f
       -0.24459018 0.15698211 -0.29945105 0.607931
000060 51 38 61 be 12 81 c3 3d c3 6c 96 3e 69 01 7f 3e
       -0.21994139 0.095461026 0.29379854 0.24902882
000070 1a 17 8c be bc a8 eb bd 95 8d e9 bc 07 26 ec 3c
       -0.27361375 -0.11506793 -0.028509894 0.028826727
000080 a9 60 da 3d 95 76 83 3e ab 6d 66 3c f1 e4 e1 3c
       0.10662968 0.25676408 0.014064233 0.027574988
000090 ff 66 fc 3d 93 d7 3e be f1 40 27 be 6b 49 34 be
       0.123243324 -0.18636923 -0.16333367 -0.17606132
0000a0 de 4e 90 bd c5 d5 61 be 9c 52 49 3e 4b e3 0f 3d
       -0.07046293 -0.22054203 0.19660419 0.035128873
0000b0 43 91 e9 bd c8 db 04 be 34 b3 c0 3d ab 9b af 3d
       -0.114046596 -0.12974465 0.0940918 0.08574613
0000c0 39 bd 65 3e 71 ea 88 be 9f 2f ab be bd d0 e8 3e
       0.22435464 -0.26741365 -0.3343477 0.45471755
0000d0 e9 82 1e be 96 65 ad 3d f8 10 94 be 12 82 87 3e
       -0.15479626 0.084666416 -0.28919196 0.26466423
0000e0 54 24 a2 3d 4d 5b 37 3c 9e 09 59 3e b7 01 18 be
       0.07917085 0.011191201 0.21195075 -0.14844404
0000f0 ae 0f 21 be ff 9a 92 be c4 8f c7 3e d3 ca 7b be
       -0.15728638 -0.28633878 0.38976872 -0.2458909
000100 3a a2 9c be cf 38 d9 3e e6 ad 97 3d 66 54 9e bc
       -0.3059252 0.42426154 0.07406215 -0.019327354
000110 c1 e2 a0 3e 11 6d 3c 3e b3 92 1d bd 61 3e dc bd
       0.31423 0.1840098 -0.03846998 -0.10754085
000120 2c 67 86 be 2f 4e 86 bd 25 3a cc 3c 83 f2 1a be
       -0.2625059 -0.06557881 0.02493007 -0.15131573
000130 3c c3 29 3d 44 c9 e3 3e ec 13 e4 3d 5c 2a 2a 3f
       0.041445956 0.4448949 0.11136612 0.66470885
000140 76 d4 86 be 72 13 88 be ea 09 47 be f6 ca 29 be
       -0.2633397 -0.26577336 -0.19437376 -0.1658133
000150 e1 e3 ae 3e 68 af 02 be cf 99 ba bd 1c ea 8a 3d
       0.34158233 -0.12762225 -0.09111368 0.06782934
000160 7e d8 e5 3d 11 f2 ca 3e 98 d1 06 3f 02 6d 8e be
       0.11222933 0.39637807 0.52663565 -0.2781754
000170 21 fa 78 be 3c 55 2b 3e 04 0e 61 be 39 db 13 be
       -0.24314167 0.16731733 -0.21978003 -0.14439096
000180 3f 65 18 be 11 c5 b7 3e 22 bc c2 3b 3d 91 78 be
       -0.14882372 0.35892537 0.0059428373 -0.24274154
000190 cf 66 e4 3e cd 58 e2 bd b6 44 16 be da cc 10 be
       0.44609687 -0.11052094 -0.14674649 -0.14140645
0001a0 dd 45 82 3e c4 6e 9e be e9 17 84 be c5 3e 19 be
       0.25443926 -0.30943882 -0.25799492 -0.14965351
0001b0 b0 1b c8 3e 23 9b 2e be 30 fb 79 be d3 54 13 be
       0.39083624 -0.17051367 -0.24412227 -0.14387827
0001c0 78 97 f7 3d 54 97 9a bb b7 41 6d 3d a3 e1 5d be
       0.12089437 -0.0047177467 0.057924 -0.21668105
0001d0 20 87 01 3f b0 7f 51 be 57 c8 2f 3e af a8 42 3e
       0.5059681 -0.20458865 0.17166267 0.1900966

bias f4 [10]
000000 97 50 42 be 76 97 8a 3e 21 53 73 be 15 2d cd bd
       -0.18976055 0.2706868 -0.2376218 -0.10018364
000010 dd f8 2c be af 33 0c bc 90 69 ab bd 58 08 66 3d
       -0.16891809 -0.008557244 -0.08369744 0.0561603
000020 1f 16 e1 3d 76 cb 41 3e
       0.109905474 0.1892527
