irys_model.pth (torch, 3501 bytes, 8 tensors)

firstFC.weight f4 [10, 3]
0	0x3fb7ad3f	1.4349746
1	0xbf48a80a	-0.7838141
2	0xbeef16fa	-0.46697217
3	0xbf56d56a	-0.83919394
4	0x3e1d3e5d	0.15355821
5	0x3f7d3de7	0.9892258
6	0x3fd90b7c	1.695663
7	0xbfb629ba	-1.4231484
8	0xbd8750c5	-0.066072024
9	0x3f1f3dc4	0.6220362
10	0xbee04255	-0.43800607
11	0xbf15c19e	-0.5849856
12	0x3f850aa8	1.0393877
13	0x3cde948f	0.027170448
14	0xbf84bd50	-1.0370274
15	0x3fb24dd5	1.3930002
16	0xbe75b762	-0.23995736
17	0xbf71f4de	-0.9451426
18	0xbf09a9de	-0.5377482
19	0xbe9acb10	-0.3023305
20	0x3dc78da2	0.09743811
21	0xbfa78691	-1.3087941
22	0x3f944b2e	1.1585443
23	0x3f4a0394	0.7891171
24	0xbf8ad34a	-1.084573
25	0xbedffd43	-0.4374791
26	0x3fa31aed	1.2742592
27	0xbfd718cc	-1.6804442
28	0xbef811a8	-0.4845097
29	0x3fd67289	1.6753703

firstFC.bias f4 [10]
0	0x3eeebea1	0.46629813
1	0xbe575e96	-0.21032175
2	0x3e8be745	0.27324882
3	0xbd5626dd	-0.052283157
4	0x3f095445	0.5364421
5	0x3f7a8ec1	0.97874075
6	0xbd067b6a	-0.03283254
7	0xbeb47f9e	-0.35253614
8	0xbf8e61be	-1.1123579
9	0xbff78547	-1.9337548

secondFC.weight f4 [10, 10]
0	0xbf27f646	-0.6561016
1	0x3f4bdcf1	0.79634005
2	0xbf51523f	-0.8176612
3	0xbe627dff	-0.22118376
4	0xbee96d91	-0.45591405
5	0xbed35ffb	-0.41284165
6	0x3e94ed0b	0.290871
7	0x3f873bd7	1.0565137
8	0x3f0ef1fe	0.55838
9	0x3f422c4c	0.7584884
10	0xbf2583fd	-0.64654523
11	0x3f0a0676	0.5391611
12	0xbf1cc631	-0.61239916
13	0xbcfd8126	-0.030945372
14	0xbe9e6faf	-0.30944583
15	0xbf498944	-0.78725076
16	0x3e460b7d	0.1934032
17	0x3f5222fb	0.82084626
18	0x3f3c8a2a	0.7364832
19	0x3f7c3c53	0.9852955
20	0x3f5a947f	0.8538284
21	0xbe3bb814	-0.18331939
22	0x3f41bbaf	0.7567701
23	0x3bd094b4	0.006365383
24	0x3f4504bd	0.76960355
25	0x3f4af466	0.7927917
26	0xbe955493	-0.29166088
27	0xbf28b6a9	-0.6590372
28	0xbeda3f3a	-0.42626363
29	0xbf2f0823	-0.6837179
30	0x3f6e1ce1	0.93012816
31	0xbf05d2d1	-0.52274805
32	0x3f9bd9d9	1.2175857
33	0x3f06d047	0.52661556
34	0x3f524e55	0.82150775
35	0x3f672de3	0.9030439
36	0xbe4306ef	-0.19045614
37	0xbf3a6b9e	-0.7282046
38	0xbf0e7eb6	-0.55662096
39	0xbfa516b0	-1.2897549
40	0x3ebe97b2	0.3722511
41	0xbf0b1cd8	-0.5434089
42	0x3f2aed21	0.6676808
43	0x3de7eed4	0.1132485
44	0x3f10f3a8	0.5662179
45	0x3e8d258d	0.2756771
46	0xbe80a7b2	-0.2512794
47	0xbf501e5a	-0.8129631
48	0xbe96f906	-0.29486865
49	0xbf4a0035	-0.78906566
50	0xbeeb54db	-0.45963177
51	0x3f514ca5	0.81757575
52	0xbf776ddb	-0.96652
53	0xbee1653b	-0.44022545
54	0xbee8b185	-0.45447937
55	0xbeeb3b65	-0.45943752
56	0x3e737d0b	0.23778169
57	0x3fa4557c	1.2838588
58	0x3eb76ec2	0.3582669
59	0x3f8dc318	1.1075163
60	0x3f5ec733	0.87022704
61	0xbeec52e0	-0.4615698
62	0x3f896942	1.0735247
63	0x3e176562	0.14784768
64	0x3f61036d	0.8789585
65	0x3fa7e86f	1.3117808
66	0xbe9cb9f0	-0.3061061
67	0xbf180773	-0.59386367
68	0xbf0818d7	-0.531629
69	0xbfa38d2f	-1.2777461
70	0x3ee2f028	0.4432385
71	0xbef6512e	-0.4810881
72	0x3f767cfc	0.9628446
73	0x3dcf3390	0.10117257
74	0x3f180695	0.59385043
75	0x3f59b3fa	0.8504025
76	0x3b7dd9d8	0.0038734581
77	0xbed0a4ff	-0.40750882
78	0xbf53419e	-0.82522
79	0xbf96f108	-1.1792307
80	0x3ef1597e	0.4713859
81	0xbee291ff	-0.4425201
82	0x3f474ae6	0.7784866
83	0x3e8c1778	0.27361655
84	0x3f078863	0.52942485
85	0x3f73cb70	0.95232296
86	0xbba205ca	-0.0049445378
87	0xbe4ac79a	-0.19802704
88	0xbf2c0102	-0.6718904
89	0xbf7ca7e7	-0.986937
90	0x3fa0d94e	1.2566316
91	0xbf22a626	-0.6353477
92	0x3f68d196	0.909448
93	0x3e984b96	0.29745167
94	0x3f7cb645	0.9871562
95	0x3f9c2747	1.2199486
96	0xbe96b4fd	-0.29434958
97	0xbf0c83ce	-0.5488862
98	0xbf2e9688	-0.6819844
99	0xbf92ae61	-1.1459466

secondFC.bias f4 [10]
0	0x3e829b7a	0.25509244
1	0xbd8a2718	-0.06745738
2	0xbe96acc1	-0.29428676
3	0x3e32ba1a	0.17453805
4	0xbe10c0b6	-0.14136013
5	0x3eca7e6e	0.39549583
6	0x3f0ba46b	0.54547757
7	0x3d946868	0.072464764
8	0x38205140	3.8222643e-05
9	0x3ec76360	0.38943005

thirdFC.weight f4 [7, 10]
0	0x3f4067cd	0.7515839
1	0x3f1968f0	0.59925747
2	0xbe411af8	-0.18857944
3	0xbf057ca8	-0.52143335
4	0xbf1d9cdf	-0.6156749
5	0x3f2d5067	0.6770081
6	0xbf11fbfb	-0.57025117
7	0xbf49b030	-0.78784466
8	0xbeb098ab	-0.34491476
9	0xbefc09b2	-0.49226147
10	0x40172b48	2.3620167
11	0x3ffeed6c	1.9916205
12	0xbf01ec68	-0.5075135
13	0xbf98e2f7	-1.1944264
14	0xbf5ad728	-0.8548455
15	0x4024c880	2.5747375
16	0xbec2055a	-0.37894708
17	0xbf5d81f1	-0.865264
18	0xbe8f7949	-0.2802222
19	0xbf51160a	-0.81674254
20	0xbf356aea	-0.7086626
21	0xbf3e849b	-0.7442109
22	0x3f6863db	0.9077737
23	0x3f9ae04b	1.2099699
24	0x3f09f31e	0.5388659
25	0xbfafbb5a	-1.372905
26	0x3f97e2be	1.1866071
27	0x3f307662	0.6893064
28	0x3f2b4931	0.66908556
29	0x3f748e1a	0.9552933
30	0x3ee2813d	0.44239226
31	0x3f24cbc5	0.6437343
32	0xbf00a3a6	-0.5024971
33	0xbf4b09aa	-0.7931162
34	0xbe4bbff6	-0.19897446
35	0x3f6c73cc	0.9236419
36	0xbe9ab9c1	-0.30219844
37	0xbe98a40c	-0.29812658
38	0xbe0e1f14	-0.13879043
39	0xbf2b8363	-0.66997355
40	0xbf0b95a2	-0.54525197
41	0xbf8846a6	-1.064656
42	0x3f593b20	0.8485584
43	0x3f8a9d1a	1.0829194
44	0x3ed44df7	0.41465732
45	0xbf36b4d6	-0.71369684
46	0x3f9396de	1.1530416
47	0x3f81c8b2	1.0139372
48	0x3f3f82b0	0.7480879
49	0x3fadc12f	1.357458
50	0x3f85e4bc	1.0460429
51	0x3f484d07	0.78242534
52	0xbf440e37	-0.7658419
53	0xbf8489a6	-1.0354507
54	0xbeeed6f2	-0.46648365
55	0x3f6d05c6	0.92586935
56	0xbf9ef114	-1.2417321
57	0xbf3a6871	-0.72815615
58	0xbf758382	-0.9590379
59	0xbf9b7dc5	-1.2147757
60	0x3f8219a1	1.0164071
61	0x3f784420	0.9697895
62	0xbf7a46ad	-0.9776409
63	0xbff478ce	-1.9099367
64	0xbf396f96	-0.7243589
65	0x3f99f49a	1.2027771
66	0xbfc3b612	-1.5289938
67	0xbf9ba8a9	-1.2160846
68	0xbf8d8539	-1.1056281
69	0xbfdd886f	-1.7307261

thirdFC.bias f4 [7]
0	0xbe0a32c9	-0.13495935
1	0x3faea619	1.3644439
2	0xbf41c0e6	-0.75684965
3	0x3d866905	0.06563
4	0xbef9192f	-0.48652026
5	0xbdbf6c37	-0.09346812
6	0x3ee94ce0	0.45566463

lastFC.weight f4 [3, 7]
0	0xbfb8a544	-1.4425435
1	0xc0a0b17b	-5.021665
2	0x406636ca	3.597094
3	0xbfc1f29d	-1.5152165
4	0x4002fb90	2.0466042
5	0xbfebda56	-1.8426006
6	0xc0843510	-4.1314774
7	0xbe67bd25	-0.22630747
8	0x4035ba13	2.839482
9	0x3db05c25	0.08611325
10	0x3e0268fd	0.12735362
11	0x3f3eaf7b	0.7448651
12	0xbf7094f7	-0.939773
13	0xbf354b1e	-0.70817745
14	0x3fb0b05f	1.3803824
15	0x4003b1a8	2.0577183
16	0xc08061cd	-4.0119386
17	0x3fb54b97	1.4163693
18	0xc03979e2	-2.8980641
19	0x401d0bc8	2.453844
20	0x40954122	4.664201

lastFC.bias f4 [3]
0	0x3f81b65c	1.0133777
1	0x3f6e1fd7	0.93017334
2	0xc001c2d0	-2.0275154
