irys_model.pth (torch, 3501 bytes, 8 tensors)

firstFC.weight f4 [10, 3]
000000 8f 70 9d 3f 8c 4a e4 be dc 0a 48 bf 83 5f a3 3f
       1.2299975 -0.44588125 -0.7814157 1.2763523
000010 91 4a 88 be 02 a7 8e bf 3b 73 9e 3f 6f 8f 21 3f
       -0.2661939 -1.1144717 1.2378916 0.6310949
000020 cc 94 3a bf cf df 84 bf 03 7f 42 3c d7 36 b6 3f
       -0.72883296 -1.0380801 0.011871102 1.4235486
000030 8c a3 b7 3f fc 7d 77 bf c0 fc 11 bf 73 27 a8 3f
       1.4346786 -0.9667661 -0.5702629 1.3137039
000040 3d 4e 26 3e 7d 13 dd bf ca 04 93 bf 2d d8 6e bd
       0.16240783 -1.7271572 -1.1485837 -0.05831163
000050 52 fe 4a 3f fa 27 95 bf 32 3a 36 3f c4 7f 37 3e
       0.7929431 -1.1652825 0.7118255 0.17919832
000060 5d f3 a0 bf 61 3a 1c 3f 5a 16 d2 3e f8 50 9e 3f
       -1.2574269 0.6102658 0.41032678 1.236846
000070 b0 75 41 bf a1 5f 75 bf
       -0.755702 -0.95849043

firstFC.bias f4 [10]
000000 b4 d4 87 3e 94 c0 3b 3f a8 d8 8a 3f 0d 7e 3a bf
       0.26529467 0.73340726 1.0847368 -0.7284859
000010 91 4b 9d 3c 98 b5 83 3f b2 76 79 bf e8 15 ed bc
       0.019201072 1.0289793 -0.9744674 -0.02894111
000020 88 c1 d8 be 8a 77 e0 bd
       -0.42335153 -0.109603

secondFC.weight f4 [10, 10]
000000 96 6b 78 3f b2 6f 20 3f 68 c6 76 3f e7 68 0a bf
       0.97039163 0.62670434 0.96396494 -0.5406632
000010 b2 26 99 3f da 9b 70 3f 3b 04 46 bf f0 c2 c8 be
       1.1964934 0.9398781 -0.77350205 -0.39211226
000020 67 87 2a bf 7b c5 2d 3f c8 4a 08 3f ca 43 57 3f
       -0.6661286 0.67879456 0.5323911 0.8408781
000030 f2 74 21 3f f8 ef 16 bf 1b 0d 2d 3f a9 42 68 3f
       0.6306907 -0.58959913 0.6759812 0.90726715
000040 c2 df 45 bf 5f 29 13 bf d4 85 1d bf f4 85 76 3f
       -0.7729455 -0.57485 -0.6153233 0.96298146
000050 f4 68 63 be 38 0f b9 be 5c e0 0a be da 95 3f 3f
       -0.22208005 -0.36144423 -0.13562149 0.7483803
000060 1c f8 56 bf c7 5e a0 be 3c 73 a0 3e ff c1 7d 3f
       -0.83972335 -0.3132231 0.31337917 0.9912414
000070 52 5e 55 3f 63 c8 4f bf 8b db 3d bf 61 7d 64 bf
       0.83347046 -0.8116514 -0.7416312 -0.89253813
000080 44 bc 24 bf d3 ae 5c 3f 71 8d 91 bf 4d 3f a0 bf
       -0.6434977 0.8620426 -1.137129 -1.2519318
000090 6d fa 50 3f 1c 50 3d 3f 9b e6 eb 3e 3e 1c 34 bf
       0.8163212 0.7395036 0.46074376 -0.70355594
0000a0 d3 9d 54 be cf 0c 8f be a2 46 ae 3e 14 80 9b 3e
       -0.2076333 -0.2793946 0.34038264 0.30371153
0000b0 79 6e 85 3d d1 78 21 be aa 39 29 be c1 56 d1 3e
       0.065152116 -0.15768744 -0.16525903 0.408865
0000c0 d4 7b c7 bb fd 20 eb bd cb dc 1c 3f d1 bf a2 3e
       -0.0060877595 -0.114809014 0.61274403 0.3178697
0000d0 b6 52 3b 3f 82 0d 7d be 49 04 58 3e f8 df 27 3f
       0.7317308 -0.24712184 0.21095385 0.65576124
0000e0 65 cc f0 be b5 67 1d be 4d 34 e6 be 6a 18 b4 3e
       -0.4703094 -0.15371592 -0.44961777 0.35174876
0000f0 10 7e 3a bf 83 c5 ff be 83 1f 14 be 4d 97 16 3f
       -0.72848606 -0.49955377 -0.14465146 0.58824617
000100 48 d6 5d bf 63 aa 0c bf 99 b8 47 3f c1 07 4d 3f
       -0.8665509 -0.5494749 0.7801605 0.80089957
000110 07 85 1b 3f 94 fa 01 bf 07 d1 29 bf 8a 14 52 bf
       0.6074986 -0.50772977 -0.66334575 -0.8206259
000120 d0 17 ee be ba e4 7c 3f 38 55 07 bf 25 5b 47 bf
       -0.46502542 0.9878651 -0.5286441 -0.7787345
000130 e6 75 c6 3e 15 fa 2d 3f e5 89 fe 3e a1 1f 1a bf
       0.38761824 0.6795972 0.4971458 -0.6020451
000140 bd 72 89 3f a8 8c 6f 3f 04 76 83 3f 4f 9d 80 bf
       1.073814 0.93574 1.027039 -1.0048007
000150 e4 88 82 3f d1 8e b7 3f 3b a2 50 bf 1b 20 2d bf
       1.0198026 1.4340459 -0.81497544 -0.67627114
000160 ae 73 66 bf 2c fe 2f 3f b9 09 8d be 5e 4a 95 be
       -0.90020263 0.6874721 -0.2754648 -0.291583
000170 5b 0a ad be 97 9c 17 3f 41 7d 44 bf 3f ff 08 bf
       -0.33796963 0.5922331 -0.7675362 -0.53514475
000180 69 96 57 3f 3f 82 e7 3e 33 54 09 3f b5 a8 67 bf
       0.8421388 0.45216557 0.536441 -0.904918

secondFC.bias f4 [10]
000000 9c 2e 56 be 88 40 b4 3d 1a 62 01 3f aa 49 33 bd
       -0.20916218 0.08801371 0.50540316 -0.043771423
000010 e9 88 20 bd fd 33 05 3e c7 c7 10 3f c9 1f 00 3e
       -0.039193068 0.13008113 0.56554836 0.12512125
000020 8c f3 04 3f 6a b8 a9 3e
       0.51934123 0.3314851

thirdFC.weight f4 [7, 10]
000000 c7 f3 41 3f 5e fc c9 3e 0e 14 ae bf 41 1c 5a bf
       0.757626 0.39450353 -1.359987 -0.8519936
000010 55 e7 85 be 23 fa 0a 3e 42 70 82 bf 74 42 23 bf
       -0.26153055 0.13571982 -1.0190508 -0.63773274
000020 00 62 63 3f 8a 61 73 bf 64 4a aa be a2 1a e0 be
       0.8882141 -0.9507071 -0.3325988 -0.4377032
000030 f9 7d 15 3f 27 40 27 3f 8f f2 25 be 44 23 b6 be
       0.58395344 0.65332264 -0.1620581 -0.3557378
000040 7b c2 7f 3e 5e 52 ea 3e 90 f5 61 bf 77 f7 b5 3e
       0.24976532 0.45765966 -0.88265324 0.35540363
000050 65 e8 8a bf eb 05 95 bf 7b 80 e4 3f 39 df 00 40
       -1.0852171 -1.1642431 1.7851709 2.0136244
000060 af a6 42 3f 06 62 73 be 16 64 06 40 44 19 da 3f
       0.7603559 -0.23767862 2.0998588 1.703896
000070 31 2c ab bf 6f ce bc 3f c0 29 fd 3f 2d fa ed 3f
       -1.3372861 1.4750499 1.9778366 1.8591973
000080 4d b9 c1 be ed df dc bf e7 bc ea 3e 27 54 94 3f
       -0.37836686 -1.7255837 0.45847246 1.1588181
000090 47 78 93 bf 53 84 a0 bf b4 91 14 40 47 c4 71 bf
       -1.1521081 -1.2540382 2.321393 -0.9444012
0000a0 80 e4 80 bf ee bb 70 bf 3d 29 b7 3e 94 5d 81 3f
       -1.0069733 -0.9403676 0.3577365 1.0106683
0000b0 99 46 d6 3d d1 d8 3f bf 7e e6 30 3f d8 09 1d 3f
       0.10462684 -0.7494021 0.69101703 0.61343145
0000c0 d6 a0 b2 bf 26 04 c3 3e d9 87 03 3f 81 f8 ad bd
       -1.3955333 0.38089103 0.5137916 -0.08494664
0000d0 f1 c4 2a bf 75 4b 2c bf e6 12 e8 3c 9d 70 1f be
       -0.6670676 -0.6730264 0.028329324 -0.15570302
0000e0 0a f7 a1 be 77 5c ac be 3c f3 df 3e d3 b6 4e bf
       -0.31633788 -0.33664295 0.4374026 -0.8074772
0000f0 a0 d6 db 3f 54 3c ba 3f cd 39 16 bf c3 53 d3 bf
       1.7174873 1.4549661 -0.58681947 -1.6509937
000100 b5 94 67 3e 00 d3 40 3f 67 c7 33 bf 73 a3 8c bf
       0.22615321 0.7532196 -0.7022614 -1.0987381
000110 86 3a 0a 40 9a bd 48 bf
       2.159822 -0.7841431

thirdFC.bias f4 [7]
000000 bc 9b c9 be b0 7d f2 3d 47 59 46 3f d2 6c df 3e
       -0.39376628 0.11840379 0.77479976 0.4363771
000010 ab 87 d8 bc cf 09 d6 bd 23 5c e6 3e
       -0.026431879 -0.104510896 0.4499217

lastFC.weight f4 [3, 7]
000000 9d 92 0e 40 6a ed ac bf e0 60 b3 c0 48 e7 27 40
       2.2276986 -1.3509953 -5.6055756 2.6234913
000010 66 18 c3 bf c0 be 6e 3f 7d d0 4f 40 46 7f 88 bf
       -1.5241821 0.9325981 3.2471 -1.0663841
000020 42 dd 3a be 69 cc f5 3f f6 14 ed 3f 19 90 3e bf
       -0.18248466 1.9203006 1.8522022 -0.74438626
000030 10 94 e5 be 84 f6 73 3f 82 49 95 bf 23 de 99 3f
       -0.44839525 0.9529803 -1.1663058 1.2020916
000040 c0 14 56 40 67 d9 80 c0 b9 e5 1e 40 92 f7 16 bf
       3.3450165 -4.0265384 2.4827712 -0.5897151
000050 da 9e 83 c0
       -4.113141

lastFC.bias f4 [3]
000000 a7 5a 5f bf 00 50 98 3e 2c ff 29 3f
       -0.872477 0.29748535 0.66404986
