irys_model.pth (torch, 3501 bytes, 8 tensors)

firstFC.weight f4 [10, 3]
1.5098859 -1.0648636 -0.99150264 1.3388171 -0.6601986 -0.56661296 -1.3617908 -0.48650205
1.7161024 -0.5393785 0.8481832 0.022335254 -1.3098731 0.6851035 0.6504203 -0.7673391
-0.35208678 0.7597468 -1.3597198 1.2187866 0.06536968 1.4046158 0.442804 -1.4214255
1.041691 -0.61712545 0.14654617 -0.83981997 0.11305251 0.44832268
00000000: f143 c13f 734d 88bf 1ed3 7dbf 5c5e ab3f
00000010: c702 29bf 8c0d 11bf 294f aebf cc16 f9be
00000020: 3ea9 db3f b614 0abf 8922 593f 6cf8 b63c
00000030: eca9 a7bf f162 2f3f f281 263f 5670 44bf
00000040: b844 b4be c47e 423f 4c0b aebf 3301 9c3f
00000050: 8ae0 853d 73ca b33f 35b7 e23e 45f1 b5bf
00000060: 2156 853f effb 1dbf 3310 163e 71fe 56bf
00000070: 1388 e73d 8d8a e53e

firstFC.bias f4 [10]
0.59787714 0.42979324 -1.3683351 -0.47343135 -0.7126564 -0.6560168 -0.35715806 1.4034528
0.33900112 -0.4070649
00000000: 7a0e 193f dc0d dc3e 9b25 afbf 9865 f2be
00000010: a670 36bf b8f0 27bf 6cdd b6be 57a4 b33f
00000020: 8e91 ad3e d06a d0be

secondFC.weight f4 [10, 10]
1.1361492 0.46492502 -0.45873764 -0.7014362 -0.95017254 -0.44153336 -0.95935214 0.6382219
0.35647285 -0.3155577 -0.328408 -0.81246936 0.7898405 0.39104548 0.1959368 0.57451415
0.7460491 -0.604242 0.002595989 0.557422 -0.07629131 -0.13272397 -0.17509183 0.2448106
0.09745763 -0.15829144 -0.050438687 -0.1995273 -0.21139272 0.13744426 -1.08102 -0.75161964
0.8660193 0.6406643 0.6255482 0.23345815 0.7005312 -0.34172648 -0.2219747 0.52233756
-1.2294405 -0.99236 0.96773535 0.07217507 0.93641514 0.62001866 0.5423951 -1.1830608
-0.5464669 0.5157344 -0.042886686 0.120104045 -0.4409786 -0.09341984 0.24961118 -0.3359553
0.26535773 0.05383112 0.2359458 0.08432788 0.7387293 0.5452741 -0.19510914 -0.26899046
-1.0708226 -0.46295342 -1.1744163 0.535489 0.50808483 -0.43278256 0.90510935 0.84544253
-0.9430134 -0.064515196 -0.83628553 -0.19217035 -0.48196015 0.9162504 0.15329334 -0.47481567
0.5440521 0.26224026 -0.51102257 0.21798265 -0.41219988 -0.15721714 -0.22674274 0.65957856
0.09888138 -0.22909832 1.8237008 1.7079782 -1.5730654 0.15892269 -1.1863993 -0.5102352
-0.5843999 2.2400563 0.6953613 -0.37415838
00000000: 566d 913f a70a ee3e a9df eabe 5391 33bf
00000010: 823e 73bf a910 e2be 1a98 75bf 8362 233f
00000020: 9c83 b63e c790 a1be 1825 a8be fefd 4fbf
00000030: fd32 4a3f 1d37 c83e a8a3 483e 5c13 133f
00000040: 13fd 3e3f 9baf 1abf 7821 2a3b 35b3 0e3f
00000050: 9e3e 9cbd cbe8 07be 464b 33be a1af 7a3e
00000060: de97 c73d 2717 22be cc98 4ebd e250 4cbe
00000070: 5577 58be 30be 0c3e dd5e 8abf 256a 40bf
00000080: 71b3 5d3f 9302 243f ed23 203f a70f 6f3e
00000090: 0356 333f c6f6 aebe 564d 63be eab7 053f
000000a0: 4e5e 9dbf 4e0b 7ebf 81bd 773f 86d0 933d
000000b0: e7b8 6f3f 8bb9 1e3f 68da 0a3f 896e 97bf
000000c0: 41e5 0bbf 2b07 043f f3a9 2fbd 1cf9 f53d
000000d0: f2c7 e1be e752 bfbd 139a 7f3e 5502 acbe
000000e0: f8dc 873e 057e 5c3d c79b 713e 18b4 ac3d
000000f0: 5d1d 3d3f 1597 0b3f b1ca 47be 1eb9 89be
00000100: b710 89bf 3b08 edbe 4653 96bf cf15 093f
00000110: d911 023f ad95 ddbe 3fb5 673f ec6e 583f
00000120: 5469 71bf 8b20 84bd cf16 56bf 4ec8 44be
00000130: 7bc3 f6be 638f 6a3f eef8 1c3e 0a1b f3be
00000140: 0047 0b3f 5b44 863e 60d2 02bf d836 5f3e
00000150: dd0b d3be 88fd 20be 402f 68be 24da 283f
00000160: 5282 ca3d c098 6abe 076f e93f 089f da3f
00000170: 355a c9bf a1bc 223e efdb 97bf c69e 02bf
00000180: 3b9b 15bf 155d 0f40 3303 323f b091 bfbe

secondFC.bias f4 [10]
-0.47982404 -0.26919395 -0.1673843 0.41662386 -0.3762574 -0.18440737 -0.42452824 -0.072275355
0.18152265 0.65371555
00000000: 7fab f5be cad3 89be ca66 2bbe b94f d53e
00000010: cfa4 c0be 49d5 3cbe c45b d9be 1a05 94bd
00000020: 13e1 393e e759 273f

thirdFC.weight f4 [7, 10]
-1.2998703 0.7193043 -0.22570924 0.65374863 1.6504939 -0.12733689 -1.0352607 -0.8903059
-0.5489353 -2.4032881 -0.7844274 0.6584823 0.03865654 0.91748196 1.2362025 -0.06651404
-0.7969192 -0.56294435 -0.07036529 -1.7328091 -0.8307158 0.4070193 0.15330671 1.0849565
1.5532842 -0.0619939 -0.79287344 -0.7319022 0.18482506 -1.3702228 -0.28298572 0.38241094
0.22365186 0.17749165 0.64405954 -0.33068833 -0.25227344 -0.48325363 -0.5002257 -1.2061869
0.4356635 -0.6548031 0.11090518 -0.5977061 -1.2178235 -0.015648926 0.45765767 0.9100687
0.5879519 1.3509593 0.86696804 -0.7408129 0.08191064 -0.9358047 -1.5984292 0.38802606
0.60354775 1.3799536 0.8326371 2.4284143 -1.4642195 1.5146155 0.67287105 1.980635
2.104877 0.6543553 -1.3053952 -0.9756799 0.18258153 -1.4260356
00000000: 2662 a6bf 5424 383f 5320 67be 125c 273f
00000010: 6243 d33f 9a64 02be 6c83 84bf 16eb 63bf
00000020: 0687 0cbf 79cf 19c0 3cd0 48bf 4c92 283f
00000030: 5256 1e3d 19e0 6a3f e23b 9e3f 8338 88bd
00000040: e602 4cbf 1f1d 10bf ad1b 90bd b0cc ddbf
00000050: caa9 54bf d564 d03e 6ffc 1c3e dbdf 8a3f
00000060: 04d2 c63f 51ed 7dbd c1f9 4abf f15d 3bbf
00000070: c842 3d3e 7663 afbf 81e3 90be 5ecb c33e
00000080: fe04 653e 5fc0 353e 16e1 243f fb4f a9be
00000090: fc29 81be 056d f7be cb0e 00bf 5564 9abf
000000a0: 490f df3e 2da1 27bf 4122 e33d 4403 19bf
000000b0: a4e1 9bbf 2d32 80bc 1b52 ea3e 43fa 683f
000000c0: 0484 163f 3cec ac3f 9ef1 5d3f eaa5 3dbf
000000d0: c4c0 a73d e690 6fbf 5499 ccbf 5aab c63e
000000e0: 1b82 1a3f 52a2 b03f b427 553f 246b 1b40
000000f0: 8b6b bbbf ecde c13f 4741 2c3f 7385 fd3f
00000100: 4eb6 0640 d483 273f 3117 a7bf 28c6 79bf
00000110: a7f6 3a3e 5688 b6bf

thirdFC.bias f4 [7]
0.20290098 -0.11873378 0.12978902 -0.38951802 0.06327166 0.17434454 1.1487722
00000000: 46c5 4f3e b22a f3bd 6ae7 043e e86e c7be
00000010: 9294 813d 6087 323e f80a 933f

lastFC.weight f4 [3, 7]
-3.361341 -2.2373278 -2.306731 -0.7152337 2.0419474 2.5956354 -4.793875 -0.28201902
-0.026765125 0.5206067 -0.36609298 0.37790006 1.3950905 1.9518173 3.6456575 2.355728
2.5767374 1.047971 -2.2662852 -3.3830523 2.1182392
00000000: 3620 57c0 6130 0fc0 7ba1 13c0 8e19 37bf
00000010: 44af 0240 e41e 2640 6d67 99c0 cc64 90be
00000020: 8942 dbbc 7b46 053f 8a70 bbbe 1e7c c13e
00000030: 5392 b23f 26d5 f93f 7452 6940 3fc4 1640
00000040: 44e9 2440 ea23 863f d10a 11c0 ee83 58c0
00000050: 3b91 0740

lastFC.bias f4 [3]
2.1249464 0.35645378 -2.6904225
00000000: 1fff 0740 1c81 b63e e22f 2cc0
