irys_model.pth (torch, 3501 bytes, 8 tensors)

firstFC.weight f4 [10, 3]
00000000: 008b b13f 4e40 94bf 54b6 0bbf e830 5dbd
00000010: 7577 333f a8c8 c13e bf45 99bf 1da6 3b3f
00000020: 21f6 d03e 244e c33f 748b a7bf 8f7a e5bd
00000030: d57a 8ebf 79ad ddbe 66c4 373f 9842 b4bf
00000040: ff23 bbbe 5344 ab3f 5bfe 8cbf 348d 2fbe
00000050: 0d1b 913f d5c0 c83f 7a24 1fbe 3986 e6bf
00000060: b91d 423f 33f3 04bf 3d15 7c3e 12de 2f3f
00000070: bc3b 4bbf fbc0 a83e
1.3870544 -1.1582124 -0.54575086 -0.05400172 0.7010415 0.378484 -1.197441 0.73300344
0.4081278 1.5258222 -1.3089433 -0.11205017 -1.1131235 -0.43296412 0.71784055 -1.4082823
-0.365509 1.3380226 -1.1015123 -0.17143708 1.133638 1.5683848 -0.15541258 -1.8009712
0.75826603 -0.5193359 0.24617477 0.6869823 -0.7938802 0.32959732

firstFC.bias f4 [10]
00000000: 0168 b0bd 3870 15bf 0f70 03bf 7948 e13c
00000010: 938f 91bf c1a0 c1bf c58a 84bf 54ea ac3f
00000020: b126 bdbe 45e5 54be
-0.08613587 -0.5837436 -0.5134286 0.027500378 -1.137194 -1.5127183 -1.0354849 1.3509011
-0.36943582 -0.20790584

secondFC.weight f4 [10, 10]
00000000: edb6 ed3e cb16 62be f6b3 02bf 9fd1 353f
00000010: 8633 80be cc4c 58bf c219 f3be e42d 4b3f
00000020: a3ed ac3e aa53 653e c470 86bf 860d 0ebe
00000030: 2b00 513f 3eef 24bf a358 143f d580 6e3f
00000040: 6ab2 1d3f af22 87bf 0f2e 97bb 73d4 f3be
00000050: 9d3f 25bf 316e ff3d 8e16 103f 1410 14bf
00000060: 7162 7e3e b169 1a3f d361 2a3f 77d8 35bf
00000070: daa3 91be 69be d7be ded9 a43f f4b1 f53e
00000080: 5f95 c3be fcd3 be3f 3ecd 90bf 281d bebf
00000090: aa2c 73bf a275 0240 1875 013f 316c b3bb
000000a0: 5230 90bf 44e1 973e 0e5c 6b3f fa4c 97bf
000000b0: 7f9e 123f c745 293f 9559 6a3f d6b7 8dbf
000000c0: 7351 a0be e3ce cabe 2e59 443f d008 99be
000000d0: 9b00 30bf 9a53 873f 9648 1abf bf50 7ebf
000000e0: 5c09 2fbf 3f8d 9d3f 9524 073e 0400 2dbb
000000f0: 55c6 443f cd9e e3be a486 dfbe 14c4 353f
00000100: 4e88 e1be e071 eebe afe6 a7be b489 3d3f
00000110: ed29 25be c6d7 19be 7606 263f 527c e6be
00000120: a13d 7ebf 0805 a13f 61dd 3ebf 495c e8be
00000130: a971 19bf cd58 283f ce37 0f3f 9f96 a03e
00000140: 36a9 d7be 4cf8 3dbd 48ff 663e 9210 5dbe
00000150: 08d4 0bbe 1d61 d33e cfe7 9cbc 0ed1 84bd
00000160: e248 2fbe f722 9fbe 5e5f 20bf 5462 973c
00000170: 8126 233f 4db4 1bbf 08e0 0a3f 3b82 d43e
00000180: cf8a 403f 3ec5 86bf f329 2f3d 70cc 80be
0.46428624 -0.22079007 -0.5105585 0.7102298 -0.2503931 -0.8449218 -0.4748059 0.793669
0.33775052 0.22395197 -1.0503163 -0.13872346 0.8164088 -0.64427555 0.5794775 0.9316533
0.61600363 -1.055746 -0.004613645 -0.47623023 -0.6455019 0.12472189 0.56284416 -0.57837033
0.2484224 0.6031752 0.6655552 -0.71033424 -0.2844532 -0.4213746 1.2878988 0.4798733
-0.381999 1.4908442 -1.1312635 -1.4852648 -0.94990027 2.0384297 0.50569296 -0.005475544
-1.1264746 0.29664052 0.9193734 -1.1820366 0.57273096 0.66122097 0.9154294 -1.1071727
-0.3131214 -0.39610967 0.7669858 -0.29889536 -0.68750924 1.0572388 -0.6026701 -0.9934196
-0.68373656 1.230873 0.13197549 -0.0026397714 0.7686513 -0.44457093 -0.4365741 0.71002316
-0.44049305 -0.46571255 -0.32793185 0.74038243 -0.16129275 -0.15023717 0.6485361 -0.45016724
-0.9931279 1.257966 -0.7455655 -0.45382908 -0.59939057 0.657605 0.55944526 0.31364915
-0.42121285 -0.046379372 0.2255832 -0.21588352 -0.13655102 0.4128503 -0.019153504 -0.064851865
-0.17117646 -0.31081364 -0.6264552 0.018479504 0.6373063 -0.6082199 0.54248095 0.41505608
0.75211805 -1.0528944 0.042764615 -0.25155973

secondFC.bias f4 [10]
00000000: e2a5 a0be 5fed 77bd 2d47 be3e a4cb 563f
00000010: 85f7 013f 8c3b 043f 81be b13c 371c 3abe
00000020: 7bcc ee3d 4a9a 35be
-0.3137656 -0.06052911 0.37163678 0.8390448 0.5076831 0.5165336 0.021697285 -0.18174826
0.11660095 -0.17734638

thirdFC.weight f4 [7, 10]
00000000: 66a1 a2be 95c0 cfbe 4b86 6a3e da15 8a3e
00000010: ce9b e93b a5fd 97be bfe3 31bf e22b 16bf
00000020: 90fe 43be 5351 213d d9f3 e5be 7291 fc3e
00000030: 8251 e03d baf6 3bbf 34bd 333f a050 14bf
00000040: 9412 03bf 85f8 0bbf a2f5 6fbe 10d9 fb3d
00000050: 3c84 9e3f 6986 cabf 14e8 37bf 2315 4b40
00000060: c9d6 edbf 55bb 0040 7cbb 8d3f f6ec db3f
00000070: 100e 09be bedc 8dbf d12f 0f3f ed3b 66bf
00000080: f892 21bf 6cd0 0940 899d cfbf d8f5 bf3f
00000090: 7e87 073f 025f b53f 2efa 873d c906 4bbf
000000a0: dfdd 43bf 9b41 a63f 9b47 b53f cf12 0cbf
000000b0: 8f63 f93f 14e5 78bf b52f 15bf 19d6 70bf
000000c0: 6390 4d3f c899 813f bbb8 26bf c9a8 bc3f
000000d0: c840 913f b97d 2bbf f83b 0f40 23dd 35bf
000000e0: e77d ddbe d629 94bf 6b5f ca3e 0fa2 823f
000000f0: 5992 803e 6494 45bf bd05 babe cef4 e53e
00000100: 0fbf 4abf 6d57 b53e e9c0 6d3d eee7 ac3e
00000110: 50e2 62be 2799 3fbf
-0.31763762 -0.40576616 0.22902791 0.26969796 0.007129169 -0.29685703 -0.6948814 -0.5866071
-0.19140077 0.039384197 -0.44912603 0.49329716 0.109530464 -0.7342335 0.70210576 -0.57935524
-0.5120022 -0.54676086 -0.23433545 0.12297261 1.2384105 -1.5822269 -0.718385 3.173165
-1.8581172 2.0114338 1.1072841 1.718169 -0.1338427 -1.108299 0.5593234 -0.8993519
-0.6311488 2.153346 -1.6219951 1.49969 0.5294112 1.4169619 0.06639515 -0.7930723
-0.76510423 1.2988771 1.4162477 -0.547162 1.9483508 -0.97224545 -0.5827592 -0.9407669
0.8029844 1.0125055 -0.65125626 1.4739009 1.1347895 -0.6698871 2.2380352 -0.7104055
-0.43260118 -1.1575267 0.39525923 1.0205706 0.25111654 -0.7717955 -0.36332503 0.44913334
-0.7919778 0.35418263 0.0580453 0.33770698 -0.22156644 -0.74843067

thirdFC.bias f4 [7]
00000000: dfed babe a1e2 3c3e 2405 013f 571f 1b3e
00000010: ec92 563f 7ca4 543f 45c9 12bd
-0.36509606 0.18445827 0.5039847 0.15148674 0.83817935 0.83063483 -0.035836477

lastFC.weight f4 [3, 7]
00000000: 77fc 10bf 2078 7cbf 59b1 5340 3401 7140
00000010: e49d 7fc0 4a67 79c0 3b09 883f 943f 9f3e
00000020: a211 c4be 1010 dc3f 1511 ba3e b238 873f
00000030: a9ff 9a3f 2d80 15bf cdf6 cb3d ae9c 9a3f
00000040: 62d6 a4c0 a555 86c0 f17a 2640 fcef 3940
00000050: 589a 71bf
-0.5663523 -0.98620796 3.3076994 3.7656984 -3.9940119 -3.8969293 1.0627817 0.31103194
-0.38294703 1.7192402 0.36341158 1.0564177 1.2109271 -0.58398706 0.09959183 1.2079065
-5.15117 -4.1979547 2.6012537 2.9052725 -0.94376135

lastFC.bias f4 [3]
00000000: 703f 69bf 5752 b3bc 5d3a 2f3f
-0.9111242 -0.021889849 0.6844843
