numbers_model.pth (torch, 20309 bytes, 24 tensors)

conv1.weight f4 [6, 1, 3, 3]
00000000: 6af2 a2be 895b 32bf 1c71 45bf 1932 423f
00000010: bc95 9d3e 2b7c 3fbf 6667 ddbf 19de a53f
00000020: 09b6 c33f 6088 7dbe 130a 163f 76c6 9f3e
00000030: a460 9e3e 8cb5 2abf da38 5e3c d935 b53e
00000040: bced e5be 0634 88bc b0ce 933f ca71 943f
00000050: 4bc0 5b3f c260 b0be 1b6e 90bf 9c1c 5ebe
00000060: ab64 64bf 0f35 babf a5ab 34bf 9231 543e
00000070: b2d0 9abf 66e5 80bf d402 aa3e 022a 69bf
00000080: aeb9 e4be dc32 503e 3b3a 563f f6f0 5d3f
00000090: 470a 253f 35c3 463f 3d47 6fbe c1a1 f53e
000000a0: 884a eb3e 4b9d 8ebf b76d 0a3f 6b98 d73e
000000b0: 180a a33d 9977 3bbd 926f a8bf 955b 4abf
000000c0: d8c9 edbd 6589 13bf 095a e53e ee3d a5be
000000d0: 51f3 013f 48be 8d3f
-0.31825572 -0.6967092 -0.77125716 0.7585769 0.307783 -0.7479884 -1.729718 1.2958404
1.5289928 -0.24759054 0.5860912 0.312061 0.30933106 -0.6668327 0.013563359 0.35392645
-0.4490794 -0.01662637 1.1547451 1.1597226 0.8584029 -0.3444882 -1.1283602 -0.21690601
-0.8921611 -1.4547442 -0.7057441 0.20722035 -1.2094939 -1.0070007 0.33205283 -0.91079724
-0.44672912 0.20331901 0.836826 0.866958 0.64468807 0.7764161 -0.23367019 0.4797497
0.459553 -1.1141752 0.5407366 0.42108473 0.079609096 -0.045768354 -1.3159049 -0.79045993
-0.11610764 -0.5763152 0.44795254 -0.3227381 0.50761896 1.1073694

conv1.bias f4 [6]
00000000: 91b5 513e c55a 83be 0014 933e 11eb b5be
00000010: ee47 90be 3c31 403e
0.20479418 -0.2565519 0.28726196 -0.35530904 -0.28179878 0.18768781

conv2.weight f4 [24, 6, 3, 3]
00000000: 9b54 c83d abe7 c13e 7944 febd 3dd8 e2be
00000010: c844 25be 3f7f e9be ffc7 6c3e f595 55ba
00000020: ee48 2cbf d49f 32bd f2ee 833c 3533 91bd
00000030: 4d6f 333e 58f7 61be 4a31 c7bc cde6 d0bd
00000040: 807e 71be 6ce3 3e3d 71bd 94bd 5c10 483e
00000050: 87ff ddbe 5ecf 783e 6c86 093e 35a8 0b3b
00000060: e4fb 18bf 6501 2cbf 700a 69bd c00c e0be
00000070: 8ccd 66be dec3 9a3e 6e35 89be 7a9c 05be
00000080: 230f 8d3e 031e d5be e328 84be 3ebd aebd
00000090: 0f6d 09bf bd28 01be f9e8 4bbe 8e03 55be
000000a0: 4360 3dbe e4b9 223c 6273 d8be 4a20 f6bd
000000b0: 5731 503d 4d41 8cbe aa2e e5bc 2ebd d4bd
000000c0: ad33 fcbe b751 84bd 9ec8 c2b9 b5d7 cbbd
000000d0: 286f 323c 8a32 633c c903 903d f5b6 1b3f
000000e0: 4677 2c3f debe e53d bb35 8c3e dcae 76be
000000f0: 7400 7dbf 3f47 44bf 62d5 84be 8bf1 86bd
00000100: 6d06 cdbd a39a 0bbb 6a44 3dbd 3953 933d
00000110: 8d3a 8bbe 6e87 963e dfe8 4b3e ffbd 0f3e
00000120: efae 87be afb0 e5be ab1e cd3d 3d79 d9bd
00000130: 593f d73c 888b e0bd 8c20 623e c604 473f
00000140: 892d 3b3f bb60 9b3c f8df 58bf e653 c73e
00000150: bfde 59be 033c c3bd 8d49 b9be 3e6f 54be
00000160: 422f 2fbe 4f18 11bf 44e6 9ebe db2b 59be
00000170: 9eb0 4c3f 3b98 8abe d325 aabe a155 a13e
00000180: 7659 e1bd 46ef adbe 0c22 cebe fd40 313e
00000190: 67b8 0dbe f68c 50be c658 f8bd 37ac 84be
000001a0: c34b 8abe 7f4c a7bd a85a 503c 7904 85be
000001b0: ed3b 34bf 11e4 be3e 055f c83e a6df c9bc
000001c0: 2d94 383e fd36 0e3d 1d87 a33e abef 8bbd
000001d0: b884 c5be 3343 afba 9679 1a3d 6abd 3cbd
000001e0: 90b6 b0bd 4709 90bd 6be9 47be 93fa 3ebd
000001f0: 376b 57bd f923 9f3d 8672 c5be fc4d 14be
00000200: 78fe 1ebf f440 7fbd 88fc 9fbe 14b6 a6be
00000210: a01b a1be 2ff9 d6be ca31 143d 1063 c93d
00000220: d0e2 0a3f 6e70 853e c528 023f 184c 843e
00000230: 382c 10bd 6ea4 343e ab5f 81be 0b6b 4ebe
00000240: db34 21bc 8683 53be c04f febe 705f 383e
00000250: e02c 0bbf 482d 98be 224f d9be 6f09 e5be
00000260: 1011 cb3e 2ef7 47be 76bb 023f f8eb 623e
00000270: 471d 853e f21b 2a3f d489 013e 7899 eb3e
00000280: 47af c13d cd86 9cbd 1093 443e b8f2 513f
00000290: fecd 1c3c e2a9 24bf 96a1 f63d 71dd 09bf
000002a0: 9875 b1be 8748 70be c10c 50bf e5c5 44be
000002b0: e650 f5bd 8954 1d3e 0e6f 173e a7d4 32bd
000002c0: 88d7 b1bc 8230 063a 8e60 5ebd db18 33be
000002d0: d73d 81bd 82a8 96be bb0d 0ebf a4af 953e
000002e0: 80a0 873e a25a b3bd 69af 8abe 16bc afbe
000002f0: 4bf9 223d 0c24 c2bb f0c9 e83e 725b d73e
00000300: 0445 903c eec6 563d ac9e a33e f2c4 37be
00000310: bf08 8bbd 77d7 32be 64a5 aa3b 4b38 8f3e
00000320: 3d26 fabc 645f 443d cf81 873e 1d64 883e
00000330: 3ccc bdbd 87c9 cb3e 9114 b73e 779e 07bc
00000340: 27ed 71ba 33bc ccbd 3b82 4bbe e255 53bd
00000350: 8cb8 91bc 84a2 be3d 2810 033e 88e2 503b
00000360: d2ec 3abd 1dcf a6be 3cdf 65be d16b 10be
00000370: 1b5c 49be b613 41bd 4274 47bd b0d6 abbe
00000380: e3a2 e6be 3663 913d 55ab f23d 098c b53d
00000390: 3a2f c43d c5a5 28be fb3f cbbd 8cf7 1a3d
000003a0: 6ee1 19bd 5811 b4bc 62fe 4fbd 67bc c33e
000003b0: e7b3 153f 782a 6c3e 6585 4fbe b11a d1bd
000003c0: 6e54 7cbd 4161 7fbe ea93 083e 11a2 98be
000003d0: 5b29 4ebd 47cd 5f3b 4813 2abe e8bd 593d
000003e0: fb41 34bd dc4f 62be ea74 03bc 2db8 443d
000003f0: 08c0 16be 1625 163d 147d d93d d5ac 6cbe
0.09781762 0.3787206 -0.12415404 -0.44305602 -0.16139519 -0.45604894 0.23123167 -0.00081476505
-0.6729878 -0.043609455 0.016105149 -0.07089845 0.17522927 -0.2206701 -0.024315495 -0.10200272
-0.23583412 0.046603605 -0.072626956 0.1953749 -0.43359014 0.24297854 0.13430184 0.0021309976
-0.59759355 -0.6718963 -0.05689472 -0.43759727 -0.22539347 0.3022756 -0.26798576 -0.13047972
0.2755061 -0.4162446 -0.25812444 -0.08532189 -0.53682035 -0.12613197 -0.19913091 -0.20802137
-0.18493752 0.009932015 -0.4227553 -0.120178774 0.050828304 -0.2739357 -0.027976353 -0.10387646
-0.49258175 -0.06460898 -0.00037152035 -0.09953252 0.0108907595 0.01386703 0.07031972 0.60826045
0.67369497 0.11218046 0.27384743 -0.24090141 -0.98828816 -0.7667121 -0.25944048 -0.065890394
-0.10010991 -0.0021301887 -0.046207823 0.07193608 -0.27193108 0.294002 0.19913052 0.14037322
-0.2650065 -0.4486136 0.10015615 -0.106188275 0.026275324 -0.109641135 0.22082728 0.7774166
0.73116356 0.018967023 -0.8471675 0.38931197 -0.21276377 -0.09532931 -0.36188927 -0.2074556
-0.17107871 -0.56677717 -0.31035054 -0.21208136 0.79956996 -0.27069268 -0.33231983 0.31510642
-0.110033914 -0.33971614 -0.4026035 0.17309947 -0.13839875 -0.20366272 -0.12126307 -0.2591264
-0.27010927 -0.08168887 0.012716927 -0.25979975 -0.7040394 0.37283376 0.39134994 -0.024642777
0.18025275 0.03472041 0.3193902 -0.068328224 -0.3857782 -0.0013371467 0.03771361 -0.046079077
-0.08628571 -0.070330195 -0.19522636 -0.046625685 -0.052592482 0.07770533 -0.38563937 -0.14482874
-0.6210704 -0.062317804 -0.31247354 -0.3256079 -0.3146639 -0.41986987 0.036180295 0.09833348
0.5425234 0.2606234 0.5084346 0.25839305 -0.03519842 0.1764085 -0.252683 -0.20158021
-0.009839262 -0.20655641 -0.4967022 0.18005157 -0.5436535 -0.29722047 -0.42443186 -0.4473376
0.39661455 -0.19527885 0.5106729 0.22160327 0.259989 0.6644889 0.12650234 0.46015525
0.094572596 -0.07642899 0.19196725 0.82010984 0.009570597 -0.6432172 0.12042539 -0.5385352
-0.3466003 -0.23465167 -0.8126946 -0.19216116 -0.11978321 0.15364279 0.14788458 -0.043659832
-0.021709219 0.00051189226 -0.0542913 -0.1748995 -0.06310623 -0.29425436 -0.554897 0.29235566
0.2648964 -0.08757521 -0.27086952 -0.34323186 0.039788526 -0.0059247073 0.45466566 0.42061955
0.017611034 0.052435808 0.31956995 -0.17946222 -0.067887776 -0.17465006 0.0052077044 0.27972636
-0.030535812 0.047942534 0.26466224 0.2663888 -0.0926747 0.3980219 0.35757878 -0.008277527
-0.0009228759 -0.09996834 -0.19873898 -0.051595576 -0.017788194 0.09308341 0.12799132 0.0031873304
-0.045636006 -0.3257989 -0.22448438 -0.14103629 -0.19664042 -0.04713794 -0.048694856 -0.3356223
-0.45046148 0.07099001 0.11849085 0.088646 0.0957932 -0.16469486 -0.09924313 0.037833735
-0.037568502 -0.021980926 -0.050779708 0.38229677 0.58477634 0.23063076 -0.2026573 -0.10210169
-0.061603956 -0.24939443 0.13337675 -0.29811147 -0.05033241 0.0034149454 -0.16608918 0.053159624
-0.044008236 -0.22100776 -0.00802348 0.048027206 -0.14721692 0.03665646 0.1061956 -0.23112805

conv2.bias f4 [24]
00000000: 86a8 e83c 40d8 1dbe 130c d0bc 01f5 44bd
00000010: 4741 003e 9190 ebbd c48b 0a3d 0060 363c
00000020: 10c1 08be 0371 50bd 8082 8abd cb26 b3bd
00000030: 9228 09bc 5ac0 fd3c b3d0 d33d a557 063e
00000040: bec5 afbd bdbb 8cbc 1f03 65bd 5a36 20be
00000050: 98a0 10be b9e9 1c3d 4bf2 293c 1ca1 e33d
0.02840067 -0.15414524 -0.025396382 -0.048085216 0.12524901 -0.11502183 0.033824697 0.011131287
-0.13354897 -0.050889026 -0.06763172 -0.087476335 -0.008371489 0.03097551 0.103425406 0.13119371
-0.08582638 -0.017179364 -0.05591118 -0.15645733 -0.14123762 0.038308833 0.010372709 0.111147135

FC1.weight f4 [20, 96]
00000000: bb4b 44bd e020 edbd 2db2 56be e6c8 7a3e
00000010: 8a58 01bf b743 733d 1333 b3be db6f 4fbe
00000020: 4e48 013f f672 ea3e d541 aa3d 6b81 083c
00000030: 98a6 5b3d ff3f 573e e8ff 96be 9a34 a53a
00000040: e587 b8bd 9a70 7dbe 826f 5fbe 5ff4 423e
00000050: cc64 d9bd 9c68 c83e 2968 273c 9742 64bc
00000060: d5e4 d2bd e334 213e 9f2b 99bd 2bcd 4bbe
00000070: c1b7 a2be 7807 873d 2d7b babe dee0 a03d
00000080: 96e2 bd3d 6cd8 0a3b 7b21 0c3e 5a2c dc3e
00000090: 3b2a 553d dfe8 d63d 866c 733d b09a 6d3c
000000a0: 0894 a43e ccc4 a7bd 0560 84be ff1c 8d3e
000000b0: 51ba 913c 7d4d f43d e624 a23e 18fb 303e
000000c0: 0aa9 97bc 3456 c83c b88b bf3d b963 863d
000000d0: 1b9b 943e 0d75 2e3e b8df a83c 1702 213e
000000e0: c369 0fbe 1bb3 513e 8925 b7bd 1e58 c9bd
000000f0: 0e72 073e 691f 183d e55b 9c3d 1498 dcbd
00000100: e51a efbd 40df 813a 777f 6b3e a115 4a3d
00000110: 665c 3dbd cfed 0ebe 8559 f43c 7f50 0a3c
00000120: 0d0c d9be 5600 633e df76 2a3e 03ca e3be
00000130: a671 28be d4b3 e6bd 9721 f63d 2b05 713e
00000140: a6fb 3fbc 200a 04bc 564b 2c3e 88b9 943e
00000150: ec08 2cbe 38f0 2a3f 392b 183f 777f 84bd
00000160: cb23 dcbd 3af4 e5bd cd84 0fbe 47ee 20be
00000170: 4798 8fbe d5fd 753d 461a 14be e5c7 3abe
00000180: be95 413c 3528 fabd cb17 7f3d af83 06bd
00000190: 1f80 663d 8ca7 253c aeb4 d53c a31b bebd
000001a0: b876 8abd 6ec6 75bb 2a1c 2cbc 2829 9dbd
000001b0: 0812 10bd 1015 c3bc ada1 75bd 9fd9 943d
000001c0: ff8d fabc 40a9 c2bc 4190 013c 2bd6 073d
000001d0: 7fff 4d3d 60bd 73bd 50ec bebd 90f7 ae3d
000001e0: 5c31 923d 2e0b 13bd 4d7f b73c 8fb7 4abd
000001f0: 90ae f2bc 5ec8 babd 3100 37bd 264e d1bd
00000200: 781b 2fbd 3718 1ebd 05ed 96bc e84d f1bc
00000210: 2f2f f13c 1578 8fbd 7bda 1c3d 52c4 453d
00000220: 72f3 e3bd 4d4b 96bd f1a6 56bc 25ce a13d
00000230: f205 523d 7007 103c 582d d7bd 576c 84bd
00000240: 344f 49bc eaba c03d 0933 39bd 707d dbbc
00000250: 4407 73bd cf26 a4bc d6e1 343d 4afe 56bd
00000260: 0b49 5f3d b13a a73d f9ba a7bd 2c7c 92bd
00000270: 4d81 babd 657d 0e3b 8254 a33d 82a3 cb3c
00000280: 654d 2ebd 6ebc 74bc 88bc ba3c 7242 8c3d
00000290: e687 7dbc 162c 0e3d 7b20 09bd 0a29 80bd
000002a0: 8e7e daba f18e 5b3d 53a5 17bd f509 65bd
000002b0: fcd5 d1bd 1f79 fb3b 806f 3b3d 7be9 f5bc
000002c0: 712d 133c 73d0 c1bd d47f 5d3d 66f5 803d
000002d0: 5a07 0fbd cf9f ddbd d6f5 663d f9ce dabd
000002e0: 4789 9e3d ee13 2bbd 4b56 5a3c 039b 9bbc
000002f0: bf75 c1bd 45a8 cabb 1df5 eebc 732e 97bd
00000300: 5255 af3d a892 89bd 5f82 74bd b647 aebd
00000310: bc7f 4a3d 103c a5bd 7793 19bd d79f cb3b
00000320: 3719 b93d 7de7 3c3a bdcd 46bd 693f ee3c
00000330: 0a5c 47bd 5cdb 97bd f274 8ebd 770e 7339
00000340: 7ba1 debd fda3 51bc 476b 17bd 7161 363d
00000350: 8e58 813d b131 73bd ddef e23d 4d52 7d3d
00000360: cfae c1bd 1ed6 d73b 39d1 a43d bc0d f8bc
00000370: a69d 7fbd a01b 46bd 2e68 f1bd 0b64 aebd
00000380: b4a5 babd 3f18 8cbc 877c ffbb 5dc9 bebd
00000390: 639d aa3d 7197 5abd ce2a 0d3d ce12 7ebd
000003a0: 8fe1 a5bd dca9 9ebd 884e c4bd 1f41 eabc
000003b0: 72c4 4c3d ebea 9dbd bc5a 3cbd e1e7 e8bd
000003c0: e4cc 5b3c 8098 c33a 50ce 9cbd 9011 c43c
000003d0: e748 38bd 0852 b53d cbd0 b7bc bd63 ed3d
000003e0: 44a1 a3bd 83b9 aebd 8526 8b3c beaa 063d
000003f0: 9754 40bd 43e5 ae3d b212 bb3c c0c3 8dbd
-0.047923785 -0.11578536 -0.20966406 0.24490699 -0.50525725 0.05939075 -0.34999904 -0.20257513
0.50500953 0.45790833 0.08313338 0.008331637 0.053625673 0.21020506 -0.29492116 0.0012604177
-0.09010295 -0.24749985 -0.2181988 0.19038533 -0.106149286 0.3914231 0.010217705 -0.013931892
-0.102975525 0.15742831 -0.07479023 -0.19902484 -0.31780818 0.065932214 -0.364221 0.0785539
0.092717335 0.0021186126 0.13684647 0.43002588 0.052042227 0.104936354 0.059429668 0.014502212
0.3214419 -0.08191833 -0.25854507 0.27561185 0.017789038 0.11928842 0.31668776 0.17283285
-0.018513221 0.024455167 0.09352821 0.06561989 0.29024586 0.17036839 0.02061449 0.15723453
-0.14005189 0.2047848 -0.08942706 -0.0983126 0.13227102 0.03713933 0.07634715 -0.10771194
-0.116750516 0.0009908453 0.22997843 0.049337033 -0.046230696 -0.13957904 0.029827842 0.008442043
-0.42392007 0.22168097 0.16646908 -0.4449006 -0.16449603 -0.11264768 0.120181255 0.23537128
-0.0117177125 -0.008059055 0.16825613 0.290478 -0.16800278 0.66772795 0.5944095 -0.064696245
-0.107490145 -0.11228223 -0.14015503 -0.15715896 -0.28045866 0.060056526 -0.14463148 -0.18240316
0.0118154865 -0.122147 0.06227855 -0.032840427 0.05627453 0.010110747 0.026087131 -0.09282615
-0.06760925 -0.0037502307 -0.010504762 -0.076738656 -0.035173446 -0.023813754 -0.05996864 0.072680704
-0.030585287 -0.023762345 0.007907928 0.03316323 0.05029249 -0.059506774 -0.09322417 0.085433125
0.07138321 -0.035899334 0.022399569 -0.04949146 -0.029624254 -0.09120248 -0.044677917 -0.10219984
-0.042750806 -0.03859731 -0.018423567 -0.029456094 0.029441444 -0.07005326 0.038294297 0.04828293
-0.11130418 -0.07338581 -0.013101325 0.07900647 0.0512752 0.008790836 -0.105066955 -0.06465977
-0.01228695 0.09410651 -0.045214687 -0.026793212 -0.0593331 -0.020038037 0.044160686 -0.052488603
0.05451302 0.08165491 -0.08189959 -0.0715259 -0.091066934 0.0021742221 0.07975103 0.02485824
-0.042554278 -0.014937503 0.022794977 0.06848611 -0.015474295 0.034710012 -0.03347824 -0.062578276
-0.0016669796 0.053603116 -0.0370229 -0.0559177 -0.102458924 0.007674351 0.04576063 -0.030018559
0.008983002 -0.09463587 0.054076985 0.06296806 -0.03491912 -0.10821497 0.05638679 -0.10684008
0.07741027 -0.041767053 0.013326238 -0.018994814 -0.094462864 -0.00618461 -0.029169613 -0.07381906
0.085611954 -0.067174256 -0.059694644 -0.085097715 0.049438223 -0.08068097 -0.03749415 0.0062141228
0.090380125 0.00072061253 -0.04853605 0.02908297 -0.04867176 -0.07414886 -0.06955899 0.00023179674
-0.10870644 -0.0127954455 -0.036967542 0.04452652 0.063157186 -0.05937356 0.110809065 0.061846066
-0.0945717 0.006586804 0.080477186 -0.030279987 -0.062406205 -0.04836619 -0.11787449 -0.085151754
-0.091136366 -0.017101405 -0.0077968272 -0.09315751 0.083308004 -0.053367082 0.03446465 -0.062029652
-0.080996625 -0.07747242 -0.09585291 -0.028595505 0.049992032 -0.07710823 -0.04598497 -0.113723524
0.013415549 0.0014922768 -0.076565385 0.023934156 -0.0449914 0.08853537 -0.022438427 0.11591289
-0.07989743 -0.08531477 0.016986141 0.032877676 -0.04695567 0.08539822 0.022836063 -0.06922102

FC1.bias f4 [20]
00000000: 6392 83bd 11fb d2bc 8ba3 a33d e129 923d
00000010: d39a 673d b8c0 8abd a0a0 a8bd cc56 b0bc
00000020: f58f 643d 9505 14bd a85e 773d 84eb a3bd
00000030: ca1b 82bc eaa8 6cbd f2ec b3bd b6fd b73d
00000040: d7e8 8f3d f614 763d 3ebc c0bd 3a07 48bd
-0.064244054 -0.025754483 0.07990178 0.07136894 0.056544136 -0.067750394 -0.08233762 -0.021525763
0.05580135 -0.036138136 0.060393006 -0.080039054 -0.015882391 -0.057778277 -0.08785428 0.089839384
0.070268326 0.060078584 -0.09410904 -0.048835017

FC2.weight f4 [12, 20]
00000000: 5d38 94bd bcb0 d73b f362 85bd cabc cfbe
00000010: 9e5f c4be 1d3d 8d3e 76e5 043f b74b 59be
00000020: 2c45 b73e 053a 74be 9740 733d 8e3c d13d
00000030: 4261 0f3e 4d47 bfbd f9f6 fdbc c502 453f
00000040: 82ff 3c3b 8e9f 133e 0de2 853f 1570 23bf
00000050: 2226 703f 2847 c5bd f40a ed3d 740e 13be
00000060: 643d b2be 53aa 58bf 6ace 763e 0dcb 773e
00000070: 6356 5bbe 8090 bc3d aece 91bc 302e 06bf
00000080: 1d62 eb3e 6124 3b3e a74a 2fbf d260 64be
00000090: 7f16 89bb 0b0c 2a3e ff70 68be 05bb 153d
000000a0: b8fe 65bd 01d3 513d 51ef fcbd 0b65 a0bd
000000b0: 9e5b 973f 8cbf e43e 63b9 a53d a628 743e
000000c0: c35e 40bf 3d7a c0be 9234 383d 49c0 3e3e
000000d0: 86b2 a93e d9c6 2b3e 58dc e13e 3c6b f7be
000000e0: d7ec 0b3e 2a81 2d3e 6fe4 afbe 5ceb 83bd
000000f0: c8ef 903d aae8 eb3b 4ed3 27be c2c4 863f
00000100: 222c 1abf c88a a3bf f651 f5be 36c9 083e
00000110: 9ffc 83be 7794 dabd 1a44 1bbe b27e 3dbf
00000120: 9ea6 d73e 5f60 003e d392 25bf e7ef 73be
00000130: 5ed3 083e e02c 24be 7c04 b4be 4638 083f
00000140: 475a 9ebe 6f90 563e 9638 203e 151f 2a3f
00000150: 172f a5be e6fb bf3f c312 93be f1ad ffbe
00000160: 4b9c 8dbc 928a 173f 1338 413e e0cc 093f
00000170: 5bdd 6ebe cc62 01bf 0066 1abf 70fc c9be
00000180: 521b f0bd 0e40 6a3d a2df bbbe 470a b03e
00000190: 871b d3be 0821 113d 92ae ec3c 403c 5cbe
000001a0: 0271 5a3f 5a64 66bf ac44 dcbe e5d6 edbe
000001b0: ba64 75be 6844 3bbf 74bb 443d 125e 8ebf
000001c0: 4393 a93e 5b98 d0be 6129 30be ac51 17bf
000001d0: 228e 21be 3ca2 21bd 99f7 f1bd a7d7 18bd
000001e0: 83d5 a4bd 804f 3fbe 4d4a 333e 463b acbe
000001f0: cd72 0cbe 7e01 413f 4369 48be 07d1 363f
00000200: 7cdb 853f dd3b b63e 1270 113e 1abc eb3e
00000210: e618 83be 4a3f af3e 430e b53e 3ae0 45bf
00000220: 2754 9d3d 61ea 0dbe d301 b9be 8dd1 f23e
00000230: e7fe 1bbe 69be 44be 7bd5 13be ccc9 923e
00000240: 5f3e 0b3f 7b65 21bf 9f5f ca3e 97fe adbd
00000250: cb79 9ebd 295e 8ebe e8b1 063d 448d 17be
00000260: f373 3d3c 6e68 69bd 61d8 debb 4e8f 533f
00000270: b1df 27be 9076 443e 3ec6 5d3f 3974 ba39
00000280: 1687 92be 97fb e4bd 9563 a6bc a07a eb3e
00000290: d5cd 97be 6549 b7be 6c8b c0be dfd1 493e
000002a0: e078 7bbe a3e4 8bbd 769f b83c fb36 fabe
000002b0: a07b 9dbd 884e 093e 2f63 3bbf 0de7 33bd
000002c0: 53fe febd 527e 33be ac01 cabd 751f f13e
000002d0: 1c62 fbbd 906a 9f3b 03ce 88bd ff86 92be
000002e0: 502d 80be 8a69 963f 5fc8 25b9 8379 bdbe
000002f0: 0995 9f3d 843b 7d3f b778 ccbd 9d39 bb3e
00000300: ef56 9cbc c6f1 a7be 1892 b8be 2c9c b2be
00000310: 2992 1dbd 6373 553e 0100 43be cdc4 8b3d
00000320: da94 6abe bf62 ba3d a204 31be 0876 c63e
00000330: 276f 3dbb e520 7bbe 7f96 623f 8232 4abd
00000340: 15af c33d 3df2 edbe a30c bfbd e821 7dbe
00000350: 7d5a e8be 5f30 eabd 5f94 94be a94a 61be
00000360: d311 683c c400 933d 1fab 2abf 7a18 a13d
00000370: 3543 1cbe 0f9b 62bd f4cc 41be 66c8 eabd
00000380: e5a4 e73d d1a5 ac3f 2ed9 013f 0098 c5bd
00000390: 55dc 173e 8020 4b3f dcee 3abe 4ca3 a63e
000003a0: 701f 32be d540 89bd 5a48 9bbd 19f2 73be
000003b0: 5e19 833c 94e1 33be 3bce 37be bbe4 d53d
-0.07237313 0.0065823477 -0.06513014 -0.40573722 -0.383542 0.27585688 0.5191263 -0.21220289
0.3579496 -0.23850258 0.05938777 0.10216628 0.14001945 -0.093397714 -0.031001555 0.7695735
0.0028838818 0.14416334 1.045961 -0.638429 0.93808186 -0.096327126 0.11574355 -0.14360982
-0.34812462 -0.84634894 0.24102178 0.24198551 -0.21419673 0.09207249 -0.017798748 -0.52414227
0.45973292 0.18275596 -0.68473285 -0.22302559 -0.00418359 0.16606157 -0.22699355 0.03655531
-0.05615112 0.05122662 -0.123503335 -0.078317724 1.1824834 0.4467739 0.08092 0.23843631
-0.75144595 -0.3759326 0.04497201 0.18628038 0.33144015 0.16775073 0.4411342 -0.48324
0.13664566 0.16943803 -0.34353969 -0.064413756 0.07076985 0.0071993666 -0.163892 1.0528796
-0.6022359 -1.2776728 -0.47914094 0.13358006 -0.25778672 -0.10672849 -0.15162697 -0.74021447
0.42119306 0.12536763 -0.6467716 -0.23821984 0.1336188 -0.16032743 -0.3515967 0.53210866
-0.3092825 0.20953535 0.15646586 0.6645368 -0.3226249 1.4998748 -0.28725252 -0.49937394
-0.01728644 0.59195817 0.18869047 0.5382824 -0.23326628 -0.5054138 -0.6031189 -0.39450407
-0.11723961 0.057189994 -0.36694056 0.3438284 -0.4123194 0.03543189 0.028891835 -0.21507359
0.85328686 -0.89996874 -0.43021142 -0.46453014 -0.23964205 -0.73151255 0.04803033 -1.1122458
0.33120164 -0.40741238 -0.17203285 -0.59108996 -0.15776876 -0.03946136 -0.11814804 -0.037315037
-0.08048537 -0.1868267 0.17508812 -0.33638972 -0.13715668 0.753929 -0.19571404 0.714127
1.0457606 0.35592547 0.14202908 0.46041948 -0.25604934 0.34227973 0.35362443 -0.7729527
0.076820664 -0.1385894 -0.36134204 0.474255 -0.15233956 -0.1921326 -0.14436905 0.28669584
0.54392046 -0.6304547 0.39526078 -0.08495825 -0.07738074 -0.27806213 0.03288451 -0.14799982
0.011563289 -0.056984358 -0.0068006967 0.8264054 -0.16393925 0.19185853 0.8663062 0.00035563277
-0.28618687 -0.111807995 -0.020311156 0.45991993 -0.29649225 -0.35798183 -0.3760637 0.19708966
-0.24557829 -0.06830718 0.022536974 -0.48870072 -0.07689595 0.13408864 -0.7319822 -0.04392152
-0.12450852 -0.17528656 -0.098636 0.47094312 -0.12274572 0.004864998 -0.066799186 -0.2861862
-0.2503457 1.1750958 -0.0001581027 -0.3700677 0.07792098 0.9891894 -0.09983962 0.36567393
-0.019084422 -0.32801646 -0.3604896 -0.34884775 -0.038469467 0.20844798 -0.1904297 0.06824646
-0.22908345 0.091008656 -0.17286924 0.38761926 -0.0028905363 -0.24524267 0.8851089 -0.049364574
0.095548786 -0.46473876 -0.09328582 -0.24719965 -0.45381537 -0.11435007 -0.29019448 -0.22001137
0.014164406 0.071778804 -0.6666736 0.07865997 -0.15260012 -0.055323657 -0.1892584 -0.11464004
0.11310748 1.3488103 0.50722015 -0.09648132 0.14830144 0.79346466 -0.1825518 0.3254646
-0.17394805 -0.06701819 -0.07582159 -0.23822822 0.016003307 -0.1756652 -0.17949764 0.104440175

FC2.bias f4 [12]
00000000: f341 63be 0d3d 533e 330f 38bd 1908 193e
00000010: 726d 54bd 9d9e 26bc d100 9c3e f167 5f3e
00000020: f3f2 b93a 3d73 31bc e1b9 11be 4248 2e3e
-0.22193126 0.20628758 -0.04493637 0.14944495 -0.051862188 -0.010169652 0.30469373 0.21816994
0.0014186784 -0.010830698 -0.14231063 0.17019752

FC3.weight f4 [12, 12]
00000000: 8c8e 303f dcab e33e d131 5a3e a22d 22bf
00000010: 6abb 12bf 4762 7a3d 564f 24bf 2018 433f
00000020: a963 dcbd 0739 3bbe 7029 cd3e c1e2 093e
00000030: e106 0dbe 9c36 09be 23d6 2abe b38b eabd
00000040: 5ed9 d63c b37f 89be 7ed4 30bd f5aa 2fbe
00000050: 8b07 533e 40c4 673d 8b83 77be f815 303e
00000060: d582 2c3f 84c8 c53e c363 e13e f00d 0dbe
00000070: 6183 d83f a1fe 69bf e8a9 833f de53 32bf
00000080: 537e 38be c2d1 f63f dc68 c43e 5444 b23f
00000090: b45e 96be a3df 04bf 51b7 ffbd ca77 343f
000000a0: fae2 0f3f b817 9c3e 4bea 3fbf 3611 5cbe
000000b0: 1601 7e3e 332f fa3d cb92 4c3d 6d64 c5be
000000c0: 247e 21bf 4cd8 00bf 9e8b 6c3f 3086 8cbe
000000d0: f2f2 25bd b3f6 983f 573d 23be 05a5 213e
000000e0: 8cb6 18be 9602 9abe bfba cfbe 83b5 18be
000000f0: 0c43 8e3e de03 46bc 4296 a1be 0ba0 863e
00000100: fb60 d1bd 39ad 83be 37b1 e53d 6141 69be
00000110: c1b4 bdbb 1a8d 773e ada6 08be 6893 5d3e
00000120: 0e2b 03bf 189b bc3d a532 dabe dbf6 3b3d
00000130: a5d3 333e 41cd 59bf 062c 98bd 9a5f 9e3c
00000140: f88a f63c 429c 71be 8bcb 5f3f 74a7 1e3d
00000150: 39fb 95be 4675 033f 909d b2be 93ba 803e
00000160: e499 45be fef7 b93e 9116 58be fc08 fabe
00000170: 2151 11bd a8b9 92bd 746d 9cbe 9830 9abe
00000180: 905f 8fbe 1aec 633e 1234 c03d 4309 1bbe
00000190: 0ee5 24bf a0a2 6cbe f1cb a73e 7d23 06bf
000001a0: 99f5 5cba c616 0abf 55c3 aa3e 7bd4 bbbe
000001b0: 08ca 20bf 25be b43e 8502 3cbf 20e2 2f3f
000001c0: 4425 1bbf 325f 633e a786 8abc 6f88 83be
000001d0: dbaf 523f 3797 ebbe 0505 0cbe f8fa 15bf
000001e0: 57e1 183f 6d6e 1bbe 7169 05bf 2e53 c13e
000001f0: c13f 48be 62ac ccbd 05fa a7be 3e59 183f
00000200: 527c 943e 3ed7 e5be 9e12 48be b47a d2be
00000210: 7821 7fbe 93ad 183f 20c2 133d eea3 56be
00000220: 8527 4bbe 4ae5 943d 56c6 99be 3ef8 55be
00000230: e278 90be a705 cbbd 9390 413e 5417 03be
0.6896751 0.44467056 0.21308066 -0.6335088 -0.5731722 0.06112888 -0.6418356 0.76208687
-0.10761196 -0.18283473 0.40070677 0.13465406 -0.13772155 -0.13399738 -0.16683249 -0.11452427
0.026226696 -0.2685524 -0.0431714 -0.17155059 0.20608346 0.056583643 -0.24171273 0.1719588
0.67387134 0.38629544 0.44021425 -0.13774848 1.6915094 -0.9140416 1.0286226 -0.6965922
-0.18016939 1.9282763 0.3836125 1.3927102 -0.29369128 -0.5190374 -0.12486137 0.70495284
0.56205714 0.30486846 -0.7496688 -0.2149094 0.24805102 0.12216034 0.04994468 -0.3855318
-0.630831 -0.5033004 0.9240054 -0.27446127 -0.040514894 1.1950287 -0.15941368 0.15785606
-0.14913386 -0.30080098 -0.40572163 -0.14912991 0.27785528 -0.012085883 -0.3155995 0.26293978
-0.10223576 -0.25718096 0.11215442 -0.22778846 -0.00578937 0.2417492 -0.13344832 0.21638262
-0.5123757 0.09209269 -0.42616764 0.045889717 0.17561205 -0.8507882 -0.07430272 0.019332696
0.030095562 -0.23594764 0.87419957 0.038733914 -0.2929323 0.5135082 -0.34885836 0.25142345
-0.19296986 0.36322016 -0.21102358 -0.4883498 -0.03547776 -0.07164317 -0.30552256 -0.301152
-0.28002596 0.22258034 0.093849316 -0.15140252 -0.6441201 -0.23108912 0.32772782 -0.523979
-0.0008428931 -0.53941 0.33352152 -0.36685547 -0.62808275 0.3530132 -0.73441344 0.68704414
-0.6060374 0.22204283 -0.01690991 -0.25690028 0.82299584 -0.46013805 -0.1367379 -0.5858607
0.5971884 -0.15178843 -0.52114016 0.37758774 -0.1955557 -0.09993817 -0.32807937 0.5951117
0.290011 -0.4489078 -0.19538352 -0.4110924 -0.24915111 0.59639853 0.036073804 -0.20960972
-0.19839294 0.07270296 -0.3003413 -0.20895478 -0.28217226 -0.099131875 0.18902807 -0.12801868

FC3.bias f4 [12]
00000000: 1e6a 87bb 50d9 733e 0452 02bd d963 7d3e
00000010: 6543 7f3e 56f2 1bbe 06a3 833e c135 72bd
00000020: e62e e53e 0c6b 06bd 2a13 8f3c 097d 183d
-0.004132523 0.23813367 -0.031816497 0.2474512 0.24928053 -0.15229163 0.25710315 -0.059133295
0.44762343 -0.03281693 0.017465193 0.037228618

out.weight f4 [10, 12]
00000000: 7dd5 3e3e 0962 603e 9f75 2c40 16a5 003f
00000010: 8609 1d3f 9d18 003f 0b97 98be d2ad d23e
00000020: f2b4 94be 1143 343d 3333 5fbe cb8f 863e
00000030: 994a 92be 2627 663d 4053 14be dcc1 31bf
00000040: 513a ebbe 813d 753e b3c4 a9bc d62b 57be
00000050: 29a6 c73d 46a4 163f 645c 673e e680 e7be
00000060: 199b 86be 9376 5a3e a557 893e aadd 7fbf
00000070: 7045 2d3e 7f41 6a3d e8f0 07bf da29 78be
00000080: 0255 323f dd4e f8bd bc82 b9be 5440 c2bc
00000090: 0156 e03e 41e3 fc3d 9097 923e 492d 18bf
000000a0: dbc1 853d 2b51 6dbe ae4d 363f 864a 0bbe
000000b0: e856 463e 3e25 76bd 141c c7be 0e49 c33e
000000c0: 1abd a6be 517b 083e 66eb 28be 678d cd3e
000000d0: 71db 2abf 8c5e 8d3e 6f5a 2dbf f8dd 043f
000000e0: 165b bebe 0968 0f3f ce18 5cbd 71aa e33d
000000f0: 6531 903f 12cf 1b3e 8d4c b4be c70e d7bd
00000100: c816 c6bd 263c 9bbc f9ba f43d f696 0cbe
00000110: 68ac 1fbf 8fa3 f7be 07fe 7c3f 6741 8abe
00000120: 8506 0cbf 0fd8 e6bd b571 07be 7eaa cd3e
00000130: ac62 58bf 7705 86be 7490 513f 692f b9bc
00000140: 0ed5 e3be 9240 ca3d f5a3 a93d 4604 f2bd
00000150: eb9b 9f3e 8cf5 cc3d 2f5b 8bbf cda6 e73e
00000160: aa0e b33f b279 243e 5135 06be b775 6cbe
00000170: e7e5 9e3d c0ce 1fbf 714c da3d 3bc1 aabc
00000180: 7aa3 99bd a079 1c3e ae55 9bbf 7af8 243e
00000190: 7f68 663e 489c eb3d 55f5 73be eb95 d53e
000001a0: f1ef 1b3e cde0 283f b822 00be 936b ab3e
000001b0: 21fd e7be 2ec9 133e 8d3e a3be 70f8 d2bd
000001c0: 12f3 09be 551a c33d f545 a03e 17cf a93d
000001d0: d7dc f63e 80d1 13bf a631 073f 69f7 04be
0.18636127 0.21912397 2.694679 0.502519 0.61342657 0.50037557 -0.29802737 0.4114824
-0.290443 0.044009272 -0.21796875 0.2628158 -0.28572538 0.05618968 -0.14484882 -0.6943643
-0.4594293 0.23949243 -0.020723676 -0.21012816 0.097484894 0.5884441 0.22593838 -0.4521553
-0.26290205 0.21334295 0.2682468 -0.9994761 0.1692102 0.05719137 -0.5310197 -0.24234715
0.6966096 -0.12124417 -0.36232555 -0.023712315 0.43815616 0.12348033 0.28631258 -0.594441
0.065311156 -0.23175494 0.7121228 -0.13602647 0.1936909 -0.06009411 -0.3888861 0.38141674
-0.32566148 0.13328291 -0.16496047 0.40146944 -0.6674109 0.27611196 -0.67716116 0.519012
-0.37178868 0.5601812 -0.053734593 0.111164935 1.1265074 0.1521571 -0.35214654 -0.105008654
-0.09672314 -0.01894958 0.11949725 -0.13729462 -0.62372446 -0.48366973 0.98825115 -0.27003023
-0.5469745 -0.11271679 -0.1322697 0.40169138 -0.8452556 -0.26176044 0.8186104 -0.022605615
-0.44498485 0.09875597 0.082832254 -0.11817221 0.31173643 0.10007772 -1.0887202 0.45244446
1.398885 0.16062048 -0.13106276 -0.2309178 0.07758694 -0.6242485 0.10659111 -0.020844093
-0.07501884 0.15280771 -1.2135522 0.16110411 0.225008 0.11504418 -0.23824055 0.4171594
0.15228249 0.6596802 -0.12513244 0.3348051 -0.4531031 0.14432213 -0.3188366 -0.10301292
-0.1347163 0.09526507 0.31303373 0.082914524 0.48215362 -0.57741547 0.5281013 -0.12985004

out.bias f4 [10]
00000000: aef4 4dbe 2094 abbe 22cb c2be 425a 093d
00000010: c65c 1bbe a9b0 c43d 4a2e 02bf 5ca6 743e
00000020: 9330 9b3e 24c5 153f
-0.20112869 -0.33511448 -0.38045603 0.033533342 -0.15172109 0.09604008 -0.5085188 0.23891586
0.30310497 0.5850394

model.0.weight f4 [6, 1, 3, 3]
00000000: 6af2 a2be 895b 32bf 1c71 45bf 1932 423f
00000010: bc95 9d3e 2b7c 3fbf 6667 ddbf 19de a53f
00000020: 09b6 c33f 6088 7dbe 130a 163f 76c6 9f3e
00000030: a460 9e3e 8cb5 2abf da38 5e3c d935 b53e
00000040: bced e5be 0634 88bc b0ce 933f ca71 943f
00000050: 4bc0 5b3f c260 b0be 1b6e 90bf 9c1c 5ebe
00000060: ab64 64bf 0f35 babf a5ab 34bf 9231 543e
00000070: b2d0 9abf 66e5 80bf d402 aa3e 022a 69bf
00000080: aeb9 e4be dc32 503e 3b3a 563f f6f0 5d3f
00000090: 470a 253f 35c3 463f 3d47 6fbe c1a1 f53e
000000a0: 884a eb3e 4b9d 8ebf b76d 0a3f 6b98 d73e
000000b0: 180a a33d 9977 3bbd 926f a8bf 955b 4abf
000000c0: d8c9 edbd 6589 13bf 095a e53e ee3d a5be
000000d0: 51f3 013f 48be 8d3f
-0.31825572 -0.6967092 -0.77125716 0.7585769 0.307783 -0.7479884 -1.729718 1.2958404
1.5289928 -0.24759054 0.5860912 0.312061 0.30933106 -0.6668327 0.013563359 0.35392645
-0.4490794 -0.01662637 1.1547451 1.1597226 0.8584029 -0.3444882 -1.1283602 -0.21690601
-0.8921611 -1.4547442 -0.7057441 0.20722035 -1.2094939 -1.0070007 0.33205283 -0.91079724
-0.44672912 0.20331901 0.836826 0.866958 0.64468807 0.7764161 -0.23367019 0.4797497
0.459553 -1.1141752 0.5407366 0.42108473 0.079609096 -0.045768354 -1.3159049 -0.79045993
-0.11610764 -0.5763152 0.44795254 -0.3227381 0.50761896 1.1073694

model.0.bias f4 [6]
00000000: 91b5 513e c55a 83be 0014 933e 11eb b5be
00000010: ee47 90be 3c31 403e
0.20479418 -0.2565519 0.28726196 -0.35530904 -0.28179878 0.18768781

model.2.weight f4 [24, 6, 3, 3]
00000000: 9b54 c83d abe7 c13e 7944 febd 3dd8 e2be
00000010: c844 25be 3f7f e9be ffc7 6c3e f595 55ba
00000020: ee48 2cbf d49f 32bd f2ee 833c 3533 91bd
00000030: 4d6f 333e 58f7 61be 4a31 c7bc cde6 d0bd
00000040: 807e 71be 6ce3 3e3d 71bd 94bd 5c10 483e
00000050: 87ff ddbe 5ecf 783e 6c86 093e 35a8 0b3b
00000060: e4fb 18bf 6501 2cbf 700a 69bd c00c e0be
00000070: 8ccd 66be dec3 9a3e 6e35 89be 7a9c 05be
00000080: 230f 8d3e 031e d5be e328 84be 3ebd aebd
00000090: 0f6d 09bf bd28 01be f9e8 4bbe 8e03 55be
000000a0: 4360 3dbe e4b9 223c 6273 d8be 4a20 f6bd
000000b0: 5731 503d 4d41 8cbe aa2e e5bc 2ebd d4bd
000000c0: ad33 fcbe b751 84bd 9ec8 c2b9 b5d7 cbbd
000000d0: 286f 323c 8a32 633c c903 903d f5b6 1b3f
000000e0: 4677 2c3f debe e53d bb35 8c3e dcae 76be
000000f0: 7400 7dbf 3f47 44bf 62d5 84be 8bf1 86bd
00000100: 6d06 cdbd a39a 0bbb 6a44 3dbd 3953 933d
00000110: 8d3a 8bbe 6e87 963e dfe8 4b3e ffbd 0f3e
00000120: efae 87be afb0 e5be ab1e cd3d 3d79 d9bd
00000130: 593f d73c 888b e0bd 8c20 623e c604 473f
00000140: 892d 3b3f bb60 9b3c f8df 58bf e653 c73e
00000150: bfde 59be 033c c3bd 8d49 b9be 3e6f 54be
00000160: 422f 2fbe 4f18 11bf 44e6 9ebe db2b 59be
00000170: 9eb0 4c3f 3b98 8abe d325 aabe a155 a13e
00000180: 7659 e1bd 46ef adbe 0c22 cebe fd40 313e
00000190: 67b8 0dbe f68c 50be c658 f8bd 37ac 84be
000001a0: c34b 8abe 7f4c a7bd a85a 503c 7904 85be
000001b0: ed3b 34bf 11e4 be3e 055f c83e a6df c9bc
000001c0: 2d94 383e fd36 0e3d 1d87 a33e abef 8bbd
000001d0: b884 c5be 3343 afba 9679 1a3d 6abd 3cbd
000001e0: 90b6 b0bd 4709 90bd 6be9 47be 93fa 3ebd
000001f0: 376b 57bd f923 9f3d 8672 c5be fc4d 14be
00000200: 78fe 1ebf f440 7fbd 88fc 9fbe 14b6 a6be
00000210: a01b a1be 2ff9 d6be ca31 143d 1063 c93d
00000220: d0e2 0a3f 6e70 853e c528 023f 184c 843e
00000230: 382c 10bd 6ea4 343e ab5f 81be 0b6b 4ebe
00000240: db34 21bc 8683 53be c04f febe 705f 383e
00000250: e02c 0bbf 482d 98be 224f d9be 6f09 e5be
00000260: 1011 cb3e 2ef7 47be 76bb 023f f8eb 623e
00000270: 471d 853e f21b 2a3f d489 013e 7899 eb3e
00000280: 47af c13d cd86 9cbd 1093 443e b8f2 513f
00000290: fecd 1c3c e2a9 24bf 96a1 f63d 71dd 09bf
000002a0: 9875 b1be 8748 70be c10c 50bf e5c5 44be
000002b0: e650 f5bd 8954 1d3e 0e6f 173e a7d4 32bd
000002c0: 88d7 b1bc 8230 063a 8e60 5ebd db18 33be
000002d0: d73d 81bd 82a8 96be bb0d 0ebf a4af 953e
000002e0: 80a0 873e a25a b3bd 69af 8abe 16bc afbe
000002f0: 4bf9 223d 0c24 c2bb f0c9 e83e 725b d73e
00000300: 0445 903c eec6 563d ac9e a33e f2c4 37be
00000310: bf08 8bbd 77d7 32be 64a5 aa3b 4b38 8f3e
00000320: 3d26 fabc 645f 443d cf81 873e 1d64 883e
00000330: 3ccc bdbd 87c9 cb3e 9114 b73e 779e 07bc
00000340: 27ed 71ba 33bc ccbd 3b82 4bbe e255 53bd
00000350: 8cb8 91bc 84a2 be3d 2810 033e 88e2 503b
00000360: d2ec 3abd 1dcf a6be 3cdf 65be d16b 10be
00000370: 1b5c 49be b613 41bd 4274 47bd b0d6 abbe
00000380: e3a2 e6be 3663 913d 55ab f23d 098c b53d
00000390: 3a2f c43d c5a5 28be fb3f cbbd 8cf7 1a3d
000003a0: 6ee1 19bd 5811 b4bc 62fe 4fbd 67bc c33e
000003b0: e7b3 153f 782a 6c3e 6585 4fbe b11a d1bd
000003c0: 6e54 7cbd 4161 7fbe ea93 083e 11a2 98be
000003d0: 5b29 4ebd 47cd 5f3b 4813 2abe e8bd 593d
000003e0: fb41 34bd dc4f 62be ea74 03bc 2db8 443d
000003f0: 08c0 16be 1625 163d 147d d93d d5ac 6cbe
0.09781762 0.3787206 -0.12415404 -0.44305602 -0.16139519 -0.45604894 0.23123167 -0.00081476505
-0.6729878 -0.043609455 0.016105149 -0.07089845 0.17522927 -0.2206701 -0.024315495 -0.10200272
-0.23583412 0.046603605 -0.072626956 0.1953749 -0.43359014 0.24297854 0.13430184 0.0021309976
-0.59759355 -0.6718963 -0.05689472 -0.43759727 -0.22539347 0.3022756 -0.26798576 -0.13047972
0.2755061 -0.4162446 -0.25812444 -0.08532189 -0.53682035 -0.12613197 -0.19913091 -0.20802137
-0.18493752 0.009932015 -0.4227553 -0.120178774 0.050828304 -0.2739357 -0.027976353 -0.10387646
-0.49258175 -0.06460898 -0.00037152035 -0.09953252 0.0108907595 0.01386703 0.07031972 0.60826045
0.67369497 0.11218046 0.27384743 -0.24090141 -0.98828816 -0.7667121 -0.25944048 -0.065890394
-0.10010991 -0.0021301887 -0.046207823 0.07193608 -0.27193108 0.294002 0.19913052 0.14037322
-0.2650065 -0.4486136 0.10015615 -0.106188275 0.026275324 -0.109641135 0.22082728 0.7774166
0.73116356 0.018967023 -0.8471675 0.38931197 -0.21276377 -0.09532931 -0.36188927 -0.2074556
-0.17107871 -0.56677717 -0.31035054 -0.21208136 0.79956996 -0.27069268 -0.33231983 0.31510642
-0.110033914 -0.33971614 -0.4026035 0.17309947 -0.13839875 -0.20366272 -0.12126307 -0.2591264
-0.27010927 -0.08168887 0.012716927 -0.25979975 -0.7040394 0.37283376 0.39134994 -0.024642777
0.18025275 0.03472041 0.3193902 -0.068328224 -0.3857782 -0.0013371467 0.03771361 -0.046079077
-0.08628571 -0.070330195 -0.19522636 -0.046625685 -0.052592482 0.07770533 -0.38563937 -0.14482874
-0.6210704 -0.062317804 -0.31247354 -0.3256079 -0.3146639 -0.41986987 0.036180295 0.09833348
0.5425234 0.2606234 0.5084346 0.25839305 -0.03519842 0.1764085 -0.252683 -0.20158021
-0.009839262 -0.20655641 -0.4967022 0.18005157 -0.5436535 -0.29722047 -0.42443186 -0.4473376
0.39661455 -0.19527885 0.5106729 0.22160327 0.259989 0.6644889 0.12650234 0.46015525
0.094572596 -0.07642899 0.19196725 0.82010984 0.009570597 -0.6432172 0.12042539 -0.5385352
-0.3466003 -0.23465167 -0.8126946 -0.19216116 -0.11978321 0.15364279 0.14788458 -0.043659832
-0.021709219 0.00051189226 -0.0542913 -0.1748995 -0.06310623 -0.29425436 -0.554897 0.29235566
0.2648964 -0.08757521 -0.27086952 -0.34323186 0.039788526 -0.0059247073 0.45466566 0.42061955
0.017611034 0.052435808 0.31956995 -0.17946222 -0.067887776 -0.17465006 0.0052077044 0.27972636
-0.030535812 0.047942534 0.26466224 0.2663888 -0.0926747 0.3980219 0.35757878 -0.008277527
-0.0009228759 -0.09996834 -0.19873898 -0.051595576 -0.017788194 0.09308341 0.12799132 0.0031873304
-0.045636006 -0.3257989 -0.22448438 -0.14103629 -0.19664042 -0.04713794 -0.048694856 -0.3356223
-0.45046148 0.07099001 0.11849085 0.088646 0.0957932 -0.16469486 -0.09924313 0.037833735
-0.037568502 -0.021980926 -0.050779708 0.38229677 0.58477634 0.23063076 -0.2026573 -0.10210169
-0.061603956 -0.24939443 0.13337675 -0.29811147 -0.05033241 0.0034149454 -0.16608918 0.053159624
-0.044008236 -0.22100776 -0.00802348 0.048027206 -0.14721692 0.03665646 0.1061956 -0.23112805

model.2.bias f4 [24]
00000000: 86a8 e83c 40d8 1dbe 130c d0bc 01f5 44bd
00000010: 4741 003e 9190 ebbd c48b 0a3d 0060 363c
00000020: 10c1 08be 0371 50bd 8082 8abd cb26 b3bd
00000030: 9228 09bc 5ac0 fd3c b3d0 d33d a557 063e
00000040: bec5 afbd bdbb 8cbc 1f03 65bd 5a36 20be
00000050: 98a0 10be b9e9 1c3d 4bf2 293c 1ca1 e33d
0.02840067 -0.15414524 -0.025396382 -0.048085216 0.12524901 -0.11502183 0.033824697 0.011131287
-0.13354897 -0.050889026 -0.06763172 -0.087476335 -0.008371489 0.03097551 0.103425406 0.13119371
-0.08582638 -0.017179364 -0.05591118 -0.15645733 -0.14123762 0.038308833 0.010372709 0.111147135

model.7.weight f4 [20, 96]
00000000: bb4b 44bd e020 edbd 2db2 56be e6c8 7a3e
00000010: 8a58 01bf b743 733d 1333 b3be db6f 4fbe
00000020: 4e48 013f f672 ea3e d541 aa3d 6b81 083c
00000030: 98a6 5b3d ff3f 573e e8ff 96be 9a34 a53a
00000040: e587 b8bd 9a70 7dbe 826f 5fbe 5ff4 423e
00000050: cc64 d9bd 9c68 c83e 2968 273c 9742 64bc
00000060: d5e4 d2bd e334 213e 9f2b 99bd 2bcd 4bbe
00000070: c1b7 a2be 7807 873d 2d7b babe dee0 a03d
00000080: 96e2 bd3d 6cd8 0a3b 7b21 0c3e 5a2c dc3e
00000090: 3b2a 553d dfe8 d63d 866c 733d b09a 6d3c
000000a0: 0894 a43e ccc4 a7bd 0560 84be ff1c 8d3e
000000b0: 51ba 913c 7d4d f43d e624 a23e 18fb 303e
000000c0: 0aa9 97bc 3456 c83c b88b bf3d b963 863d
000000d0: 1b9b 943e 0d75 2e3e b8df a83c 1702 213e
000000e0: c369 0fbe 1bb3 513e 8925 b7bd 1e58 c9bd
000000f0: 0e72 073e 691f 183d e55b 9c3d 1498 dcbd
00000100: e51a efbd 40df 813a 777f 6b3e a115 4a3d
00000110: 665c 3dbd cfed 0ebe 8559 f43c 7f50 0a3c
00000120: 0d0c d9be 5600 633e df76 2a3e 03ca e3be
00000130: a671 28be d4b3 e6bd 9721 f63d 2b05 713e
00000140: a6fb 3fbc 200a 04bc 564b 2c3e 88b9 943e
00000150: ec08 2cbe 38f0 2a3f 392b 183f 777f 84bd
00000160: cb23 dcbd 3af4 e5bd cd84 0fbe 47ee 20be
00000170: 4798 8fbe d5fd 753d 461a 14be e5c7 3abe
00000180: be95 413c 3528 fabd cb17 7f3d af83 06bd
00000190: 1f80 663d 8ca7 253c aeb4 d53c a31b bebd
000001a0: b876 8abd 6ec6 75bb 2a1c 2cbc 2829 9dbd
000001b0: 0812 10bd 1015 c3bc ada1 75bd 9fd9 943d
000001c0: ff8d fabc 40a9 c2bc 4190 013c 2bd6 073d
000001d0: 7fff 4d3d 60bd 73bd 50ec bebd 90f7 ae3d
000001e0: 5c31 923d 2e0b 13bd 4d7f b73c 8fb7 4abd
000001f0: 90ae f2bc 5ec8 babd 3100 37bd 264e d1bd
00000200: 781b 2fbd 3718 1ebd 05ed 96bc e84d f1bc
00000210: 2f2f f13c 1578 8fbd 7bda 1c3d 52c4 453d
00000220: 72f3 e3bd 4d4b 96bd f1a6 56bc 25ce a13d
00000230: f205 523d 7007 103c 582d d7bd 576c 84bd
00000240: 344f 49bc eaba c03d 0933 39bd 707d dbbc
00000250: 4407 73bd cf26 a4bc d6e1 343d 4afe 56bd
00000260: 0b49 5f3d b13a a73d f9ba a7bd 2c7c 92bd
00000270: 4d81 babd 657d 0e3b 8254 a33d 82a3 cb3c
00000280: 654d 2ebd 6ebc 74bc 88bc ba3c 7242 8c3d
00000290: e687 7dbc 162c 0e3d 7b20 09bd 0a29 80bd
000002a0: 8e7e daba f18e 5b3d 53a5 17bd f509 65bd
000002b0: fcd5 d1bd 1f79 fb3b 806f 3b3d 7be9 f5bc
000002c0: 712d 133c 73d0 c1bd d47f 5d3d 66f5 803d
000002d0: 5a07 0fbd cf9f ddbd d6f5 663d f9ce dabd
000002e0: 4789 9e3d ee13 2bbd 4b56 5a3c 039b 9bbc
000002f0: bf75 c1bd 45a8 cabb 1df5 eebc 732e 97bd
00000300: 5255 af3d a892 89bd 5f82 74bd b647 aebd
00000310: bc7f 4a3d 103c a5bd 7793 19bd d79f cb3b
00000320: 3719 b93d 7de7 3c3a bdcd 46bd 693f ee3c
00000330: 0a5c 47bd 5cdb 97bd f274 8ebd 770e 7339
00000340: 7ba1 debd fda3 51bc 476b 17bd 7161 363d
00000350: 8e58 813d b131 73bd ddef e23d 4d52 7d3d
00000360: cfae c1bd 1ed6 d73b 39d1 a43d bc0d f8bc
00000370: a69d 7fbd a01b 46bd 2e68 f1bd 0b64 aebd
00000380: b4a5 babd 3f18 8cbc 877c ffbb 5dc9 bebd
00000390: 639d aa3d 7197 5abd ce2a 0d3d ce12 7ebd
000003a0: 8fe1 a5bd dca9 9ebd 884e c4bd 1f41 eabc
000003b0: 72c4 4c3d ebea 9dbd bc5a 3cbd e1e7 e8bd
000003c0: e4cc 5b3c 8098 c33a 50ce 9cbd 9011 c43c
000003d0: e748 38bd 0852 b53d cbd0 b7bc bd63 ed3d
000003e0: 44a1 a3bd 83b9 aebd 8526 8b3c beaa 063d
000003f0: 9754 40bd 43e5 ae3d b212 bb3c c0c3 8dbd
-0.047923785 -0.11578536 -0.20966406 0.24490699 -0.50525725 0.05939075 -0.34999904 -0.20257513
0.50500953 0.45790833 0.08313338 0.008331637 0.053625673 0.21020506 -0.29492116 0.0012604177
-0.09010295 -0.24749985 -0.2181988 0.19038533 -0.106149286 0.3914231 0.010217705 -0.013931892
-0.102975525 0.15742831 -0.07479023 -0.19902484 -0.31780818 0.065932214 -0.364221 0.0785539
0.092717335 0.0021186126 0.13684647 0.43002588 0.052042227 0.104936354 0.059429668 0.014502212
0.3214419 -0.08191833 -0.25854507 0.27561185 0.017789038 0.11928842 0.31668776 0.17283285
-0.018513221 0.024455167 0.09352821 0.06561989 0.29024586 0.17036839 0.02061449 0.15723453
-0.14005189 0.2047848 -0.08942706 -0.0983126 0.13227102 0.03713933 0.07634715 -0.10771194
-0.116750516 0.0009908453 0.22997843 0.049337033 -0.046230696 -0.13957904 0.029827842 0.008442043
-0.42392007 0.22168097 0.16646908 -0.4449006 -0.16449603 -0.11264768 0.120181255 0.23537128
-0.0117177125 -0.008059055 0.16825613 0.290478 -0.16800278 0.66772795 0.5944095 -0.064696245
-0.107490145 -0.11228223 -0.14015503 -0.15715896 -0.28045866 0.060056526 -0.14463148 -0.18240316
0.0118154865 -0.122147 0.06227855 -0.032840427 0.05627453 0.010110747 0.026087131 -0.09282615
-0.06760925 -0.0037502307 -0.010504762 -0.076738656 -0.035173446 -0.023813754 -0.05996864 0.072680704
-0.030585287 -0.023762345 0.007907928 0.03316323 0.05029249 -0.059506774 -0.09322417 0.085433125
0.07138321 -0.035899334 0.022399569 -0.04949146 -0.029624254 -0.09120248 -0.044677917 -0.10219984
-0.042750806 -0.03859731 -0.018423567 -0.029456094 0.029441444 -0.07005326 0.038294297 0.04828293
-0.11130418 -0.07338581 -0.013101325 0.07900647 0.0512752 0.008790836 -0.105066955 -0.06465977
-0.01228695 0.09410651 -0.045214687 -0.026793212 -0.0593331 -0.020038037 0.044160686 -0.052488603
0.05451302 0.08165491 -0.08189959 -0.0715259 -0.091066934 0.0021742221 0.07975103 0.02485824
-0.042554278 -0.014937503 0.022794977 0.06848611 -0.015474295 0.034710012 -0.03347824 -0.062578276
-0.0016669796 0.053603116 -0.0370229 -0.0559177 -0.102458924 0.007674351 0.04576063 -0.030018559
0.008983002 -0.09463587 0.054076985 0.06296806 -0.03491912 -0.10821497 0.05638679 -0.10684008
0.07741027 -0.041767053 0.013326238 -0.018994814 -0.094462864 -0.00618461 -0.029169613 -0.07381906
0.085611954 -0.067174256 -0.059694644 -0.085097715 0.049438223 -0.08068097 -0.03749415 0.0062141228
0.090380125 0.00072061253 -0.04853605 0.02908297 -0.04867176 -0.07414886 -0.06955899 0.00023179674
-0.10870644 -0.0127954455 -0.036967542 0.04452652 0.063157186 -0.05937356 0.110809065 0.061846066
-0.0945717 0.006586804 0.080477186 -0.030279987 -0.062406205 -0.04836619 -0.11787449 -0.085151754
-0.091136366 -0.017101405 -0.0077968272 -0.09315751 0.083308004 -0.053367082 0.03446465 -0.062029652
-0.080996625 -0.07747242 -0.09585291 -0.028595505 0.049992032 -0.07710823 -0.04598497 -0.113723524
0.013415549 0.0014922768 -0.076565385 0.023934156 -0.0449914 0.08853537 -0.022438427 0.11591289
-0.07989743 -0.08531477 0.016986141 0.032877676 -0.04695567 0.08539822 0.022836063 -0.06922102

model.7.bias f4 [20]
00000000: 6392 83bd 11fb d2bc 8ba3 a33d e129 923d
00000010: d39a 673d b8c0 8abd a0a0 a8bd cc56 b0bc
00000020: f58f 643d 9505 14bd a85e 773d 84eb a3bd
00000030: ca1b 82bc eaa8 6cbd f2ec b3bd b6fd b73d
00000040: d7e8 8f3d f614 763d 3ebc c0bd 3a07 48bd
-0.064244054 -0.025754483 0.07990178 0.07136894 0.056544136 -0.067750394 -0.08233762 -0.021525763
0.05580135 -0.036138136 0.060393006 -0.080039054 -0.015882391 -0.057778277 -0.08785428 0.089839384
0.070268326 0.060078584 -0.09410904 -0.048835017

model.10.weight f4 [12, 20]
00000000: 5d38 94bd bcb0 d73b f362 85bd cabc cfbe
00000010: 9e5f c4be 1d3d 8d3e 76e5 043f b74b 59be
00000020: 2c45 b73e 053a 74be 9740 733d 8e3c d13d
00000030: 4261 0f3e 4d47 bfbd f9f6 fdbc c502 453f
00000040: 82ff 3c3b 8e9f 133e 0de2 853f 1570 23bf
00000050: 2226 703f 2847 c5bd f40a ed3d 740e 13be
00000060: 643d b2be 53aa 58bf 6ace 763e 0dcb 773e
00000070: 6356 5bbe 8090 bc3d aece 91bc 302e 06bf
00000080: 1d62 eb3e 6124 3b3e a74a 2fbf d260 64be
00000090: 7f16 89bb 0b0c 2a3e ff70 68be 05bb 153d
000000a0: b8fe 65bd 01d3 513d 51ef fcbd 0b65 a0bd
000000b0: 9e5b 973f 8cbf e43e 63b9 a53d a628 743e
000000c0: c35e 40bf 3d7a c0be 9234 383d 49c0 3e3e
000000d0: 86b2 a93e d9c6 2b3e 58dc e13e 3c6b f7be
000000e0: d7ec 0b3e 2a81 2d3e 6fe4 afbe 5ceb 83bd
000000f0: c8ef 903d aae8 eb3b 4ed3 27be c2c4 863f
00000100: 222c 1abf c88a a3bf f651 f5be 36c9 083e
00000110: 9ffc 83be 7794 dabd 1a44 1bbe b27e 3dbf
00000120: 9ea6 d73e 5f60 003e d392 25bf e7ef 73be
00000130: 5ed3 083e e02c 24be 7c04 b4be 4638 083f
00000140: 475a 9ebe 6f90 563e 9638 203e 151f 2a3f
00000150: 172f a5be e6fb bf3f c312 93be f1ad ffbe
00000160: 4b9c 8dbc 928a 173f 1338 413e e0cc 093f
00000170: 5bdd 6ebe cc62 01bf 0066 1abf 70fc c9be
00000180: 521b f0bd 0e40 6a3d a2df bbbe 470a b03e
00000190: 871b d3be 0821 113d 92ae ec3c 403c 5cbe
000001a0: 0271 5a3f 5a64 66bf ac44 dcbe e5d6 edbe
000001b0: ba64 75be 6844 3bbf 74bb 443d 125e 8ebf
000001c0: 4393 a93e 5b98 d0be 6129 30be ac51 17bf
000001d0: 228e 21be 3ca2 21bd 99f7 f1bd a7d7 18bd
000001e0: 83d5 a4bd 804f 3fbe 4d4a 333e 463b acbe
000001f0: cd72 0cbe 7e01 413f 4369 48be 07d1 363f
00000200: 7cdb 853f dd3b b63e 1270 113e 1abc eb3e
00000210: e618 83be 4a3f af3e 430e b53e 3ae0 45bf
00000220: 2754 9d3d 61ea 0dbe d301 b9be 8dd1 f23e
00000230: e7fe 1bbe 69be 44be 7bd5 13be ccc9 923e
00000240: 5f3e 0b3f 7b65 21bf 9f5f ca3e 97fe adbd
00000250: cb79 9ebd 295e 8ebe e8b1 063d 448d 17be
00000260: f373 3d3c 6e68 69bd 61d8 debb 4e8f 533f
00000270: b1df 27be 9076 443e 3ec6 5d3f 3974 ba39
00000280: 1687 92be 97fb e4bd 9563 a6bc a07a eb3e
00000290: d5cd 97be 6549 b7be 6c8b c0be dfd1 493e
000002a0: e078 7bbe a3e4 8bbd 769f b83c fb36 fabe
000002b0: a07b 9dbd 884e 093e 2f63 3bbf 0de7 33bd
000002c0: 53fe febd 527e 33be ac01 cabd 751f f13e
000002d0: 1c62 fbbd 906a 9f3b 03ce 88bd ff86 92be
000002e0: 502d 80be 8a69 963f 5fc8 25b9 8379 bdbe
000002f0: 0995 9f3d 843b 7d3f b778 ccbd 9d39 bb3e
00000300: ef56 9cbc c6f1 a7be 1892 b8be 2c9c b2be
00000310: 2992 1dbd 6373 553e 0100 43be cdc4 8b3d
00000320: da94 6abe bf62 ba3d a204 31be 0876 c63e
00000330: 276f 3dbb e520 7bbe 7f96 623f 8232 4abd
00000340: 15af c33d 3df2 edbe a30c bfbd e821 7dbe
00000350: 7d5a e8be 5f30 eabd 5f94 94be a94a 61be
00000360: d311 683c c400 933d 1fab 2abf 7a18 a13d
00000370: 3543 1cbe 0f9b 62bd f4cc 41be 66c8 eabd
00000380: e5a4 e73d d1a5 ac3f 2ed9 013f 0098 c5bd
00000390: 55dc 173e 8020 4b3f dcee 3abe 4ca3 a63e
000003a0: 701f 32be d540 89bd 5a48 9bbd 19f2 73be
000003b0: 5e19 833c 94e1 33be 3bce 37be bbe4 d53d
-0.07237313 0.0065823477 -0.06513014 -0.40573722 -0.383542 0.27585688 0.5191263 -0.21220289
0.3579496 -0.23850258 0.05938777 0.10216628 0.14001945 -0.093397714 -0.031001555 0.7695735
0.0028838818 0.14416334 1.045961 -0.638429 0.93808186 -0.096327126 0.11574355 -0.14360982
-0.34812462 -0.84634894 0.24102178 0.24198551 -0.21419673 0.09207249 -0.017798748 -0.52414227
0.45973292 0.18275596 -0.68473285 -0.22302559 -0.00418359 0.16606157 -0.22699355 0.03655531
-0.05615112 0.05122662 -0.123503335 -0.078317724 1.1824834 0.4467739 0.08092 0.23843631
-0.75144595 -0.3759326 0.04497201 0.18628038 0.33144015 0.16775073 0.4411342 -0.48324
0.13664566 0.16943803 -0.34353969 -0.064413756 0.07076985 0.0071993666 -0.163892 1.0528796
-0.6022359 -1.2776728 -0.47914094 0.13358006 -0.25778672 -0.10672849 -0.15162697 -0.74021447
0.42119306 0.12536763 -0.6467716 -0.23821984 0.1336188 -0.16032743 -0.3515967 0.53210866
-0.3092825 0.20953535 0.15646586 0.6645368 -0.3226249 1.4998748 -0.28725252 -0.49937394
-0.01728644 0.59195817 0.18869047 0.5382824 -0.23326628 -0.5054138 -0.6031189 -0.39450407
-0.11723961 0.057189994 -0.36694056 0.3438284 -0.4123194 0.03543189 0.028891835 -0.21507359
0.85328686 -0.89996874 -0.43021142 -0.46453014 -0.23964205 -0.73151255 0.04803033 -1.1122458
0.33120164 -0.40741238 -0.17203285 -0.59108996 -0.15776876 -0.03946136 -0.11814804 -0.037315037
-0.08048537 -0.1868267 0.17508812 -0.33638972 -0.13715668 0.753929 -0.19571404 0.714127
1.0457606 0.35592547 0.14202908 0.46041948 -0.25604934 0.34227973 0.35362443 -0.7729527
0.076820664 -0.1385894 -0.36134204 0.474255 -0.15233956 -0.1921326 -0.14436905 0.28669584
0.54392046 -0.6304547 0.39526078 -0.08495825 -0.07738074 -0.27806213 0.03288451 -0.14799982
0.011563289 -0.056984358 -0.0068006967 0.8264054 -0.16393925 0.19185853 0.8663062 0.00035563277
-0.28618687 -0.111807995 -0.020311156 0.45991993 -0.29649225 -0.35798183 -0.3760637 0.19708966
-0.24557829 -0.06830718 0.022536974 -0.48870072 -0.07689595 0.13408864 -0.7319822 -0.04392152
-0.12450852 -0.17528656 -0.098636 0.47094312 -0.12274572 0.004864998 -0.066799186 -0.2861862
-0.2503457 1.1750958 -0.0001581027 -0.3700677 0.07792098 0.9891894 -0.09983962 0.36567393
-0.019084422 -0.32801646 -0.3604896 -0.34884775 -0.038469467 0.20844798 -0.1904297 0.06824646
-0.22908345 0.091008656 -0.17286924 0.38761926 -0.0028905363 -0.24524267 0.8851089 -0.049364574
0.095548786 -0.46473876 -0.09328582 -0.24719965 -0.45381537 -0.11435007 -0.29019448 -0.22001137
0.014164406 0.071778804 -0.6666736 0.07865997 -0.15260012 -0.055323657 -0.1892584 -0.11464004
0.11310748 1.3488103 0.50722015 -0.09648132 0.14830144 0.79346466 -0.1825518 0.3254646
-0.17394805 -0.06701819 -0.07582159 -0.23822822 0.016003307 -0.1756652 -0.17949764 0.104440175

model.10.bias f4 [12]
00000000: f341 63be 0d3d 533e 330f 38bd 1908 193e
00000010: 726d 54bd 9d9e 26bc d100 9c3e f167 5f3e
00000020: f3f2 b93a 3d73 31bc e1b9 11be 4248 2e3e
-0.22193126 0.20628758 -0.04493637 0.14944495 -0.051862188 -0.010169652 0.30469373 0.21816994
0.0014186784 -0.010830698 -0.14231063 0.17019752
