numbers_model.pth (torch, 19023 bytes, 20 tensors)

conv1.weight f4 [6, 1, 3, 3]
0.054508276 -0.25551653 -0.07306826 -0.26817963 0.12757121 -0.1893113 -0.16637103 -0.27107605
-0.13283405 0.84784913 1.1857668 0.7908306 0.61378473 -0.6283296 -0.39368922 -0.5037874
-0.81299716 -0.011356337 -0.29907238 0.025189405 0.20102327 -0.18372418 0.34629625 0.23180762
-0.3573332 -0.39142427 -0.24830943 0.40110186 0.10631908 0.048326816 0.11651253 0.79170114
-0.14933409 -1.1640099 0.40773407 1.1065725 -0.22733557 0.023139682 -0.120134935 -0.093432315
0.4768417 0.4956706 -0.333164 -0.47427562 -0.31327912 0.14275585 0.081467204 0.31506327
-0.33517638 -0.6458197 -0.5241977 0.78354985 0.84096587 -0.048868477
00000000: 1244 5f3d 10d3 82be d0a4 95bd d74e 89be
00000010: 07a2 023e d2da 41be 2b5d 2abe 7bca 8abe
00000020: a605 08be a40c 593f 35c7 973f e073 4a3f
00000030: ff20 1d3f 35da 20bf a291 c9be 36f8 00bf
00000040: 9520 50bf ee0f 3abc 0420 99be 035a ce3c
00000050: 0bd9 4d3e 3122 3cbe be4d b13e fa5e 6d3e
00000060: 61f4 b6be c368 c8be d444 7ebe 395d cd3e
00000070: d1bd d93d 57f2 453d 1f9e ee3d edac 4a3f
00000080: 09eb 18be 47fe 94bf 85c2 d03e 2ba4 8d3f
00000090: a8ca 68be 6e8f bd3c 4e09 f6bd 7159 bfbd
000000a0: 9824 f43e 89c8 fd3e 7994 aabe 41d4 f2be
000000b0: 1f66 a0be 972e 123e 47d8 a63d f94f a13e
000000c0: 3d9c abbe 7154 25bf d231 06bf b996 483f
000000d0: 8a49 573f 502a 48bd

conv1.bias f4 [6]
0.31675208 0.40735278 0.0016555412 0.20740151 0.21310538 -0.06562468
00000000: 542d a23e 8b90 d03e bffe d83a 1061 543e
00000010: 4c38 5a3e 3b66 86bd

conv2.weight f4 [24, 6, 3, 3]
-0.05796161 0.13078438 -0.00048429487 0.121907994 -0.068397544 -0.005132599 -0.07405826 -0.05703857
0.03499537 0.07964735 0.02738949 -0.12912796 0.024895296 0.040200472 -0.18434423 0.033739086
0.06060537 -0.12197912 -0.02362131 -0.04622232 0.08753246 -0.06263301 -0.023208926 0.10517605
0.03241371 0.124699704 0.06567593 0.08626513 -0.20626226 -0.20702733 0.12707724 -0.045075994
-0.08718345 0.0617078 -0.15058537 -0.15559009 0.06410194 -0.10201044 -0.07204479 -0.12117952
0.05431133 -0.082749166 -0.105125874 -0.086770095 -0.06388391 -0.053554453 0.060678657 -0.0053294757
-0.06962999 0.0969007 0.11441312 0.08610802 -0.047639962 -0.019335875 0.06343765 -0.059865076
0.038420837 -0.090237804 -0.067113884 -0.025967939 -0.115145296 0.11710613 0.11931453 -0.12634891
-0.043867 -0.11884163 -0.18902047 0.10299734 0.3778596 0.07570115 0.26773253 0.3245539
0.099506795 -0.14096108 0.07041715 -0.072282024 -0.087941185 0.013550854 -0.14719978 -0.04163774
0.13011675 0.06844452 -0.08891924 -0.14468984 -0.039312582 -0.244466 -0.25949344 0.05933627
-0.45278892 -0.3516627 -0.13230382 -0.14160205 0.07283884 0.013925111 -0.0906126 -0.12014625
0.07323389 -0.108198024 -0.11866344 -0.06127377 -0.057295535 -0.17530234 -0.22381532 -0.07128313
-0.2250512 0.06701026 0.19264564 -0.031925123 -0.106957994 0.094491616 -0.023090277 0.097421415
-0.0548899 0.0045778234 -0.085909255 -0.08355192 0.1281112 0.31719851 0.07837957 0.010810703
-0.027055658 -0.104001835 -0.23544109 -0.05801463 -0.19306463 -0.087683655 -0.034322742 0.05911263
0.027642518 0.049675144 -0.005278139 0.047522668 0.13249998 0.12015017 0.10854268 -0.20651598
-0.25717485 -0.04142696 -0.13923424 -0.24749283 -0.051774293 0.009558785 -0.2271414 -0.063229896
-0.082618915 0.1087261 -0.066884376 0.046016466 -0.09874498 0.10872725 0.06421005 -0.037557118
0.10842368 0.26632768 0.14227486 -0.0038730907 0.16666152 0.06954412 0.03469186 0.21938065
0.086258836 -0.05780689 -0.1289117 -0.027516287 0.13454248 -0.10408152 -0.06795359 0.0265553
0.12317198 0.11222757 0.10564519 -0.1392671 -0.09530847 0.010557566 0.051092993 -0.026107518
-0.17330721 0.12829696 -0.31483635 -0.09051789 0.12971112 0.1099695 0.028767819 0.2496055
0.13678604 -0.007117994 -0.1696436 0.005908413 -0.09092298 0.04180852 0.32154897 -0.16789226
-0.5958523 0.2372986 0.33501732 0.10574536 -0.2234957 -0.39432132 0.0946793 -0.029237652
0.09558259 0.03428803 0.0847788 0.05324847 -0.16473182 -0.13213015 0.06320447 -0.18529408
-0.07306568 0.28432584 -0.07640193 -0.017801885 -0.17312802 0.02783749 0.1731774 0.22601828
0.015903428 0.1345987 0.0580175 0.046812836 0.05661586 0.030881636 -0.05224821 -0.075226955
0.09202802 -0.12789805 -0.08512342 -0.035369854 0.116677865 0.13598743 0.2252723 0.09268596
0.050430622 0.029306324 -0.089782655 -0.0057208017 0.085645564 -0.1535026 0.12731984 -0.04917269
-0.1014375 -0.068157606 -0.08204023 -0.20629416 -0.08103167 0.27223727 0.07166199 -0.0061127096
0.19773923 -0.09245131 -0.2759636 -0.0064314157 0.035209812 -0.047605984 -0.018738039 -0.06929345
00000000: 2769 6dbd 57ec 053e f5e8 fdb9 e6aa f93d
00000010: 0314 8cbd 5c2f a8bb dbab 97bd 47a1 69bd
00000020: 4e57 0f3d 261e a33d ec5f e03c 1f3a 04be
00000030: 38f1 cb3c 40a9 243d bcc4 3cbe ff31 0a3d
00000040: 563d 783d 30d0 f9bd 7a81 c1bc 9e53 3dbd
00000050: 3844 b33d bc45 80bd a520 bebc 8a66 d73d
00000060: 3dc4 043d 8f62 ff3d 1a81 863d c6ab b03d
00000070: 6a36 53be f9fe 53be 8920 023e 9ba1 38bd
00000080: 3d8d b2bd 51c1 7c3d 0d33 1abe 0253 1fbe
00000090: e147 833d d9ea d0bd 388c 93bd f82c f8bd
000000a0: 8f75 5e3d 6578 a9bd 3c4c d7bd 85b4 b1bd
000000b0: 91d5 82bd ea5b 5bbd 2f8a 783d e2a2 aebb
000000c0: 2b9a 8ebd e073 c63d 6d51 ea3d 6759 b03d
000000d0: 1f22 43bd 4566 9ebc 99eb 813d 1535 75bd
000000e0: 2b5f 1d3d 99ce b8bd 0173 89bd b7ba d4bc
000000f0: 4cd1 ebbd 57d5 ef3d 2d5b f43d 9c61 01be
00000100: e2ad 33bd 3e63 f3bd 958e 41be 45f0 d23d
00000110: d076 c13e 3409 9b3d 3d14 893e ee2b a63e
00000120: 38ca cb3d 1a58 10be de36 903d 9908 94bd
00000130: 821a b4bd 6704 5e3c 8abb 16be 568c 2abd
00000140: 533d 053e a42c 8c3d 4a1b b6bd 9329 14be
00000150: 3b06 21bd 4c55 7abe 53dc 84be 970a 733d
00000160: f3d3 e7be 220d b4be a77a 07be 2100 11be
00000170: 882c 953d 2626 643c 1993 b9bd 3d0f f6bd
00000180: a6fb 953d ed96 ddbd d105 f3bd 34fa 7abd
00000190: b9ae 6abd 7582 33be d82f 65be e4fc 91bd
000001a0: d273 66be ad3c 893d e644 453e ebc3 02bd
000001b0: cb0c dbbd d284 c13d d227 bdbc e184 c73d
000001c0: 3bd4 60bd 9101 963b 31f1 afbd 451d abbd
000001d0: 952f 033e d867 a23e 7885 a03d 601f 313c
000001e0: d4a3 ddbc eafe d4bd 7817 71be c0a0 6dbd
000001f0: bcb2 45be 7d93 b3bd 0196 0cbd 1620 723d
00000200: 9072 e23c 2a78 4b3d 3df4 acbb 21a7 423d
00000210: 13ae 073e 4b11 f63d a04b de3d ed78 53be
00000220: 6cac 83be 51af 29bd 6c93 0ebe c36e 7dbe
00000230: 4811 54bd 739c 1c3c c197 68be ad7e 81bd
00000240: 1b34 a9bd caab de3d adfa 88bd c37b 3c3d
00000250: cf3a cabd 64ac de3d 8f80 833d 7ed5 19bd
00000260: 3c0d de3d 1a5c 883e 80b0 113e aed3 7dbb
00000270: 51a9 2a3e 266d 8e3d 0d19 0e3d 52a5 603e
00000280: 79a8 b03d ebc6 6cbd 6e01 04be d669 e1bc
00000290: 81c5 093e b128 d5bd 402b 8bbd 808a d93c
000002a0: 9741 fc3d 91d7 e53d 815c d83d 099c 0ebe
000002b0: 1631 c3bd a4f9 2c3c e346 513d 6fdf d5bc
000002c0: 7277 31be 4760 033e 3b32 a1be 7261 b9bd
000002d0: fed2 043e b037 e13d 7daa eb3c 9698 7f3e
000002e0: a411 0c3e 103e e9bb 0db7 2dbe 5c9b c13b
000002f0: d435 babd 693f 2b3d 11a2 a43e f3eb 2bbe
00000300: c789 18bf 67fe 723e 6487 ab3e 0691 d83d
00000310: 0fdc 64be 7ce4 c9be 39e7 c13d cd83 efbc
00000320: cec0 c33d 9b71 0c3d 82a0 ad3d 111b 5a3d
00000330: 75af 28be 204d 07be 5871 813d bbbd 3dbe
00000340: 76a3 95bd 2893 913e 9d78 9cbd 42d5 91bc
00000350: 7948 31be 730b e43c 6b55 313e 5671 673e
00000360: e847 823c 3ed4 093e c2a3 6d3d d1be 3f3d
00000370: 08e6 673d 7cfb fc3c 3802 56bd 9710 9abd
00000380: 3079 bc3d b5f7 02be 3055 aebd fbdf 10bd
00000390: cef4 ee3d 4a40 0b3e c8ad 663e 23d2 bd3d
000003a0: 5790 4e3d d113 f03c f8df b7bd 9075 bbbb
000003b0: f166 af3d c92f 1dbe 2260 023e 4d69 49bd
000003c0: 77be cfbd 3796 8bbd b504 a8bd c73e 53be
000003d0: eff3 a5bd af62 8b3e 85c3 923d 204d c8bb
000003e0: 277c 4a3e 1d57 bdbd 1a4b 8dbe a0be d2bb
000003f0: 2a38 103d 7efe 42bd 8480 99bc b9e9 8dbd

conv2.bias f4 [24]
-0.09610856 -0.07395821 -0.05606764 -0.10817659 -0.09517524 0.028246507 -0.09386997 -0.01505226
0.013794375 0.071674146 0.0320146 0.015254904 -0.05731787 0.08101568 -0.12541576 0.052964646
-0.09083394 0.106824964 -0.09412263 -0.12982711 -0.126124 0.11435092 -0.0770039 -0.13595298
00000000: 91d4 c4bd 6777 97bd 2fa7 65bd b08b ddbd
00000010: 3ceb c2bd 3865 e73c e63e c0bd c19d 76bc
00000020: cd01 623c e5c9 923d be21 033d b4ef 793c
00000030: 25c6 6abd 8deb a53d fd6c 00be 75f1 583d
00000040: 2507 babd 0cc7 da3d 5ec3 c0bd 66f1 04be
00000050: a626 01be d130 ea3d 39b4 9dbd 4237 0bbe

FC1.weight f4 [20, 96]
0.0938838 -0.045378126 -0.020446632 -0.087161556 0.18640073 -0.32341617 0.034925066 -0.1987123
0.09644876 0.21301293 0.09939992 0.038825724 -0.1279439 0.08156337 -0.12617782 0.047742117
0.095388606 0.06444512 -0.15036695 -0.036235668 -0.20329297 0.16920727 0.04874334 -0.022969738
0.10540139 -0.00036178651 0.0921289 -0.16320048 0.062139194 0.06403432 0.010818734 0.075096704
-0.1972408 0.07174021 -0.026247498 -0.026300464 0.06557938 -0.29314807 -0.19491987 0.007888581
-0.03835065 0.13995294 0.06668021 -0.040210232 -0.05429348 0.08134687 0.04235044 -0.045994658
0.107686 -0.16756403 0.03684737 -0.021544714 0.098842084 -0.2266621 0.041930776 -0.048911706
-0.04446381 0.052002322 0.010914927 -0.15231735 0.028611537 0.06523438 -0.017550446 -0.08518526
0.1979566 0.23549165 -0.026713477 -0.21190733 0.105779134 -0.010241509 0.1717992 -0.08024736
-0.11718976 -0.03988822 -0.07956302 0.033123698 0.0616054 -0.024407955 0.13588226 -0.094931714
-0.029113585 0.25897497 -0.07887554 -0.0991812 0.21505022 0.24559714 0.10084157 -0.07163787
0.053196415 0.12357271 0.0023501553 -0.18822755 0.16820867 0.0075855767 0.1088555 -0.20142065
-0.09195914 0.17197071 -0.0978541 -0.042517446 -0.003392109 -0.06990624 0.04723649 -0.008300365
0.07419603 0.14292037 0.031904947 0.06438886 -0.14738958 0.010141835 -0.06582439 -0.10351383
0.08571966 -0.10496143 0.046266437 -0.29493052 0.022106454 -0.289622 0.118343465 -0.03292976
-0.19582249 -0.11786701 0.038260914 0.0671679 0.068321735 0.008308157 0.06688364 0.0622439
0.045303274 -0.12603603 0.07573809 -0.16964442 0.054641947 -0.18373601 -0.16898799 -0.38873613
-0.064175315 -0.29716423 -0.1047735 0.09924354 -0.07540364 -0.055358235 0.12546371 -0.08113878
0.09884216 0.11695478 -0.045069065 0.032317553 0.09917647 0.01203176 0.019707905 -0.037607525
-0.026508687 -0.05499751 0.00253315 0.19127169 -0.039092623 -0.00085283397 -0.15306531 -0.1519027
-0.17944157 -0.3106581 0.0022017567 0.07858339 -0.06726625 0.06281276 -0.09274721 0.006795691
0.19078638 -0.10246246 0.049639132 0.11679365 -0.06840658 -0.07288797 -0.13163741 0.23462969
0.0769817 -0.14810227 0.15184055 0.0004841227 0.038259454 -0.038347483 -0.028896173 -0.006178337
-0.070801966 -0.16221327 0.017429467 -0.12926063 -0.0792135 0.08347404 0.14473474 0.13336292
-0.059682965 6.3320505e-05 0.056205764 0.03532647 -0.008434641 0.11061829 0.024144141 0.050134093
-0.036260344 -0.00022297523 -0.023688994 0.10042682 0.04132539 0.050113317 -0.2684743 0.08912864
-0.19325069 -0.13417153 -0.009777914 -0.0423803 -0.34128127 -0.21750586 -0.1902076 -0.070348814
0.08815112 0.06814047 0.14239983 -0.043326776 0.020185782 -0.24248026 -0.047946166 0.15665236
-0.25962615 -0.16195323 -0.047643512 0.10580684 -0.009516741 -0.036947537 0.042162202 -0.08684023
-0.014338508 0.05357344 -0.027839078 0.13999039 -0.049321085 -0.16054821 0.15986511 -0.03160727
0.25033212 0.23609363 0.113697045 -0.19151644 0.09086619 0.19354656 0.13646387 0.074324004
-0.081800446 0.13254529 -0.06019205 0.109067455 -0.063534126 -0.13736989 -0.05253554 0.11180319
00000000: 2646 c03d 6ade 39bd b27f a7bc c281 b2bd
00000010: d5df 3e3e ce96 a5be 960d 0f3d 3d7b 4bbe
00000020: ed86 c53d 1020 5a3e 2f92 cb3d b907 1f3d
00000030: ba03 03be b20a a73d c234 01be 3d8d 433d
00000040: 1a5b c33d cefb 833d cbf9 19be da6b 14bd
00000050: 082c 50be ac44 2d3e 19a7 473d 082b bcbc
00000060: afdc d73d 2aae bdb9 14ae bc3d 071e 27be
00000070: ab85 7e3d 6d24 833d 0f41 313c 4dcc 993d
00000080: 7ef9 49be 88ec 923d fe04 d7bc 1274 d7bc
00000090: 7b4e 863d 8117 96be 1399 47be 1b3f 013c
000000a0: 9215 1dbd d34f 0f3e a28f 883d 7cb3 24bd
000000b0: d762 5ebd 3099 a63d a877 2d3d e564 3cbd
000000c0: 7a8a dc3d e895 2bbe 45ed 163d 8a7e b0bc
000000d0: b86d ca3d 1c1a 68be 9bbf 2b3d a457 48bd
000000e0: af1f 36bd 6300 553d 86d4 323c 14f9 1bbe
000000f0: be62 ea3c 9a99 853d f4c5 8fbc 9c75 aebd
00000100: 23b5 4a3e b924 713e 39d6 dabc 3cfe 58be
00000110: bba2 d83d 01cc 27bc 21ec 2f3e ba58 a4bd
00000120: 2f01 f0bd d561 23bd f0f1 a2bd b7ac 073d
00000130: f255 7c3d 31f3 c7bc b824 0b3e 8f6b c2bd
00000140: 9d7f eebc 5e98 843e 8089 a1bd 831f cbbd
00000150: 2036 5c3e d17d 7b3e 0686 ce3d e0b6 92bd
00000160: 7ce4 593d b013 fd3d 1005 1a3b b9be 40be
00000170: e53e 2c3e 6e90 f83b a2ef de3d 3741 4ebe
00000180: 1355 bcbd 1719 303e bb67 c8bd c626 2ebd
00000190: 254e 5ebb 012b 8fbd 0d7b 413d 41fe 07bc
000001a0: 17f4 973d b859 123e c3ae 023d 4ede 833d
000001b0: 4bed 16be f029 263c f0ce 86bd 0fff d3bd
000001c0: ca8d af3d 05f6 d6bd e081 3d3d 2201 97be
000001d0: 9818 b53c 5649 94be 0f5e f23d 5be1 06bd
000001e0: b185 48be 4264 f1bd 7ab7 1c3d 538f 893d
000001f0: 44ec 8b3d f01e 083c 4afa 883d 76f3 7e3d
00000200: ed8f 393d 970f 01be 921c 9b3d 44b7 2dbe
00000210: 3cd0 5f3d 4b25 3cbe 300b 2dbe 6c08 c7be
00000220: 596e 83bd e925 98be 7d93 d6bd 3240 cb3d
00000230: 396d 9abd 51bf 62bd 8f79 003e 172c a6bd
00000240: c26d ca3d fd85 ef3d 579a 38bd 695f 043d
00000250: 081d cb3d dc20 453c 7972 a13c 590a 1abd
00000260: bf28 d9bc 1245 61bd 3403 263b badc 433e
00000270: 961f 20bd b890 5fba 27bd 1cbe 628c 1bbe
00000280: 88bf 37be 940e 9fbe 594b 103b 54f0 a03d
00000290: e3c2 89bd faa3 803d 40f2 bdbd 63ae de3b
000002a0: 815d 433e d7d7 d1bd 6752 4b3d 8231 ef3d
000002b0: c018 8cbd 4a46 95bd f5cb 06be c442 703e
000002c0: 95a8 9d3d 1fa8 17be 177c 1b3e d9d1 fd39
000002d0: f2b5 1c3d 4012 1dbd abb7 ecbc a673 cabb
000002e0: 9f00 91bd 3c1b 26be 3ec8 8e3c e65c 04be
000002f0: b03a a2bd 70f4 aa3d 5835 143e 4a90 083e
00000300: 2076 74bd f0ca 8438 0438 663d 7db2 103d
00000310: 7331 0abc d88b e23d efc9 c53c 6859 4d3d
00000320: ba85 14bd 75ce 69b9 6c0f c2bc 94ac cd3d
00000330: d044 293d 9f43 4d3d 7775 89be 1489 b63d
00000340: 82e3 45be 4364 09be 8b33 20bc f796 2dbd
00000350: 6bbc aebe dbb9 5ebe c8c5 42be 0a13 90bd
00000360: 9388 b43d 3b8d 8b3d 43d1 113e 6b77 31bd
00000370: a75c a53c bf4c 78be 3363 44bd 7a69 203e
00000380: b8ed 84be 11d7 25be d825 43bd 42b1 d83d
00000390: 1bec 1bbc 4d56 17bd 46b2 2c3d 4ad9 b1bd
000003a0: 10ec 6abc d36f 5b3d c70e e4bc a459 0f3e
000003b0: e804 4abd c066 24be aeb3 233e a076 01bd
000003c0: 882b 803e 87c2 713e ffd9 e83d e31c 44be
000003d0: 0e18 ba3d 1231 463e 2fbd 0b3e 2f37 983d
000003e0: fe86 a7bd f4b9 073e f08b 76bd c25e df3d
000003f0: 2e1e 82bd b1aa 0cbe 822f 57bd 12f9 e43d

FC1.bias f4 [20]
-0.034939453 0.10598037 -0.0005287231 0.116856165 -0.020169418 0.037116636 0.095265925 0.04135786
0.10069264 -0.04866655 -0.056583628 -0.06476966 -0.032856017 -0.015345319 0.088228375 -0.003934308
0.020339692 -0.0972198 0.045362145 0.06337432
00000000: ac1c 0fbd 3c0c d93d 029a 0aba 4952 ef3d
00000010: 563a a5bc 9d07 183d c81a c33d dc66 293d
00000020: f137 ce3d 9456 47bd 3cc4 67bd f5a5 84bd
00000030: 0894 06bd ef6a 7bbc 14b1 b43d 5eeb 80bb
00000040: 6d9f a63c 2d1b c7bd a8cd 393d 65ca 813d

FC2.weight f4 [12, 20]
0.32620227 -0.25715992 -0.09274455 -0.020407444 -0.09709625 -0.044173915 0.19742037 0.42892247
-0.025122441 0.3370489 0.2517708 -0.044571277 -0.25891018 0.2616892 0.18460934 0.1875171
-0.08307368 -0.14961612 0.43410254 -0.22086583 -0.004049378 0.23528124 0.3595439 -0.38930744
0.03826326 -0.21671233 0.0054351394 -0.19351187 0.38831174 0.338102 0.24642803 -0.08118721
-0.4260163 0.37653035 0.20153074 -0.022805825 0.20848927 0.2448796 0.22337289 0.053976752
0.16259985 0.60753566 0.33250532 0.19449781 0.011019187 0.13729103 0.22047132 0.18980432
0.5336121 0.37627634 0.096164785 -0.1595636 0.32994807 0.024929225 -0.15140608 0.38878697
-0.22236484 -0.24110323 -0.5054059 -0.22321364 -0.00419141 0.17043227 0.45150274 -0.21855932
0.47561476 0.4200133 0.07631707 -0.39719555 -0.18154237 -0.27857113 -0.048617106 -0.13286547
0.20745021 0.33383748 0.08536038 -0.11231399 0.06648868 0.28744224 -0.16602303 -0.10659955
-0.016528511 -0.19837007 -0.21418515 -0.006246529 0.026936682 0.11807201 -0.038529772 -0.033096943
0.07884335 -0.089401804 -0.06222554 0.203538 -0.028646154 -0.11606132 0.07634035 -0.0666315
0.07152176 -0.14671244 0.08142901 0.11564056 0.25496402 0.38746193 -0.1407285 0.055258006
0.056580856 -0.14207838 -0.29981172 0.30145958 -0.1392678 0.018404474 0.6131368 0.09484084
0.12549756 0.4780107 0.0017499125 -0.24463382 -0.25912994 0.06681086 0.08507177 0.21061149
0.7318513 -0.40326455 0.22367354 0.17575313 0.0029197226 0.46792427 0.19672227 0.33549058
-0.24639037 -0.1255675 -0.1932192 0.15594646 -0.04332406 0.33191413 0.28430665 -0.04833171
0.3991869 -0.17837267 -0.16518879 0.013621562 0.11788777 0.026920207 -0.25204393 -0.22239761
-0.27590147 -0.20244914 0.39424232 -0.08813348 0.1422362 -0.12971024 0.33469483 -0.061920974
-0.14066498 0.43704608 -0.117447995 0.22674057 -0.120965816 0.048309907 0.2899344 -0.06425893
-0.24743488 0.014213665 0.094172284 -0.09706181 -0.1250201 0.014913622 0.0912713 0.15224108
-0.18139192 0.45010158 -0.09413871 0.33760154 0.19483784 0.12965167 0.39252034 0.3587564
-0.27390018 -0.01722452 0.23151875 -0.21921329 -0.36750674 0.092840105 0.10576733 0.6064413
0.570097 -0.02646722 0.07069684 0.32426196 -0.32242736 0.23344073 0.23946506 -0.15659155
0.15204327 0.24356548 -0.43925935 -0.29069614 -0.1334383 -0.02414937 0.20308554 0.017684609
0.05963246 0.14072236 -0.45826885 0.24208616 -0.029986503 0.47095433 -0.25320998 0.19977598
0.0012773285 0.25016722 -0.10074521 -0.1825727 0.66332066 0.17706782 -0.22605719 0.56317884
-0.08900675 0.60321516 0.17719662 0.0382797 0.028643709 -0.04224207 -0.13128442 -0.22063358
-0.035855 0.14878105 0.036761113 -0.191724 -0.07552926 0.08846543 -0.07123409 -0.21790642
-0.05361212 -0.24391007 0.036158737 0.10348307 0.058877084 0.015722936 0.20766355 -0.18572731
00000000: fc03 a73e 77aa 83be dbf0 bdbd 832d a7bc
00000010: 66da c6bd b5ef 34bd 9128 4a3e ba9b db3e
00000020: 94cd cdbc ac91 ac3e 1ae8 803e 5f90 36bd
00000030: e08f 84be 20fc 853e 3b0a 3d3e 7c04 403e
00000040: 8922 aabd f834 19be b042 de3e a72a 62be
00000050: a5b0 84bb 91ed 703e 2316 b83e 4e53 c7be
00000060: f0b9 1c3d d6e9 5dbe 4119 b23b fa27 46be
00000070: ccd0 c63e b51b ad3e a157 7c3e 7b45 a6bd
00000080: cf1e dabe 96c8 c03e 135e 4e3e 48d3 babc
00000090: 367e 553e b8c1 7a3e ddbb 643e ba16 5d3d
000000a0: 9380 263e 7587 1b3f 233e aa3e 6f2a 473e
000000b0: d289 343c 0596 0c3e 3cc3 613e 105c 423e
000000c0: cd9a 083f 4ba7 c03e 0bf2 c43d a464 23be
000000d0: f4ee a83e 6038 cc3c 320a 1bbe 160f c73e
000000e0: 9cb3 63be c4e3 76be 4862 01bf 1e92 64be
000000f0: 1858 89bb cc85 2e3e 5e2b e73e 04ce 5fbe
00000100: c783 f33e fc0b d73e 204c 9c3d 375d cbbe
00000110: 3ee6 39be e0a0 8ebe bb22 47bd e30d 08be
00000120: d46d 543e bfec aa3e 6cd1 ae3d e104 e6bd
00000130: 382b 883d a12b 933e f101 2abe dd50 dabd
00000140: cd66 87bc 8621 4bbe 5a53 5bbe afaf ccbb
00000150: 51aa dc3c bdcf f13d 65d1 1dbd a990 07bd
00000160: 9f78 a13d 4b18 b7bd 35e0 7ebd 446c 503e
00000170: 57ab eabc 8fb1 edbd 5458 9c3d 1976 88bd
00000180: 007a 923d c93b 16be 41c4 a63d f5d4 ec3d
00000190: a58a 823e 6961 c63e 221b 10be 3856 623d
000001a0: 54c1 673d ff7c 11be ec80 99be e958 9a3e
000001b0: 389c 0ebe fbc4 963c 89f6 1c3f ea3b c23d
000001c0: 6f82 003e d2bd f43e 525d e53a 4a81 7abe
000001d0: aeac 84be 22d4 883d 1c3a ae3d 8aaa 573e
000001e0: 9b5a 3b3f b178 cebe ad0a 653e a1f8 333e
000001f0: d158 3f3b c593 ef3e 9071 493e 6cc5 ab3e
00000200: c24d 7cbe c494 00be 41db 45be 6eb0 1f3e
00000210: 9274 31bd a6f0 a93e a490 913e 79f7 45bd
00000220: 3a62 cc3e 53a7 36be 4027 29be f92c 5f3c
00000230: 256f f13d c487 dc3c e70b 81be 33bc 63be
00000240: f542 8dbe d44e 4fbe 21da c93e 537f b4bd
00000250: 5ea6 113e c3d2 04be 1f5d ab3e d9a0 7dbd
00000260: 7b0a 10be 81c4 df3e 9388 f0bd ae2e 683e
00000270: edbc f7bd 9ce0 453d 4872 943e 309a 83bd
00000280: 925f 7dbe 6fe0 683c 66dd c03d 58c8 c6bd
00000290: 4505 00be 4458 743c 73ec ba3d 16e5 1b3e
000002a0: cebe 39be b773 e63e cccb c0bd 1cda ac3e
000002b0: 9283 473e 68c3 043e 6df8 c83e ebae b73e
000002c0: a53c 8cbe 701a 8dbc 4013 6d3e 7379 60be
000002d0: d829 bcbe f422 be3d 8b9c d83d bd3f 1b3f
000002e0: e1f1 113f c9d1 d8bc 81c9 903d aa05 a63e
000002f0: 3315 a5be 160b 6f3e 5436 753e 8959 20be
00000300: 3bb1 1b3e 3b69 793e 9ae6 e0be 20d6 94be
00000310: 0da4 08be e6d4 c5bc a8f5 4f3e 50df 903c
00000320: 2b41 743d 8619 103e 37a2 eabe 6fe5 773e
00000330: 41a6 f5bc ed20 f13e bda4 81be 1392 4c3e
00000340: 086c a73a eb15 803e 8153 cebd 56f4 3abe
00000350: 62cf 293f 4451 353e 897b 67be 7d2c 103f
00000360: 2c49 b6bd 4f6c 1a3f 0873 353e 2dcb 1c3d
00000370: 36a6 ea3c 0506 2dbd 6c6f 06be c5ed 61be
00000380: b1dc 12bd 0f5a 183e d292 163d 4c53 44be
00000390: 16af 9abd 5d2d b53d 2ee3 91bd dc22 5fbe
000003a0: 6298 5bbd 90c3 79be 2f1b 143d efee d33d
000003b0: 1929 713d 63cd 803c c1a5 543e 4d2f 3ebe

FC2.bias f4 [12]
-0.109955326 -0.16304104 -0.049835227 0.31528026 -0.17201996 0.064005524 0.17412494 -0.1914461
-0.10184974 -0.09451853 -0.08378641 -0.16882758
00000000: 4230 e1bd 3bf4 26be 0620 4cbd 6a6c a13e
00000010: 0026 30be 5415 833d cf4d 323e 720a 44be
00000020: 9996 d0bd ee92 c1bd 3698 abbd 23e1 2cbe

out.weight f4 [10, 12]
0.14557427 -0.2940466 0.3249747 -0.5317084 -0.22804445 0.0084224725 0.51983494 -0.23613024
-0.018518757 -0.29746044 0.4688341 -0.061740197 -0.26239365 0.63653237 0.6825034 0.24734946
0.07071736 0.31351236 -0.49258173 0.01798177 -0.3168417 -0.0067288517 -0.36167455 -0.07990919
-0.6681081 -0.5597164 0.47515878 0.25643516 -0.17837502 0.041478567 -0.34440842 -0.11072904
0.23463798 -0.055242497 0.60985655 -0.21995184 -0.10558116 0.045388874 -0.6333584 0.66473466
0.17680599 0.23882398 -0.067914404 0.120725006 -0.10714973 0.1969717 0.45799085 0.0368099
0.26976195 0.24573982 0.061154455 0.02463682 -0.17558517 -0.074400865 0.22712184 -0.2748055
0.65213835 -0.105737165 -0.37563512 -0.17520805 0.44725513 -0.0065922397 -0.36544377 -0.23731439
-0.23957671 0.5990118 0.14663202 0.61098653 -0.0013028372 -0.14260247 -0.38342878 -0.055894095
0.0057004564 0.17125675 -0.319072 0.44528344 -0.12853931 -0.20026559 0.72067213 -0.34710974
-0.37444124 -0.47630554 -0.5533868 -0.15512878 0.3312174 0.46565422 -0.22767338 -0.05553951
-0.029608928 -0.5618282 -0.30417845 0.28244635 0.3990669 -0.48590803 0.5102326 0.15216252
-0.21250643 -0.22488187 0.18074583 0.4278769 -0.13152713 -0.53423977 0.18817428 0.23652078
-0.019985462 0.5768867 -0.47464225 -0.157645 0.24327795 -0.17365967 -0.21287458 -0.3147578
0.17815416 0.14175145 -0.5215575 -0.064150065 0.2543936 0.8455753 0.0031787718 0.06428348
00000000: 6c11 153e 478d 96be 1563 a63e 0b1e 08bf
00000010: 7c84 69be 69fe 093c e713 053f 20cc 71be
00000020: a6b4 97bc bc4c 98be 060b f03e 4ae3 7cbd
00000030: 7658 86be c9f3 223f 8bb8 2e3f 2d49 7d3e
00000040: 43d4 903d b184 a03e ac33 fcbe 814e 933c
00000050: 1339 a2be b37d dcbb 682d b9be 6ea7 a3bd
00000060: 2209 2bbf 9349 0fbf 0348 f33e 784b 833e
00000070: f1a7 36be 6ee5 293d 4d56 b0be e8c5 e2bd
00000080: f044 703e f545 62bd 8f1f 1c3f 0e3b 61be
00000090: ef3a d8bd afe9 393d c723 22bf 0d2c 2a3f
000000a0: a10c 353e 468e 743e b516 8bbd ac3e f73d
000000b0: 5171 dbbd f3b2 493e c77d ea3e fac5 163d
000000c0: 3d1e 8a3e 38a3 7b3e 187d 7a3d 28d3 c93c
000000d0: 99cc 33be 7b5f 98bd a192 683e 4eb3 8cbe
000000e0: 8af2 263f ba8c d8bd 3f53 c0be bd69 33be
000000f0: a0fe e43e b703 d8bb 721b bbbe 8b02 73be
00000100: 9953 75be d658 193f b426 163e 9d69 1c3f
00000110: f6c3 aaba 6206 12be c750 c4be 35f1 64bd
00000120: e5ca ba3b ee5d 2f3e 685d a3be 31fc e33e
00000130: cf9f 03be 6c12 4dbe f87d 383f 5eb8 b1be
00000140: c3b6 bfbe 52de f3be c2aa 0dbf 14da 1ebe
00000150: 5495 a93e 3b6a ee3e 3623 69be 667d 63bd
00000160: 6c8e f2bc f9d3 0fbf 47bd 9bbe cf9c 903e
00000170: 7f52 cc3e f0c8 f8be 9b9e 023f 7ed0 1b3e
00000180: 499b 59be 6f47 66be 6f15 393e ae12 db3e
00000190: 0caf 06be f0c3 08bf c2b0 403e 8132 723e
000001a0: 8db8 a3bc d9ae 133f 4f04 f3be b16d 21be
000001b0: db1d 793e d7d3 31be cbfb 59be ef27 a1be
000001c0: 0b6e 363e 4b27 113e cb84 05bf 1c61 83bd
000001d0: e13f 823e 9f77 583f f152 503b 0fa7 833d

out.bias f4 [10]
-0.27029717 -0.2132102 -0.01637265 -0.12674493 -0.065553285 0.13454062 -0.04623975 -0.25219682
0.3300103 -0.13347402
00000000: 6464 8abe c653 5abe f01f 86bc 6cc9 01be
00000010: cd40 86bd 04c5 093e e465 3dbd f11f 81be
00000020: 1cf7 a83e 6aad 08be

model.0.weight f4 [6, 1, 3, 3]
0.054508276 -0.25551653 -0.07306826 -0.26817963 0.12757121 -0.1893113 -0.16637103 -0.27107605
-0.13283405 0.84784913 1.1857668 0.7908306 0.61378473 -0.6283296 -0.39368922 -0.5037874
-0.81299716 -0.011356337 -0.29907238 0.025189405 0.20102327 -0.18372418 0.34629625 0.23180762
-0.3573332 -0.39142427 -0.24830943 0.40110186 0.10631908 0.048326816 0.11651253 0.79170114
-0.14933409 -1.1640099 0.40773407 1.1065725 -0.22733557 0.023139682 -0.120134935 -0.093432315
0.4768417 0.4956706 -0.333164 -0.47427562 -0.31327912 0.14275585 0.081467204 0.31506327
-0.33517638 -0.6458197 -0.5241977 0.78354985 0.84096587 -0.048868477
00000000: 1244 5f3d 10d3 82be d0a4 95bd d74e 89be
00000010: 07a2 023e d2da 41be 2b5d 2abe 7bca 8abe
00000020: a605 08be a40c 593f 35c7 973f e073 4a3f
00000030: ff20 1d3f 35da 20bf a291 c9be 36f8 00bf
00000040: 9520 50bf ee0f 3abc 0420 99be 035a ce3c
00000050: 0bd9 4d3e 3122 3cbe be4d b13e fa5e 6d3e
00000060: 61f4 b6be c368 c8be d444 7ebe 395d cd3e
00000070: d1bd d93d 57f2 453d 1f9e ee3d edac 4a3f
00000080: 09eb 18be 47fe 94bf 85c2 d03e 2ba4 8d3f
00000090: a8ca 68be 6e8f bd3c 4e09 f6bd 7159 bfbd
000000a0: 9824 f43e 89c8 fd3e 7994 aabe 41d4 f2be
000000b0: 1f66 a0be 972e 123e 47d8 a63d f94f a13e
000000c0: 3d9c abbe 7154 25bf d231 06bf b996 483f
000000d0: 8a49 573f 502a 48bd

model.0.bias f4 [6]
0.31675208 0.40735278 0.0016555412 0.20740151 0.21310538 -0.06562468
00000000: 542d a23e 8b90 d03e bffe d83a 1061 543e
00000010: 4c38 5a3e 3b66 86bd

model.2.weight f4 [24, 6, 3, 3]
-0.05796161 0.13078438 -0.00048429487 0.121907994 -0.068397544 -0.005132599 -0.07405826 -0.05703857
0.03499537 0.07964735 0.02738949 -0.12912796 0.024895296 0.040200472 -0.18434423 0.033739086
0.06060537 -0.12197912 -0.02362131 -0.04622232 0.08753246 -0.06263301 -0.023208926 0.10517605
0.03241371 0.124699704 0.06567593 0.08626513 -0.20626226 -0.20702733 0.12707724 -0.045075994
-0.08718345 0.0617078 -0.15058537 -0.15559009 0.06410194 -0.10201044 -0.07204479 -0.12117952
0.05431133 -0.082749166 -0.105125874 -0.086770095 -0.06388391 -0.053554453 0.060678657 -0.0053294757
-0.06962999 0.0969007 0.11441312 0.08610802 -0.047639962 -0.019335875 0.06343765 -0.059865076
0.038420837 -0.090237804 -0.067113884 -0.025967939 -0.115145296 0.11710613 0.11931453 -0.12634891
-0.043867 -0.11884163 -0.18902047 0.10299734 0.3778596 0.07570115 0.26773253 0.3245539
0.099506795 -0.14096108 0.07041715 -0.072282024 -0.087941185 0.013550854 -0.14719978 -0.04163774
0.13011675 0.06844452 -0.08891924 -0.14468984 -0.039312582 -0.244466 -0.25949344 0.05933627
-0.45278892 -0.3516627 -0.13230382 -0.14160205 0.07283884 0.013925111 -0.0906126 -0.12014625
0.07323389 -0.108198024 -0.11866344 -0.06127377 -0.057295535 -0.17530234 -0.22381532 -0.07128313
-0.2250512 0.06701026 0.19264564 -0.031925123 -0.106957994 0.094491616 -0.023090277 0.097421415
-0.0548899 0.0045778234 -0.085909255 -0.08355192 0.1281112 0.31719851 0.07837957 0.010810703
-0.027055658 -0.104001835 -0.23544109 -0.05801463 -0.19306463 -0.087683655 -0.034322742 0.05911263
0.027642518 0.049675144 -0.005278139 0.047522668 0.13249998 0.12015017 0.10854268 -0.20651598
-0.25717485 -0.04142696 -0.13923424 -0.24749283 -0.051774293 0.009558785 -0.2271414 -0.063229896
-0.082618915 0.1087261 -0.066884376 0.046016466 -0.09874498 0.10872725 0.06421005 -0.037557118
0.10842368 0.26632768 0.14227486 -0.0038730907 0.16666152 0.06954412 0.03469186 0.21938065
0.086258836 -0.05780689 -0.1289117 -0.027516287 0.13454248 -0.10408152 -0.06795359 0.0265553
0.12317198 0.11222757 0.10564519 -0.1392671 -0.09530847 0.010557566 0.051092993 -0.026107518
-0.17330721 0.12829696 -0.31483635 -0.09051789 0.12971112 0.1099695 0.028767819 0.2496055
0.13678604 -0.007117994 -0.1696436 0.005908413 -0.09092298 0.04180852 0.32154897 -0.16789226
-0.5958523 0.2372986 0.33501732 0.10574536 -0.2234957 -0.39432132 0.0946793 -0.029237652
0.09558259 0.03428803 0.0847788 0.05324847 -0.16473182 -0.13213015 0.06320447 -0.18529408
-0.07306568 0.28432584 -0.07640193 -0.017801885 -0.17312802 0.02783749 0.1731774 0.22601828
0.015903428 0.1345987 0.0580175 0.046812836 0.05661586 0.030881636 -0.05224821 -0.075226955
0.09202802 -0.12789805 -0.08512342 -0.035369854 0.116677865 0.13598743 0.2252723 0.09268596
0.050430622 0.029306324 -0.089782655 -0.0057208017 0.085645564 -0.1535026 0.12731984 -0.04917269
-0.1014375 -0.068157606 -0.08204023 -0.20629416 -0.08103167 0.27223727 0.07166199 -0.0061127096
0.19773923 -0.09245131 -0.2759636 -0.0064314157 0.035209812 -0.047605984 -0.018738039 -0.06929345
00000000: 2769 6dbd 57ec 053e f5e8 fdb9 e6aa f93d
00000010: 0314 8cbd 5c2f a8bb dbab 97bd 47a1 69bd
00000020: 4e57 0f3d 261e a33d ec5f e03c 1f3a 04be
00000030: 38f1 cb3c 40a9 243d bcc4 3cbe ff31 0a3d
00000040: 563d 783d 30d0 f9bd 7a81 c1bc 9e53 3dbd
00000050: 3844 b33d bc45 80bd a520 bebc 8a66 d73d
00000060: 3dc4 043d 8f62 ff3d 1a81 863d c6ab b03d
00000070: 6a36 53be f9fe 53be 8920 023e 9ba1 38bd
00000080: 3d8d b2bd 51c1 7c3d 0d33 1abe 0253 1fbe
00000090: e147 833d d9ea d0bd 388c 93bd f82c f8bd
000000a0: 8f75 5e3d 6578 a9bd 3c4c d7bd 85b4 b1bd
000000b0: 91d5 82bd ea5b 5bbd 2f8a 783d e2a2 aebb
000000c0: 2b9a 8ebd e073 c63d 6d51 ea3d 6759 b03d
000000d0: 1f22 43bd 4566 9ebc 99eb 813d 1535 75bd
000000e0: 2b5f 1d3d 99ce b8bd 0173 89bd b7ba d4bc
000000f0: 4cd1 ebbd 57d5 ef3d 2d5b f43d 9c61 01be
00000100: e2ad 33bd 3e63 f3bd 958e 41be 45f0 d23d
00000110: d076 c13e 3409 9b3d 3d14 893e ee2b a63e
00000120: 38ca cb3d 1a58 10be de36 903d 9908 94bd
00000130: 821a b4bd 6704 5e3c 8abb 16be 568c 2abd
00000140: 533d 053e a42c 8c3d 4a1b b6bd 9329 14be
00000150: 3b06 21bd 4c55 7abe 53dc 84be 970a 733d
00000160: f3d3 e7be 220d b4be a77a 07be 2100 11be
00000170: 882c 953d 2626 643c 1993 b9bd 3d0f f6bd
00000180: a6fb 953d ed96 ddbd d105 f3bd 34fa 7abd
00000190: b9ae 6abd 7582 33be d82f 65be e4fc 91bd
000001a0: d273 66be ad3c 893d e644 453e ebc3 02bd
000001b0: cb0c dbbd d284 c13d d227 bdbc e184 c73d
000001c0: 3bd4 60bd 9101 963b 31f1 afbd 451d abbd
000001d0: 952f 033e d867 a23e 7885 a03d 601f 313c
000001e0: d4a3 ddbc eafe d4bd 7817 71be c0a0 6dbd
000001f0: bcb2 45be 7d93 b3bd 0196 0cbd 1620 723d
00000200: 9072 e23c 2a78 4b3d 3df4 acbb 21a7 423d
00000210: 13ae 073e 4b11 f63d a04b de3d ed78 53be
00000220: 6cac 83be 51af 29bd 6c93 0ebe c36e 7dbe
00000230: 4811 54bd 739c 1c3c c197 68be ad7e 81bd
00000240: 1b34 a9bd caab de3d adfa 88bd c37b 3c3d
00000250: cf3a cabd 64ac de3d 8f80 833d 7ed5 19bd
00000260: 3c0d de3d 1a5c 883e 80b0 113e aed3 7dbb
00000270: 51a9 2a3e 266d 8e3d 0d19 0e3d 52a5 603e
00000280: 79a8 b03d ebc6 6cbd 6e01 04be d669 e1bc
00000290: 81c5 093e b128 d5bd 402b 8bbd 808a d93c
000002a0: 9741 fc3d 91d7 e53d 815c d83d 099c 0ebe
000002b0: 1631 c3bd a4f9 2c3c e346 513d 6fdf d5bc
000002c0: 7277 31be 4760 033e 3b32 a1be 7261 b9bd
000002d0: fed2 043e b037 e13d 7daa eb3c 9698 7f3e
000002e0: a411 0c3e 103e e9bb 0db7 2dbe 5c9b c13b
000002f0: d435 babd 693f 2b3d 11a2 a43e f3eb 2bbe
00000300: c789 18bf 67fe 723e 6487 ab3e 0691 d83d
00000310: 0fdc 64be 7ce4 c9be 39e7 c13d cd83 efbc
00000320: cec0 c33d 9b71 0c3d 82a0 ad3d 111b 5a3d
00000330: 75af 28be 204d 07be 5871 813d bbbd 3dbe
00000340: 76a3 95bd 2893 913e 9d78 9cbd 42d5 91bc
00000350: 7948 31be 730b e43c 6b55 313e 5671 673e
00000360: e847 823c 3ed4 093e c2a3 6d3d d1be 3f3d
00000370: 08e6 673d 7cfb fc3c 3802 56bd 9710 9abd
00000380: 3079 bc3d b5f7 02be 3055 aebd fbdf 10bd
00000390: cef4 ee3d 4a40 0b3e c8ad 663e 23d2 bd3d
000003a0: 5790 4e3d d113 f03c f8df b7bd 9075 bbbb
000003b0: f166 af3d c92f 1dbe 2260 023e 4d69 49bd
000003c0: 77be cfbd 3796 8bbd b504 a8bd c73e 53be
000003d0: eff3 a5bd af62 8b3e 85c3 923d 204d c8bb
000003e0: 277c 4a3e 1d57 bdbd 1a4b 8dbe a0be d2bb
000003f0: 2a38 103d 7efe 42bd 8480 99bc b9e9 8dbd

model.2.bias f4 [24]
-0.09610856 -0.07395821 -0.05606764 -0.10817659 -0.09517524 0.028246507 -0.09386997 -0.01505226
0.013794375 0.071674146 0.0320146 0.015254904 -0.05731787 0.08101568 -0.12541576 0.052964646
-0.09083394 0.106824964 -0.09412263 -0.12982711 -0.126124 0.11435092 -0.0770039 -0.13595298
00000000: 91d4 c4bd 6777 97bd 2fa7 65bd b08b ddbd
00000010: 3ceb c2bd 3865 e73c e63e c0bd c19d 76bc
00000020: cd01 623c e5c9 923d be21 033d b4ef 793c
00000030: 25c6 6abd 8deb a53d fd6c 00be 75f1 583d
00000040: 2507 babd 0cc7 da3d 5ec3 c0bd 66f1 04be
00000050: a626 01be d130 ea3d 39b4 9dbd 4237 0bbe

model.8.weight f4 [20, 96]
0.0938838 -0.045378126 -0.020446632 -0.087161556 0.18640073 -0.32341617 0.034925066 -0.1987123
0.09644876 0.21301293 0.09939992 0.038825724 -0.1279439 0.08156337 -0.12617782 0.047742117
0.095388606 0.06444512 -0.15036695 -0.036235668 -0.20329297 0.16920727 0.04874334 -0.022969738
0.10540139 -0.00036178651 0.0921289 -0.16320048 0.062139194 0.06403432 0.010818734 0.075096704
-0.1972408 0.07174021 -0.026247498 -0.026300464 0.06557938 -0.29314807 -0.19491987 0.007888581
-0.03835065 0.13995294 0.06668021 -0.040210232 -0.05429348 0.08134687 0.04235044 -0.045994658
0.107686 -0.16756403 0.03684737 -0.021544714 0.098842084 -0.2266621 0.041930776 -0.048911706
-0.04446381 0.052002322 0.010914927 -0.15231735 0.028611537 0.06523438 -0.017550446 -0.08518526
0.1979566 0.23549165 -0.026713477 -0.21190733 0.105779134 -0.010241509 0.1717992 -0.08024736
-0.11718976 -0.03988822 -0.07956302 0.033123698 0.0616054 -0.024407955 0.13588226 -0.094931714
-0.029113585 0.25897497 -0.07887554 -0.0991812 0.21505022 0.24559714 0.10084157 -0.07163787
0.053196415 0.12357271 0.0023501553 -0.18822755 0.16820867 0.0075855767 0.1088555 -0.20142065
-0.09195914 0.17197071 -0.0978541 -0.042517446 -0.003392109 -0.06990624 0.04723649 -0.008300365
0.07419603 0.14292037 0.031904947 0.06438886 -0.14738958 0.010141835 -0.06582439 -0.10351383
0.08571966 -0.10496143 0.046266437 -0.29493052 0.022106454 -0.289622 0.118343465 -0.03292976
-0.19582249 -0.11786701 0.038260914 0.0671679 0.068321735 0.008308157 0.06688364 0.0622439
0.045303274 -0.12603603 0.07573809 -0.16964442 0.054641947 -0.18373601 -0.16898799 -0.38873613
-0.064175315 -0.29716423 -0.1047735 0.09924354 -0.07540364 -0.055358235 0.12546371 -0.08113878
0.09884216 0.11695478 -0.045069065 0.032317553 0.09917647 0.01203176 0.019707905 -0.037607525
-0.026508687 -0.05499751 0.00253315 0.19127169 -0.039092623 -0.00085283397 -0.15306531 -0.1519027
-0.17944157 -0.3106581 0.0022017567 0.07858339 -0.06726625 0.06281276 -0.09274721 0.006795691
0.19078638 -0.10246246 0.049639132 0.11679365 -0.06840658 -0.07288797 -0.13163741 0.23462969
0.0769817 -0.14810227 0.15184055 0.0004841227 0.038259454 -0.038347483 -0.028896173 -0.006178337
-0.070801966 -0.16221327 0.017429467 -0.12926063 -0.0792135 0.08347404 0.14473474 0.13336292
-0.059682965 6.3320505e-05 0.056205764 0.03532647 -0.008434641 0.11061829 0.024144141 0.050134093
-0.036260344 -0.00022297523 -0.023688994 0.10042682 0.04132539 0.050113317 -0.2684743 0.08912864
-0.19325069 -0.13417153 -0.009777914 -0.0423803 -0.34128127 -0.21750586 -0.1902076 -0.070348814
0.08815112 0.06814047 0.14239983 -0.043326776 0.020185782 -0.24248026 -0.047946166 0.15665236
-0.25962615 -0.16195323 -0.047643512 0.10580684 -0.009516741 -0.036947537 0.042162202 -0.08684023
-0.014338508 0.05357344 -0.027839078 0.13999039 -0.049321085 -0.16054821 0.15986511 -0.03160727
0.25033212 0.23609363 0.113697045 -0.19151644 0.09086619 0.19354656 0.13646387 0.074324004
-0.081800446 0.13254529 -0.06019205 0.109067455 -0.063534126 -0.13736989 -0.05253554 0.11180319
00000000: 2646 c03d 6ade 39bd b27f a7bc c281 b2bd
00000010: d5df 3e3e ce96 a5be 960d 0f3d 3d7b 4bbe
00000020: ed86 c53d 1020 5a3e 2f92 cb3d b907 1f3d
00000030: ba03 03be b20a a73d c234 01be 3d8d 433d
00000040: 1a5b c33d cefb 833d cbf9 19be da6b 14bd
00000050: 082c 50be ac44 2d3e 19a7 473d 082b bcbc
00000060: afdc d73d 2aae bdb9 14ae bc3d 071e 27be
00000070: ab85 7e3d 6d24 833d 0f41 313c 4dcc 993d
00000080: 7ef9 49be 88ec 923d fe04 d7bc 1274 d7bc
00000090: 7b4e 863d 8117 96be 1399 47be 1b3f 013c
000000a0: 9215 1dbd d34f 0f3e a28f 883d 7cb3 24bd
000000b0: d762 5ebd 3099 a63d a877 2d3d e564 3cbd
000000c0: 7a8a dc3d e895 2bbe 45ed 163d 8a7e b0bc
000000d0: b86d ca3d 1c1a 68be 9bbf 2b3d a457 48bd
000000e0: af1f 36bd 6300 553d 86d4 323c 14f9 1bbe
000000f0: be62 ea3c 9a99 853d f4c5 8fbc 9c75 aebd
00000100: 23b5 4a3e b924 713e 39d6 dabc 3cfe 58be
00000110: bba2 d83d 01cc 27bc 21ec 2f3e ba58 a4bd
00000120: 2f01 f0bd d561 23bd f0f1 a2bd b7ac 073d
00000130: f255 7c3d 31f3 c7bc b824 0b3e 8f6b c2bd
00000140: 9d7f eebc 5e98 843e 8089 a1bd 831f cbbd
00000150: 2036 5c3e d17d 7b3e 0686 ce3d e0b6 92bd
00000160: 7ce4 593d b013 fd3d 1005 1a3b b9be 40be
00000170: e53e 2c3e 6e90 f83b a2ef de3d 3741 4ebe
00000180: 1355 bcbd 1719 303e bb67 c8bd c626 2ebd
00000190: 254e 5ebb 012b 8fbd 0d7b 413d 41fe 07bc
000001a0: 17f4 973d b859 123e c3ae 023d 4ede 833d
000001b0: 4bed 16be f029 263c f0ce 86bd 0fff d3bd
000001c0: ca8d af3d 05f6 d6bd e081 3d3d 2201 97be
000001d0: 9818 b53c 5649 94be 0f5e f23d 5be1 06bd
000001e0: b185 48be 4264 f1bd 7ab7 1c3d 538f 893d
000001f0: 44ec 8b3d f01e 083c 4afa 883d 76f3 7e3d
00000200: ed8f 393d 970f 01be 921c 9b3d 44b7 2dbe
00000210: 3cd0 5f3d 4b25 3cbe 300b 2dbe 6c08 c7be
00000220: 596e 83bd e925 98be 7d93 d6bd 3240 cb3d
00000230: 396d 9abd 51bf 62bd 8f79 003e 172c a6bd
00000240: c26d ca3d fd85 ef3d 579a 38bd 695f 043d
00000250: 081d cb3d dc20 453c 7972 a13c 590a 1abd
00000260: bf28 d9bc 1245 61bd 3403 263b badc 433e
00000270: 961f 20bd b890 5fba 27bd 1cbe 628c 1bbe
00000280: 88bf 37be 940e 9fbe 594b 103b 54f0 a03d
00000290: e3c2 89bd faa3 803d 40f2 bdbd 63ae de3b
000002a0: 815d 433e d7d7 d1bd 6752 4b3d 8231 ef3d
000002b0: c018 8cbd 4a46 95bd f5cb 06be c442 703e
000002c0: 95a8 9d3d 1fa8 17be 177c 1b3e d9d1 fd39
000002d0: f2b5 1c3d 4012 1dbd abb7 ecbc a673 cabb
000002e0: 9f00 91bd 3c1b 26be 3ec8 8e3c e65c 04be
000002f0: b03a a2bd 70f4 aa3d 5835 143e 4a90 083e
00000300: 2076 74bd f0ca 8438 0438 663d 7db2 103d
00000310: 7331 0abc d88b e23d efc9 c53c 6859 4d3d
00000320: ba85 14bd 75ce 69b9 6c0f c2bc 94ac cd3d
00000330: d044 293d 9f43 4d3d 7775 89be 1489 b63d
00000340: 82e3 45be 4364 09be 8b33 20bc f796 2dbd
00000350: 6bbc aebe dbb9 5ebe c8c5 42be 0a13 90bd
00000360: 9388 b43d 3b8d 8b3d 43d1 113e 6b77 31bd
00000370: a75c a53c bf4c 78be 3363 44bd 7a69 203e
00000380: b8ed 84be 11d7 25be d825 43bd 42b1 d83d
00000390: 1bec 1bbc 4d56 17bd 46b2 2c3d 4ad9 b1bd
000003a0: 10ec 6abc d36f 5b3d c70e e4bc a459 0f3e
000003b0: e804 4abd c066 24be aeb3 233e a076 01bd
000003c0: 882b 803e 87c2 713e ffd9 e83d e31c 44be
000003d0: 0e18 ba3d 1231 463e 2fbd 0b3e 2f37 983d
000003e0: fe86 a7bd f4b9 073e f08b 76bd c25e df3d
000003f0: 2e1e 82bd b1aa 0cbe 822f 57bd 12f9 e43d

model.8.bias f4 [20]
-0.034939453 0.10598037 -0.0005287231 0.116856165 -0.020169418 0.037116636 0.095265925 0.04135786
0.10069264 -0.04866655 -0.056583628 -0.06476966 -0.032856017 -0.015345319 0.088228375 -0.003934308
0.020339692 -0.0972198 0.045362145 0.06337432
00000000: ac1c 0fbd 3c0c d93d 029a 0aba 4952 ef3d
00000010: 563a a5bc 9d07 183d c81a c33d dc66 293d
00000020: f137 ce3d 9456 47bd 3cc4 67bd f5a5 84bd
00000030: 0894 06bd ef6a 7bbc 14b1 b43d 5eeb 80bb
00000040: 6d9f a63c 2d1b c7bd a8cd 393d 65ca 813d

model.11.weight f4 [12, 20]
0.32620227 -0.25715992 -0.09274455 -0.020407444 -0.09709625 -0.044173915 0.19742037 0.42892247
-0.025122441 0.3370489 0.2517708 -0.044571277 -0.25891018 0.2616892 0.18460934 0.1875171
-0.08307368 -0.14961612 0.43410254 -0.22086583 -0.004049378 0.23528124 0.3595439 -0.38930744
0.03826326 -0.21671233 0.0054351394 -0.19351187 0.38831174 0.338102 0.24642803 -0.08118721
-0.4260163 0.37653035 0.20153074 -0.022805825 0.20848927 0.2448796 0.22337289 0.053976752
0.16259985 0.60753566 0.33250532 0.19449781 0.011019187 0.13729103 0.22047132 0.18980432
0.5336121 0.37627634 0.096164785 -0.1595636 0.32994807 0.024929225 -0.15140608 0.38878697
-0.22236484 -0.24110323 -0.5054059 -0.22321364 -0.00419141 0.17043227 0.45150274 -0.21855932
0.47561476 0.4200133 0.07631707 -0.39719555 -0.18154237 -0.27857113 -0.048617106 -0.13286547
0.20745021 0.33383748 0.08536038 -0.11231399 0.06648868 0.28744224 -0.16602303 -0.10659955
-0.016528511 -0.19837007 -0.21418515 -0.006246529 0.026936682 0.11807201 -0.038529772 -0.033096943
0.07884335 -0.089401804 -0.06222554 0.203538 -0.028646154 -0.11606132 0.07634035 -0.0666315
0.07152176 -0.14671244 0.08142901 0.11564056 0.25496402 0.38746193 -0.1407285 0.055258006
0.056580856 -0.14207838 -0.29981172 0.30145958 -0.1392678 0.018404474 0.6131368 0.09484084
0.12549756 0.4780107 0.0017499125 -0.24463382 -0.25912994 0.06681086 0.08507177 0.21061149
0.7318513 -0.40326455 0.22367354 0.17575313 0.0029197226 0.46792427 0.19672227 0.33549058
-0.24639037 -0.1255675 -0.1932192 0.15594646 -0.04332406 0.33191413 0.28430665 -0.04833171
0.3991869 -0.17837267 -0.16518879 0.013621562 0.11788777 0.026920207 -0.25204393 -0.22239761
-0.27590147 -0.20244914 0.39424232 -0.08813348 0.1422362 -0.12971024 0.33469483 -0.061920974
-0.14066498 0.43704608 -0.117447995 0.22674057 -0.120965816 0.048309907 0.2899344 -0.06425893
-0.24743488 0.014213665 0.094172284 -0.09706181 -0.1250201 0.014913622 0.0912713 0.15224108
-0.18139192 0.45010158 -0.09413871 0.33760154 0.19483784 0.12965167 0.39252034 0.3587564
-0.27390018 -0.01722452 0.23151875 -0.21921329 -0.36750674 0.092840105 0.10576733 0.6064413
0.570097 -0.02646722 0.07069684 0.32426196 -0.32242736 0.23344073 0.23946506 -0.15659155
0.15204327 0.24356548 -0.43925935 -0.29069614 -0.1334383 -0.02414937 0.20308554 0.017684609
0.05963246 0.14072236 -0.45826885 0.24208616 -0.029986503 0.47095433 -0.25320998 0.19977598
0.0012773285 0.25016722 -0.10074521 -0.1825727 0.66332066 0.17706782 -0.22605719 0.56317884
-0.08900675 0.60321516 0.17719662 0.0382797 0.028643709 -0.04224207 -0.13128442 -0.22063358
-0.035855 0.14878105 0.036761113 -0.191724 -0.07552926 0.08846543 -0.07123409 -0.21790642
-0.05361212 -0.24391007 0.036158737 0.10348307 0.058877084 0.015722936 0.20766355 -0.18572731
00000000: fc03 a73e 77aa 83be dbf0 bdbd 832d a7bc
00000010: 66da c6bd b5ef 34bd 9128 4a3e ba9b db3e
00000020: 94cd cdbc ac91 ac3e 1ae8 803e 5f90 36bd
00000030: e08f 84be 20fc 853e 3b0a 3d3e 7c04 403e
00000040: 8922 aabd f834 19be b042 de3e a72a 62be
00000050: a5b0 84bb 91ed 703e 2316 b83e 4e53 c7be
00000060: f0b9 1c3d d6e9 5dbe 4119 b23b fa27 46be
00000070: ccd0 c63e b51b ad3e a157 7c3e 7b45 a6bd
00000080: cf1e dabe 96c8 c03e 135e 4e3e 48d3 babc
00000090: 367e 553e b8c1 7a3e ddbb 643e ba16 5d3d
000000a0: 9380 263e 7587 1b3f 233e aa3e 6f2a 473e
000000b0: d289 343c 0596 0c3e 3cc3 613e 105c 423e
000000c0: cd9a 083f 4ba7 c03e 0bf2 c43d a464 23be
000000d0: f4ee a83e 6038 cc3c 320a 1bbe 160f c73e
000000e0: 9cb3 63be c4e3 76be 4862 01bf 1e92 64be
000000f0: 1858 89bb cc85 2e3e 5e2b e73e 04ce 5fbe
00000100: c783 f33e fc0b d73e 204c 9c3d 375d cbbe
00000110: 3ee6 39be e0a0 8ebe bb22 47bd e30d 08be
00000120: d46d 543e bfec aa3e 6cd1 ae3d e104 e6bd
00000130: 382b 883d a12b 933e f101 2abe dd50 dabd
00000140: cd66 87bc 8621 4bbe 5a53 5bbe afaf ccbb
00000150: 51aa dc3c bdcf f13d 65d1 1dbd a990 07bd
00000160: 9f78 a13d 4b18 b7bd 35e0 7ebd 446c 503e
00000170: 57ab eabc 8fb1 edbd 5458 9c3d 1976 88bd
00000180: 007a 923d c93b 16be 41c4 a63d f5d4 ec3d
00000190: a58a 823e 6961 c63e 221b 10be 3856 623d
000001a0: 54c1 673d ff7c 11be ec80 99be e958 9a3e
000001b0: 389c 0ebe fbc4 963c 89f6 1c3f ea3b c23d
000001c0: 6f82 003e d2bd f43e 525d e53a 4a81 7abe
000001d0: aeac 84be 22d4 883d 1c3a ae3d 8aaa 573e
000001e0: 9b5a 3b3f b178 cebe ad0a 653e a1f8 333e
000001f0: d158 3f3b c593 ef3e 9071 493e 6cc5 ab3e
00000200: c24d 7cbe c494 00be 41db 45be 6eb0 1f3e
00000210: 9274 31bd a6f0 a93e a490 913e 79f7 45bd
00000220: 3a62 cc3e 53a7 36be 4027 29be f92c 5f3c
00000230: 256f f13d c487 dc3c e70b 81be 33bc 63be
00000240: f542 8dbe d44e 4fbe 21da c93e 537f b4bd
00000250: 5ea6 113e c3d2 04be 1f5d ab3e d9a0 7dbd
00000260: 7b0a 10be 81c4 df3e 9388 f0bd ae2e 683e
00000270: edbc f7bd 9ce0 453d 4872 943e 309a 83bd
00000280: 925f 7dbe 6fe0 683c 66dd c03d 58c8 c6bd
00000290: 4505 00be 4458 743c 73ec ba3d 16e5 1b3e
000002a0: cebe 39be b773 e63e cccb c0bd 1cda ac3e
000002b0: 9283 473e 68c3 043e 6df8 c83e ebae b73e
000002c0: a53c 8cbe 701a 8dbc 4013 6d3e 7379 60be
000002d0: d829 bcbe f422 be3d 8b9c d83d bd3f 1b3f
000002e0: e1f1 113f c9d1 d8bc 81c9 903d aa05 a63e
000002f0: 3315 a5be 160b 6f3e 5436 753e 8959 20be
00000300: 3bb1 1b3e 3b69 793e 9ae6 e0be 20d6 94be
00000310: 0da4 08be e6d4 c5bc a8f5 4f3e 50df 903c
00000320: 2b41 743d 8619 103e 37a2 eabe 6fe5 773e
00000330: 41a6 f5bc ed20 f13e bda4 81be 1392 4c3e
00000340: 086c a73a eb15 803e 8153 cebd 56f4 3abe
00000350: 62cf 293f 4451 353e 897b 67be 7d2c 103f
00000360: 2c49 b6bd 4f6c 1a3f 0873 353e 2dcb 1c3d
00000370: 36a6 ea3c 0506 2dbd 6c6f 06be c5ed 61be
00000380: b1dc 12bd 0f5a 183e d292 163d 4c53 44be
00000390: 16af 9abd 5d2d b53d 2ee3 91bd dc22 5fbe
000003a0: 6298 5bbd 90c3 79be 2f1b 143d efee d33d
000003b0: 1929 713d 63cd 803c c1a5 543e 4d2f 3ebe

model.11.bias f4 [12]
-0.109955326 -0.16304104 -0.049835227 0.31528026 -0.17201996 0.064005524 0.17412494 -0.1914461
-0.10184974 -0.09451853 -0.08378641 -0.16882758
00000000: 4230 e1bd 3bf4 26be 0620 4cbd 6a6c a13e
00000010: 0026 30be 5415 833d cf4d 323e 720a 44be
00000020: 9996 d0bd ee92 c1bd 3698 abbd 23e1 2cbe

model.13.weight f4 [10, 12]
0.14557427 -0.2940466 0.3249747 -0.5317084 -0.22804445 0.0084224725 0.51983494 -0.23613024
-0.018518757 -0.29746044 0.4688341 -0.061740197 -0.26239365 0.63653237 0.6825034 0.24734946
0.07071736 0.31351236 -0.49258173 0.01798177 -0.3168417 -0.0067288517 -0.36167455 -0.07990919
-0.6681081 -0.5597164 0.47515878 0.25643516 -0.17837502 0.041478567 -0.34440842 -0.11072904
0.23463798 -0.055242497 0.60985655 -0.21995184 -0.10558116 0.045388874 -0.6333584 0.66473466
0.17680599 0.23882398 -0.067914404 0.120725006 -0.10714973 0.1969717 0.45799085 0.0368099
0.26976195 0.24573982 0.061154455 0.02463682 -0.17558517 -0.074400865 0.22712184 -0.2748055
0.65213835 -0.105737165 -0.37563512 -0.17520805 0.44725513 -0.0065922397 -0.36544377 -0.23731439
-0.23957671 0.5990118 0.14663202 0.61098653 -0.0013028372 -0.14260247 -0.38342878 -0.055894095
0.0057004564 0.17125675 -0.319072 0.44528344 -0.12853931 -0.20026559 0.72067213 -0.34710974
-0.37444124 -0.47630554 -0.5533868 -0.15512878 0.3312174 0.46565422 -0.22767338 -0.05553951
-0.029608928 -0.5618282 -0.30417845 0.28244635 0.3990669 -0.48590803 0.5102326 0.15216252
-0.21250643 -0.22488187 0.18074583 0.4278769 -0.13152713 -0.53423977 0.18817428 0.23652078
-0.019985462 0.5768867 -0.47464225 -0.157645 0.24327795 -0.17365967 -0.21287458 -0.3147578
0.17815416 0.14175145 -0.5215575 -0.064150065 0.2543936 0.8455753 0.0031787718 0.06428348
00000000: 6c11 153e 478d 96be 1563 a63e 0b1e 08bf
00000010: 7c84 69be 69fe 093c e713 053f 20cc 71be
00000020: a6b4 97bc bc4c 98be 060b f03e 4ae3 7cbd
00000030: 7658 86be c9f3 223f 8bb8 2e3f 2d49 7d3e
00000040: 43d4 903d b184 a03e ac33 fcbe 814e 933c
00000050: 1339 a2be b37d dcbb 682d b9be 6ea7 a3bd
00000060: 2209 2bbf 9349 0fbf 0348 f33e 784b 833e
00000070: f1a7 36be 6ee5 293d 4d56 b0be e8c5 e2bd
00000080: f044 703e f545 62bd 8f1f 1c3f 0e3b 61be
00000090: ef3a d8bd afe9 393d c723 22bf 0d2c 2a3f
000000a0: a10c 353e 468e 743e b516 8bbd ac3e f73d
000000b0: 5171 dbbd f3b2 493e c77d ea3e fac5 163d
000000c0: 3d1e 8a3e 38a3 7b3e 187d 7a3d 28d3 c93c
000000d0: 99cc 33be 7b5f 98bd a192 683e 4eb3 8cbe
000000e0: 8af2 263f ba8c d8bd 3f53 c0be bd69 33be
000000f0: a0fe e43e b703 d8bb 721b bbbe 8b02 73be
00000100: 9953 75be d658 193f b426 163e 9d69 1c3f
00000110: f6c3 aaba 6206 12be c750 c4be 35f1 64bd
00000120: e5ca ba3b ee5d 2f3e 685d a3be 31fc e33e
00000130: cf9f 03be 6c12 4dbe f87d 383f 5eb8 b1be
00000140: c3b6 bfbe 52de f3be c2aa 0dbf 14da 1ebe
00000150: 5495 a93e 3b6a ee3e 3623 69be 667d 63bd
00000160: 6c8e f2bc f9d3 0fbf 47bd 9bbe cf9c 903e
00000170: 7f52 cc3e f0c8 f8be 9b9e 023f 7ed0 1b3e
00000180: 499b 59be 6f47 66be 6f15 393e ae12 db3e
00000190: 0caf 06be f0c3 08bf c2b0 403e 8132 723e
000001a0: 8db8 a3bc d9ae 133f 4f04 f3be b16d 21be
000001b0: db1d 793e d7d3 31be cbfb 59be ef27 a1be
000001c0: 0b6e 363e 4b27 113e cb84 05bf 1c61 83bd
000001d0: e13f 823e 9f77 583f f152 503b 0fa7 833d

model.13.bias f4 [10]
-0.27029717 -0.2132102 -0.01637265 -0.12674493 -0.065553285 0.13454062 -0.04623975 -0.25219682
0.3300103 -0.13347402
00000000: 6464 8abe c653 5abe f01f 86bc 6cc9 01be
00000010: cd40 86bd 04c5 093e e465 3dbd f11f 81be
00000020: 1cf7 a83e 6aad 08be
