CIFAR10/model1.pth (torch, 172267 bytes, 14 tensors)

weight f4 [18, 3, 5, 5]
000000 c4 ba bb 3d 1f 4c 6e 3b a6 50 1b bd d3 8a b8 3d
       0.09166482 0.003636129 -0.03791871 0.090108536
000010 86 48 6d 3d 5f d5 e6 3c 33 04 45 bd 59 2a 03 bc
       0.057930492 0.028177915 -0.048099708 -0.008005702
000020 19 44 ae 3d 96 54 9d 3d 37 05 46 b9 6e 69 c8 3d
       0.08509082 0.07682149 -0.00018884694 0.09785734
000030 eb 92 ad 3d 2f c9 a0 3d ec d1 ce 3c 62 44 35 3d
       0.08475288 0.07850873 0.025246583 0.044254668
000040 2c d0 e8 3d 62 ff c9 3d a2 58 aa bc cd d9 93 bd
       0.11367831 0.098631635 -0.020794217 -0.072192766
000050 47 32 c9 3d f3 5b 22 bb e5 e7 cc 3d b9 59 d7 3d
       0.09824043 -0.0024774044 0.10005168 0.1051516
000060 44 c7 01 3e b2 33 e9 bd 60 e7 63 be 05 15 04 be
       0.1267367 -0.11386813 -0.22256231 -0.12898643
000070 c6 7d e0 bd be 2d 2d be 45 c9 22 bd 21 49 04 bd
       -0.109614894 -0.1691198 -0.039742727 -0.032296304
000080 cd b1 77 be bf 37 ce bd 99 3a 5d be ca 13 63 be
       -0.2418892 -0.100692265 -0.21604384 -0.22175518
000090 e5 83 62 be 1a ed 27 be dd 5a 40 be f7 5f 25 be
       -0.22120626 -0.16399041 -0.18784662 -0.16149889
0000a0 e8 e3 57 be 11 00 91 bd ba 74 49 be 24 1c 7f bd
       -0.21083033 -0.07080091 -0.19673434 -0.062282696
0000b0 57 67 75 bd 87 73 37 be 30 e2 2e be 99 6e 5f be
       -0.059913006 -0.17915164 -0.17078471 -0.21819533
0000c0 bb 06 43 bd 73 f9 98 bd df bc 1a 3e 04 d1 a8 3d
       -0.04761384 -0.07469454 0.15111111 0.082429916
0000d0 ad cb 11 3e d6 0c 8c bd 3e be 52 3d 42 a6 41 3e
       0.14237852 -0.06838386 0.05145096 0.18911079
0000e0 f3 b5 a4 3d dd 4e a4 3d a7 78 63 3d 2c 74 b3 3b
       0.080425166 0.080228545 0.055534985 0.0054764953
0000f0 d5 58 9f 3d 4e 0e 3b 3e 14 b4 ed 3d 59 08 33 3e
       0.07780615 0.18267176 0.11606613 0.17483653
000100 bf 3e 8f 3c da ae f7 3d ef fc c0 3d 36 7b 9e 3d
       0.017485974 0.12093897 0.09423243 0.07738344
000110 19 a4 b2 3d 2a 5e 19 3e f4 4d 98 3d 2e bc 55 3e
       0.087227054 0.14977327 0.074367434 0.20872566
000120 16 15 67 3e 74 89 44 3e fd 87 4b 3e da 82 19 3e
       0.22566637 0.19193059 0.19876094 0.14991322
000130 7c d3 88 3e b2 26 18 3e 0d 11 51 3d 43 91 88 3d
       0.2672385 0.14858511 0.05104165 0.066683315
000140 9f 25 4a 3e fb 5a 20 3d 26 6f fc bd 3f 7f 55 be
       0.19740914 0.039149266 -0.123258874 -0.20849322
000150 24 42 e8 bd 20 06 e3 3d bb 81 35 be 33 31 82 be
       -0.1134074 0.110851526 -0.1772527 -0.2542816
000160 34 af 5d be 0a 68 44 bd d8 fa 47 3d d7 c8 11 be
       -0.21648866 -0.047950782 0.048823208 -0.1423677
000170 45 6b 2c be 20 ee b3 3d ec 19 64 3d 8f 10 84 bd
       -0.16837795 0.08785653 0.055688784 -0.06448471
000180 7f 8f 72 bd 94 2c 1f 3e bd ad 17 3e bc 18 c8 3d
       -0.05921888 0.15544349 0.1481237 0.09770343
000190 25 96 51 3e 39 6e 8e 3e ed 02 87 bc 74 cf e6 3d
       0.20467432 0.27818468 -0.016480887 0.11270037
0001a0 cb 19 38 3d ae 12 1f 3e d3 41 15 bd cc 0d 03 be
       0.044946473 0.1553447 -0.036439728 -0.12798232
0001b0 6f f7 46 be 75 1a 53 bd 04 d6 d9 bd 01 7b 5f be
       -0.19430326 -0.051538903 -0.10636523 -0.21824266
0001c0 bb 4b 98 be f8 b0 5f be 7d 50 f6 bb 0c 9b 1f 3c
       -0.29745278 -0.21844852 -0.007516919 0.009741556
0001d0 03 84 9f bd 38 cd d4 bd ea 7e 21 3c 23 f5 cc 3d
       -0.07788851 -0.10390705 0.009856919 0.100076936
0001e0 8a fa af bd 8a e8 0f bd 63 8f ed 3d 7e c4 76 3e
       -0.085927084 -0.035133876 0.115996145 0.24098393
0001f0 1c 72 3b 3e 7d 85 a1 3d b8 15 34 3e d1 db 23 3d
       0.18305248 0.07886789 0.1758641 0.040004555
000200 9c cf 48 bd ab 90 ae bd ed 18 15 3d 55 6e 99 bd
       -0.049026117 -0.08523687 0.036400724 -0.07491747
000210 60 d5 7d bd d7 cc 1b be 95 bb b4 bd c7 32 9f bd
       -0.06197107 -0.15214859 -0.08824841 -0.07773357
000220 1e 7b 4c be 99 7f 81 bd 57 5e 4f 3c b7 c8 3f 3d
       -0.1996884 -0.063231654 0.01265677 0.046822276
000230 f6 6c 2d bd 73 4b ce bc e6 6b 11 be b2 ca ab 3d
       -0.04234024 -0.025182461 -0.14201316 0.083882704
000240 3b 88 9d 3d 0c 6c f2 bd 5e fa 0b bd a1 ed d8 3d
       0.076919995 -0.118370146 -0.034174316 0.10592199
000250 99 79 3e 3e 75 96 81 3e 97 2b 4c 3e f6 4b af 3d
       0.18601073 0.25310102 0.19938503 0.0855941
000260 04 dd bf bd f1 f7 84 be c1 a1 dd 3d 4c 69 3a 3e
       -0.09368327 -0.25970414 0.10821868 0.1820423
000270 ac fb 7a 3e f5 dc 15 be 70 55 5e be 54 18 02 3d
       0.24510068 -0.1463507 -0.2171228 0.031761482
000280 f6 30 ff 3d 32 01 f2 3d 08 3c 8c be 89 cb 81 be
       0.124605104 0.11816634 -0.2738955 -0.25350598
000290 fe ef 4b 3d 9a ab 19 3e 69 d9 72 3d 0c ce 8a be
       0.04978942 0.15006867 0.05928937 -0.27110326
0002a0 c2 2e 72 be 40 37 67 3e 81 bb 0c 3e 12 11 52 bd
       -0.23650649 0.2257967 0.13743402 -0.05128581
0002b0 67 61 18 be 99 64 0a be b0 2e 46 3e bf 2d 2f 3e
       -0.14880906 -0.13514937 0.19353747 0.17107294
0002c0 a8 2b 48 3e 1f 22 60 be 35 6a 65 be b2 91 ea 3d
       0.19547904 -0.21888016 -0.22403796 0.114535704
0002d0 2a 89 45 3e 9d 96 ec 3d cf 4f 7b be 2e cc 95 be
       0.19290605 0.11552165 -0.24542163 -0.2925734
0002e0 ce 12 74 3d 42 80 17 3e 76 40 4b 3e ed 2a 8d be
       0.059588246 0.1479502 0.19848809 -0.27571812
0002f0 ae b8 59 be 2b 64 a5 3d 91 27 bc 3d 6d bc 0c 3e
       -0.21261856 0.08075746 0.09187234 0.13743754
000300 08 04 d3 bd a7 6f 91 be 61 0f 31 3e 2e 3b 38 3e
       -0.10303503 -0.28405496 0.17291023 0.17991325
000310 68 da d9 3d f4 ce 7c be 9a 3f 34 be cb be 78 3e
       0.10637361 -0.24688321 -0.17602387 0.24291532
000320 35 57 1b 3e df 9e 3f 3e 9e 1a 0e be a5 6c 62 be
       0.15169986 0.18712948 -0.13877341 -0.22111757
000330 2e 33 88 bd c8 e5 1d 3e 50 d9 19 3d 6d a2 29 be
       -0.06650387 0.15419686 0.03756076 -0.16565867
000340 70 62 09 be d9 dd 12 3e 56 8a 0d 3e 51 7f 8f 3e
       -0.13416457 0.1434244 0.13822302 0.28026822
000350 1d 47 44 be 52 2d 9f be 34 a1 6c 3d 05 36 48 3e
       -0.19167753 -0.31089264 0.057770923 0.19551857
000360 6b c1 e3 3d 54 9a b6 bd 28 05 77 be 5b f7 a9 3d
       0.11120876 -0.089161545 -0.2412306 0.082991324
000370 ff a3 5e 3c 38 b2 36 3a 95 52 5b be f6 82 26 3c
       0.013588904 0.00069693057 -0.21418221 0.010163059
000380 81 2f 38 3e 96 ee a8 3d 58 f5 cf bd c5 93 82 3d
       0.17986871 0.08248632 -0.101542175 0.06375841
000390 45 5a f0 3c 87 10 01 3e a9 14 3c bd 25 14 92 bd
       0.029339919 0.12603961 -0.04591814 -0.071327485
0003a0 73 1a d2 bd af 3e 49 3d 21 fa e2 3d 40 cb 5e bd
       -0.10258951 0.049132045 0.110828646 -0.054393053
0003b0 d0 86 5d 3d 2c 69 8a bd 73 98 10 bd e5 0e 16 3e
       0.054083645 -0.06758341 -0.035301637 0.1465412
0003c0 cc cf ac 3c 09 b3 a0 bd 0b c1 b7 bc 4b 36 f2 bd
       0.021095179 -0.07846648 -0.022430917 -0.11826762
0003d0 77 59 8e bc b6 ef 40 3d 27 ac 00 bb a5 34 d6 bd
       -0.017376645 0.047103606 -0.001963386 -0.1045926
0003e0 dc f5 ac 3d 7e 35 19 bd e6 0b ad 3c 6c b7 e6 bd
       0.084453315 -0.03740453 0.021123838 -0.11265454
0003f0 df cd ad bd e9 32 e8 bc e2 e4 81 bc 28 9d d0 3c
       -0.084865324 -0.028344588 -0.01585621 0.025465563

bias f4 [18]
000000 76 39 14 3d 64 8b ee bd d0 61 1f 3d 9e 84 db bc
       0.03618761 -0.116476804 0.03891164 -0.026796635
000010 17 12 b9 bc fc f6 ee bc b7 a2 32 3d 5c 54 d6 3d
       -0.022591634 -0.029170506 0.04361221 0.10465309
000020 d5 c2 b8 bd fc 57 80 3d f6 5c 7a 3d ca ed 86 bd
       -0.09021536 0.06266782 0.06112381 -0.065883234
000030 81 a9 e2 bd e7 4b b9 bd e9 dc 99 3d 65 63 31 3d
       -0.110674866 -0.0904768 0.075128384 0.04330768
000040 d9 2a d7 bc 6d ba 1e bd
       -0.026265549 -0.03875201

weight f4 [28, 18, 5, 5]
000000 b8 f0 1f 3d 42 cb 05 bd 56 b0 6a 3d c6 a9 19 3d
       0.039047927 -0.032664545 0.057297073 0.037515424
000010 be 0a 98 bc cf fd 65 bc 57 96 11 bd be 77 65 bd
       -0.01855981 -0.014037563 -0.035543766 -0.0560224
000020 78 77 87 bc f2 d4 ee bc c6 fa 0b bd fe e8 c9 bd
       -0.01653646 -0.029154275 -0.034174703 -0.09858893
000030 a5 62 b7 bd fe e6 c3 bd 94 1b 85 3c 0b 60 ca 3d
       -0.08954362 -0.09565543 0.016248502 0.098816
000040 c7 94 b8 3d ce f2 c1 bc 09 c5 95 bc 63 b3 6e 3c
       0.09012752 -0.023675349 -0.01828243 0.014569136
000050 73 0b 81 3d 45 da b6 3d 6a 9e 19 3d 39 c8 84 bc
       0.06301012 0.0892835 0.03750459 -0.016208755
000060 7b 07 24 bd b0 ed 26 bc 80 20 fe 3c eb ee 55 3d
       -0.040046196 -0.010188505 0.031021357 0.052229803
000070 c6 e7 e1 3c 50 83 41 3d 7c b1 4b 3c ec b4 6d 3d
       0.027576338 0.04724437 0.012432452 0.05803387
000080 91 9b 1e 3d b8 86 19 3d 53 f4 da bc 94 4a 33 bd
       0.03872258 0.037481993 -0.026727831 -0.043772295
000090 c2 d6 09 3c 2f e1 23 3d b6 c4 4e 3d db a3 98 3c
       0.008413019 0.040009674 0.050480567 0.01863282
0000a0 95 1d 93 bd 8f 44 0e bb f2 a8 f0 3d e1 e7 e0 3d
       -0.07183377 -0.0021708345 0.11750974 0.109817274
0000b0 73 1b 92 3d ac 37 ec bd 73 be 93 bd 45 1d e9 bd
       0.07134142 -0.11534056 -0.0721406 -0.11382536
0000c0 fd 7a 00 3b 76 98 90 bc cb 20 80 3c c1 34 03 3d
       0.0019604557 -0.017650824 0.015640637 0.032032732
0000d0 ee 78 46 3d a1 60 5c 3b fc 6d 4a bd 3f 3c 74 3c
       0.04845517 0.0033626931 -0.049421296 0.014906942
0000e0 13 12 dc 3c ec 9e 11 bb 7f cc 1a bd 83 b8 db bd
       0.026864087 -0.002221997 -0.03779268 -0.10728552
0000f0 3a c8 54 3d 92 f4 15 bb 68 11 ec 3b dc c2 a7 bd
       0.051948763 -0.002288137 0.0072042234 -0.08191463
000100 8c 4d f9 bd 87 88 d7 bc db ef 31 bc b5 e1 5e bd
       -0.12172994 -0.026310218 -0.010860409 -0.05441447
000110 b3 bf 98 bd 29 fa aa bd e5 de a2 bd d0 15 ca bd
       -0.07458439 -0.083484955 -0.0795267 -0.09867442
000120 e1 70 95 bd c3 81 67 bd 9d 79 18 be 0a 75 e1 3c
       -0.072969206 -0.056520235 -0.14890142 0.027521629
000130 e5 09 cf bc 5f 94 54 3c f3 df 69 bb 00 60 09 3d
       -0.025273273 0.012974828 -0.0035686463 0.03353882
000140 fc f0 d7 3a 9b 0c 98 3c 8d c9 4f bc 3d 72 40 bd
       0.0016475017 0.018560698 -0.012682331 -0.046983946
000150 7a 40 ca bc 58 9b c8 bc ac a6 77 3c a7 fe 74 3c
       -0.024688948 -0.024488136 0.015115421 0.014953292
000160 e2 ce e8 bc 2a 67 fe bc 93 9b 67 bd 91 05 fd 3b
       -0.028418962 -0.031055052 -0.05654485 0.007721611
000170 2a 23 97 bc 60 59 e4 bc 6f 99 40 3a 44 3f 98 3c
       -0.018449385 -0.027874649 0.0007347082 0.018584855
000180 fc d1 23 3b 15 81 7c bc 54 7c e9 bc 55 7d e7 3c
       0.0024996987 -0.015411635 -0.028501667 0.028258005
000190 ec ea 24 bc 20 44 0b 3b 1d a2 c5 3c 6b 15 77 3d
       -0.010065775 0.0021250322 0.024125153 0.06032316
0001a0 2c d0 ff bc f8 7a cc bb 71 74 9e bc 22 40 68 3d
       -0.031227194 -0.006240245 -0.019342633 0.056701787
0001b0 00 1e 0c bc 34 a1 7b bd d5 48 54 3d 0e 54 ee bd
       -0.008552074 -0.061433032 0.05182727 -0.11637126
0001c0 59 b7 52 be 9d 0c 19 be 38 d7 0f be 52 04 0c 3e
       -0.20577754 -0.14946218 -0.14046943 0.13673523
0001d0 87 22 0c 3e 3f 16 7a 3d 99 88 9c 3c dd ab b3 bd
       0.13685046 0.06105637 0.019108104 -0.08773015
0001e0 85 17 e6 bc c0 37 cd 3d 03 b1 39 3e 6c 70 ec 3d
       -0.028087387 0.10020399 0.18133931 0.1154488
0001f0 41 66 88 39 36 fe dc 3c 32 90 a8 3d 91 c1 18 3d
       0.00026016127 0.026976686 0.08230628 0.037293974
000200 e7 3b 8e 3d a0 50 e9 3d cf 01 90 3c 88 34 85 bc
       0.06945019 0.11392331 0.017578987 -0.0162604
000210 91 81 4d 3d 7e 6b 81 3d 85 f2 40 3d 85 21 8f bd
       0.050172392 0.06319331 0.047106285 -0.06988815
000220 de 35 f8 bd 3e ec c1 bd 68 68 ab bd 59 b8 bc bd
       -0.12119649 -0.09468888 -0.08369523 -0.09214849
000230 a9 58 5c 3d c1 05 98 bd d5 48 d8 bd d1 1c c7 bd
       0.05379549 -0.074229725 -0.105607666 -0.09722293
000240 4f 7f 91 bc f8 d0 e3 3d b2 e3 c2 3d 8d 15 a0 3c
       -0.0177609 0.11123842 0.09516086 0.019541526
000250 31 dd d6 bc 57 b9 d0 bc 9c 4b 74 3c 46 3b 08 bd
       -0.02622852 -0.025479002 0.014910605 -0.033259653
000260 3d 53 47 3d ba 73 ce 3c a4 72 bf 3b 48 2e e8 3c
       0.048663367 0.025201667 0.0058425236 0.028342381
000270 a4 9e 06 bd 7b a7 49 3d e2 65 f8 bb 80 c2 da bb
       -0.032866135 0.049231987 -0.0075805048 -0.0066760182
000280 e7 35 d4 3c 37 9d cd 3c 7f d5 1a bd f5 8c 10 3d
       0.025904609 0.02509938 -0.037801262 0.035290677
000290 0a 87 5a bb f4 28 be 3c 68 c8 8d 3c 15 da 14 3d
       -0.003334465 0.023212887 0.017307475 0.03634079
0002a0 b6 52 a7 ba a3 81 66 3d 98 00 70 3d 21 29 41 3c
       -0.0012765739 0.056275975 0.058594316 0.011789591
0002b0 7d 33 f4 bb 08 ed 84 3c f2 db 11 3c 27 61 e0 bb
       -0.007452427 0.016226307 0.008902537 -0.006847519
0002c0 ae 84 34 bd da 11 0d bd 1f c8 2b bd 92 bb 7d bd
       -0.044071846 -0.034440853 -0.041938897 -0.06194646
0002d0 97 2f 9f bc ab c4 86 3c 47 ca 27 bd a9 13 ab bc
       -0.019431872 0.0164512 -0.04096439 -0.020883398
0002e0 2c 82 3d bd 2b ad af bc 72 08 a4 3d 28 54 b9 3d
       -0.04626672 -0.021444878 0.08009423 0.09049255
0002f0 0c 1d c7 3c 8c b6 4b 3c 77 05 95 bd 56 cc 54 bd
       0.024305843 0.012433659 -0.07276433 -0.051952682
000300 e0 b3 ac bc 55 bf 6f 3d 11 3e 40 3d 29 7c 32 3d
       -0.021081865 0.058532078 0.04693419 0.04357544
000310 12 be ee bb 93 26 0d bb 7d 68 97 3c c6 d6 d6 bc
       -0.0072858417 -0.0021537885 0.018482441 -0.026225459
000320 1f 62 22 3c 70 89 be 3c 3b ae fc 3c 9e 6e 2c bc
       0.009911089 0.023258895 0.030844798 -0.01052442
000330 b0 85 97 bc 3f 11 03 bd bf 8f a8 bc 6c e7 1c bb
       -0.018496364 -0.03199887 -0.020576356 -0.002394165
000340 25 02 bf 3c 5c 0f 3a 3c 6e da 53 bd 39 be 0d be
       0.023316452 0.011356201 -0.051721983 -0.13842095
000350 1b 38 22 be 9c c9 09 be 41 3f 0e be 02 83 f0 3d
       -0.15841715 -0.13455814 -0.13891317 0.11743738
000360 12 52 2e 3e e1 59 21 3e 75 3d a2 3d 90 30 55 3d
       0.17023495 0.15756942 0.07921878 0.052048266
000370 2d d7 f9 bc b2 99 55 3d 36 fd 0a 3e 6a d6 b0 3d
       -0.030498112 0.05214853 0.13573155 0.08634646
000380 a9 ee 89 3d e6 90 db bc cc ba 7e bb 72 29 d8 3c
       0.06734974 -0.026802491 -0.0038868664 0.02638695
000390 6e 5b 6d bc 2b 38 b4 bc 56 60 35 bd 9c 54 ae 3c
       -0.014487131 -0.02199944 -0.044281326 0.02128058
0003a0 d2 cc a5 bc 69 ff d5 3c 7d a6 a1 bc a7 0d 3b bd
       -0.020239267 0.026122766 -0.019732708 -0.045667317
0003b0 37 20 f9 3c 0e 66 ce 3b bb 49 d2 ba 29 6b ae bc
       0.030410869 0.006298787 -0.0016043702 -0.021291332
0003c0 c4 02 16 bc 53 37 5e bc da 5d 98 bc 03 de 8a bc
       -0.009155933 -0.013562995 -0.01859944 -0.016951567
0003d0 d0 39 35 bd 3c 74 1f bd 63 4a 89 bc 2f 20 bb bc
       -0.044244587 -0.03892921 -0.016759103 -0.022842495
0003e0 52 a9 58 3d 32 bd 5f 3c da ac d5 3c 72 f1 33 3d
       0.05289585 0.0136559475 0.026083399 0.043931432
0003f0 ce d3 4f 3c 63 c7 8d bd e2 75 90 bd 41 13 24 3b
       0.0126847755 -0.069227956 -0.07053734 0.002503589

bias f4 [28]
000000 80 0c ef 3c 68 b6 20 bc be b7 2d bc 67 a4 a2 3c
       0.029180765 -0.009809114 -0.01060289 0.019853784
000010 75 cf c7 3b e9 42 30 b9 83 42 34 3b af fa c5 3c
       0.006097729 -0.00016809594 0.0027505464 0.024167387
000020 4d ec 12 3d ed b9 0f 3d 78 19 97 3c 71 89 3d 3c
       0.035869885 0.035089422 0.018444762 0.011568413
000030 75 1f 00 bd 83 5b 23 3d 27 74 a2 bc 30 3d c5 bc
       -0.03128 0.039882194 -0.019830776 -0.024077028
000040 03 53 b8 bc 11 0f a3 3c d5 07 27 bb 81 f1 d8 3a
       -0.02250052 0.019904645 -0.0025486846 0.0016551466
000050 8a e1 e3 bc 2f b9 88 ba 49 e6 d2 bc 8d fb 8b bc
       -0.027817506 -0.0010431166 -0.025744574 -0.017087722
000060 6c 1f a4 3a 78 01 f5 bc 98 ea e0 bb e5 09 47 3c
       0.0012521571 -0.029907927 -0.0068639033 0.012148355

weight f4 [32, 28, 3, 3]
000000 9f ca db bd ba 24 bc bd 47 ed 1a bd de 0a a1 bc
       -0.10732006 -0.091866925 -0.03782394 -0.019658502
000010 b9 e0 eb 3c a7 00 9c 3d 10 72 71 3c de 78 2c 3d
       0.02879368 0.07617312 0.014736667 0.042107455
000020 3b ed 46 3d 83 04 01 bd 80 b9 1e bd c3 ee fb 3c
       0.048566084 -0.031498443 -0.038751125 0.030753499
000030 64 a4 95 3d 6b 23 30 bd 70 64 0e bc 75 f1 b2 3d
       0.07306746 -0.043002527 -0.008690938 0.087374605
000040 ff bc 51 bd d5 d9 a4 bd fa 01 54 3d 58 38 2f 3d
       -0.05120563 -0.08049361 0.051759697 0.042778343
000050 54 56 75 3d 93 2c c0 bc e2 b6 b4 3b e3 11 86 bc
       0.059896782 -0.023458755 0.0055149654 -0.01636595
000060 b8 a8 0d bd 41 6b 55 3d a4 e7 cc bc 0a 85 0e bc
       -0.03458473 0.05210424 -0.025012799 -0.008698711
000070 47 56 2b 3c 8f 95 7b bd 08 18 3d bc dc 77 6a bc
       0.010457582 -0.061421927 -0.011541374 -0.014310803
000080 9c 4f aa bd 7f fc 0f bd e2 f4 8c bc 0d 83 b9 bd
       -0.083159655 -0.03515291 -0.017206613 -0.09058199
000090 85 cb 26 3c d4 47 b0 bc 6a 00 ce bd e5 05 a9 bd
       0.010180359 -0.021518625 -0.10058673 -0.082530774
0000a0 2f 6b f7 bd 80 56 84 bd 54 a1 6a 3d e6 bc f6 bb
       -0.120809905 -0.06461811 0.05728276 -0.0075298427
0000b0 d1 33 22 be c6 98 1e 3d 27 55 43 bd 86 f5 29 3d
       -0.15840079 0.038719915 -0.04768863 0.041493915
0000c0 1c 51 2d bd 81 5f 88 bc 6e 2f 54 bd 1c 2c 42 bd
       -0.04231368 -0.016647102 -0.051803045 -0.047405347
0000d0 e0 1a 32 3d cf ac 07 bd d6 6d 38 bc 05 61 eb 3c
       0.04348266 -0.033123787 -0.011256656 0.028732786
0000e0 39 ab bd bd 6e 71 79 3d f2 b3 91 bc e2 6d 83 bd
       -0.09261174 0.06089919 -0.017786 -0.06417443
0000f0 68 a6 26 3d 94 9a 11 3d 1d 79 2d bc 0a d9 0f bc
       0.04068604 0.035547808 -0.010587958 -0.0087797735
000100 3b 6f 60 3c dd a1 2b 3d 4d b2 8c 3d ba 89 c4 3d
       0.013698394 0.04190241 0.06869946 0.09596582
000110 f1 95 d5 3d d4 81 91 3c 1b f2 ab 3d df 4e a2 3c
       0.1042899 0.017762102 0.08395787 0.019813
000120 0a 37 6f 3c 76 64 48 3d c6 c7 10 3b c6 8f 73 3d
       0.014600525 0.048923932 0.002209173 0.059463285
000130 3c 85 12 3b 04 85 f8 bb aa e1 4c bc 58 ed 00 bb
       0.0022357246 -0.007584216 -0.012504974 -0.0019672718
000140 e7 c5 90 3c 7e a8 80 3d e1 5f 63 3d 4d 4e 50 bc
       0.017672492 0.06282137 0.05551136 -0.012713981
000150 a9 80 ce 3c 0c 18 cd bd 6a 85 0b bc 01 50 cc bd
       0.025207834 -0.10014352 -0.008515695 -0.09976197
000160 e1 c9 98 bd 27 85 ea ba f2 1b 03 bd 9d 17 36 bb
       -0.0746038 -0.0017892466 -0.032009073 -0.002778507
000170 56 49 1c 3d 7a 54 68 3d 28 79 92 bc af bf 4d 3d
       0.038155876 0.056721188 -0.017880037 0.05023163
000180 a8 e1 4a 3d f6 96 ba 3c c3 e8 19 bc 60 21 3a 3d
       0.04953161 0.022777062 -0.009393874 0.045441985
000190 08 0f b1 3d 97 4e 8d 3c 04 55 a2 ba 8c ea 2b 3b
       0.08645445 0.017249389 -0.0012384956 0.002623233
0001a0 13 30 61 3d 9f e6 a6 bb 34 eb 0a bd d7 4c ab 3d
       0.054977488 -0.00509341 -0.033915713 0.083642654
0001b0 61 5c 1e 3d 35 4f b7 3c ca e4 9e 3d 3e 16 03 be
       0.03866232 0.022376636 0.07758482 -0.12801453
0001c0 57 40 b9 bd 07 10 99 3d 25 02 0a bd 15 e0 40 3d
       -0.09045475 0.0747376 -0.03369345 0.0470887
0001d0 48 74 a7 3d b7 87 b0 3d 03 ee 39 3c 92 14 ae 3d
       0.08176476 0.086196356 0.01134825 0.08500017
0001e0 4d c1 1e bd 66 2a 4e bd bf a1 59 bc 57 e8 1c 3c
       -0.038758565 -0.050333403 -0.013283192 0.0095768785
0001f0 e2 d8 50 3d 56 a3 79 3d 1b 74 02 3a 66 82 bd 3c
       0.050988086 0.060946785 0.00049764075 0.023133468
000200 5e 05 3d bd 00 34 15 3d 66 23 27 3d f6 89 8a bd
       -0.046147697 0.036426544 0.040805243 -0.06764595
000210 78 fa 7d 3d d9 c7 fb 3b b1 9d d9 bc 87 ca 46 bd
       0.062006444 0.007683736 -0.026564451 -0.04853299
000220 62 10 65 bd 2a cb d6 38 5a 6c 01 bc 15 be 82 bd
       -0.055923827 0.000102421574 -0.007899368 -0.063839115
000230 cc 58 13 bd 49 0a 6c bc b7 f6 bd bd 37 d3 c2 bd
       -0.035973355 -0.014406749 -0.09275573 -0.09512942
000240 7d dc b7 3c 99 d6 be 3c b9 f4 c8 3c de c6 fa 3d
       0.022444004 0.023295688 0.024530755 0.12244962
000250 81 05 8a 3c 0a 6b 18 bd 78 50 52 3d 1d 4a cd 3d
       0.016848328 -0.037211455 0.051346272 0.100239016
000260 99 d1 d9 3c ee 08 af 3b d5 ba 53 bd 5a 06 8c bc
       0.026589202 0.0053416407 -0.05169185 -0.017092872
000270 41 66 8a 3d 4c 05 69 ba 0e 2e 5d bd 18 11 63 bd
       0.06757785 -0.0008889034 -0.053999 -0.055436224
000280 ab 19 52 3c 48 d0 51 3c 9a 7e f5 3d fb d7 b0 3d
       0.0128235025 0.012806006 0.11987038 0.08634945
000290 f8 21 eb bb df a3 ed bb 98 fa 3a 3d 7b fa a4 3c
       -0.0071756802 -0.007252201 0.04564914 0.02013897
0002a0 13 61 37 3d ee 7b ca 3b c6 6f d6 bc 51 eb 94 3d
       0.04477031 0.0061793244 -0.026176345 0.072714455
0002b0 e8 ce e2 3c 1a d1 60 3d f7 60 82 3d 6f e8 a8 bc
       0.027686551 0.054886915 0.06366151 -0.020618645
0002c0 e5 78 41 bd 51 f7 55 bc 4f 56 82 3d 74 80 03 bd
       -0.047234435 -0.013059453 0.06364118 -0.032104924
0002d0 1a b3 ba 3c d7 4d 0a 3b 19 93 93 bd 08 ab c2 3c
       0.02279048 0.0021103525 -0.07205791 0.023763195
0002e0 4a 22 db 3c b4 c7 0e 3d ff b8 14 be 09 55 01 bd
       0.026749749 0.03485842 -0.14523695 -0.031575236
0002f0 4e 0d a4 bd 2f 60 97 3d 78 16 94 3d 02 24 7d 3d
       -0.0801035 0.073913924 0.07230848 0.061801918
000300 17 de e8 bb 4d 62 f9 bc 0b 5f 58 bc 68 7b 1e bc
       -0.0071065533 -0.030442381 -0.013206254 -0.009672977
000310 02 28 97 bd b2 8d b8 bc a3 bf 95 3c e8 ab ee bc
       -0.07380678 -0.022528503 0.018279856 -0.029134706
000320 16 aa f1 bc 2c 0e c5 3c d1 23 0d bb 22 7a d3 bc
       -0.029500049 0.02405461 -0.002153624 -0.025815073
000330 35 10 d2 3d 92 21 d9 3c 40 d4 5a bd bb be a2 3d
       0.102569975 0.026505265 -0.053425074 0.07946535
000340 52 a9 b0 3d 86 67 f9 3d 84 d3 ad bd 5e 65 b9 bd
       0.08626045 0.12177949 -0.08487609 -0.090525374
000350 35 fd af bb 93 de ad bd ef 21 49 bd 64 dc f7 bb
       -0.005370761 -0.08489718 -0.049104627 -0.0075641144
000360 e2 09 44 bd 20 6d 5b 3d 55 8a d5 3d 88 6a 6b 3d
       -0.047860987 0.053570867 0.10426775 0.057474643
000370 42 2b fd 3c a8 b3 64 3d 64 85 72 bd 49 d3 23 bd
       0.030904416 0.055835396 -0.059209242 -0.03999642
000380 ba 94 af 3d ec f1 ab bc fc 85 0e 3c 86 ec 03 3d
       0.08573289 -0.02098938 0.008698937 0.03220799
000390 69 3c f1 bd 05 ac 25 3d 11 46 9c bc 1d 94 99 bd
       -0.117791004 0.040447254 -0.019076379 -0.074989535
0003a0 c4 ff 96 3b bf 45 7b 3d a3 a5 e7 bc 16 e7 48 3d
       0.0046081264 0.061345812 -0.028277224 0.049048506
0003b0 00 1b 99 3d 11 bb 32 3d ef ae 3f 3d de 81 75 3d
       0.07475853 0.04363543 0.04679769 0.059938304
0003c0 05 61 65 3c 25 e6 b5 3b 92 a3 03 3d a2 9c 69 bd
       0.014000182 0.005551117 0.032138415 -0.057034142
0003d0 af f3 2b bd 78 ec a4 bc c6 fb 6f 3c aa 9a 11 3d
       -0.04198044 -0.020132288 0.01464743 0.03554789
0003e0 77 88 fa bb 47 b3 8c bd f6 b1 62 bc e4 e5 40 3d
       -0.0076456624 -0.06870132 -0.0138363745 0.04709424
0003f0 19 ea 3f bc 41 da 87 bd a3 76 87 3d 0e 6b ed 3b
       -0.011713528 -0.066334255 0.06614425 0.007245428

bias f4 [32]
000000 a9 73 b1 3c 09 18 6a 3d af 9b 11 bd 9f dd 2b bd
       0.021661596 0.057151828 -0.035548862 -0.0419594
000010 2b 85 0f 3d bc 5c eb 3c d6 6f 41 3d 72 82 e7 bb
       0.03503911 0.028730743 0.047225796 -0.007065111
000020 98 07 c5 bc b1 04 c1 bb fc f7 7b bd b1 d4 38 bd
       -0.024051473 -0.005890452 -0.061515793 -0.045124713
000030 de fc 52 3b 69 8d 64 3d d1 78 53 bd 55 d3 42 bd
       0.0032194178 0.05579892 -0.05162889 -0.047564823
000040 c0 38 52 bd df 49 ed 3b 98 e4 03 3d a6 89 90 bc
       -0.051323652 0.007241472 0.032200426 -0.01764376
000050 01 81 ba 3c 92 05 e4 3c 48 e5 e9 3c 16 f9 86 3d
       0.022766592 0.027834687 0.028551713 0.06590478
000060 02 22 44 bd 6c 37 a9 bb fd d2 57 3c 87 67 54 bd
       -0.047883995 -0.0051640775 0.013172862 -0.051856544
000070 11 ae d3 ba 4f cc 78 bd 3b 69 24 3d ac a6 26 bd
       -0.0016149898 -0.06074172 0.040139418 -0.040686294

weight f4 [60, 288]
000000 e3 a8 5e 3d 34 06 ca 3d 9d c0 22 bd 05 ac cd 3d
       0.05436028 0.098644644 -0.03973447 0.10042576
000010 2b ae fd bc a1 53 03 bd 91 c1 0a 3d 56 07 07 bd
       -0.030966839 -0.032062177 0.033876006 -0.03296598
000020 4e 72 00 bd ea d4 72 bc 28 06 ba bc b5 40 1b bd
       -0.03135901 -0.0148212705 -0.022708014 -0.037903506
000030 ab bd e4 ba a1 e8 c7 3c c1 bc 1f bb ff 22 f7 bd
       -0.0017451545 0.024402918 -0.002437398 -0.12067222
000040 28 b5 9b bd c0 10 a4 3b ec 1e 21 3d aa bf 7d bc
       -0.07602912 0.0050068796 0.03933613 -0.015487591
000050 74 eb 1e bd d1 bd 15 bd bb fa 55 bd 97 d1 87 3c
       -0.038798764 -0.036557976 -0.05224107 0.016579432
000060 4e 1f be bc 4a b8 09 bd f1 c0 55 bd a3 98 26 bc
       -0.023208287 -0.033623017 -0.052185956 -0.010168227
000070 2c e0 55 3d 01 02 04 3d be 93 c7 3c 38 85 88 3c
       0.05221574 0.032228474 0.024362441 0.016665086
000080 a1 81 89 bb 1a ab eb 3b 02 9e 5a bd 45 61 31 3d
       -0.004196361 0.0071920278 -0.053373344 0.043305654
000090 b7 c7 95 bb 76 f4 e6 3c 2c 1b 84 3c 11 8c 06 3d
       -0.004570927 0.02819274 0.016126238 0.03284842
0000a0 0a 91 87 3d f7 f8 a5 bd 28 19 13 bd a1 0e 8d bd
       0.06619461 -0.08104127 -0.035912663 -0.06887556
0000b0 83 09 10 bd 7b b7 84 3d d6 fe 89 3d 1a f4 a8 3d
       -0.03516532 0.064803086 0.06738059 0.08249684
0000c0 09 e3 dd 3c 1b ee 59 3b 1b 43 92 3d a2 41 78 bd
       0.027085798 0.0033253494 0.071417056 -0.060609467
0000d0 68 1f 35 3d 91 b7 df 3c f1 32 b5 3c df 9c e0 bd
       0.044219404 0.027309211 0.022119017 -0.10967421
0000e0 8a 78 43 bb 23 b8 0f 3a d6 be 6f bd ea 26 f4 bb
       -0.0029826486 0.00054824556 -0.058531605 -0.007450928
0000f0 9c 35 8a 3d 41 a1 15 bd 98 ba fe 3d ff 9f ee bc
       0.067485064 -0.036530737 0.12437934 -0.029129026
000100 38 e8 8c bb 3a f1 d5 3b 81 fc de bd 1a 21 9e 3c
       -0.0043001436 0.0065290006 -0.10888005 0.019302893
000110 d2 8d 45 3d 41 cf 35 bd 7e e5 07 bc 62 ba 1d 3d
       0.048230954 -0.044387106 -0.008294461 0.038507827
000120 29 8e 05 bd 21 1e c9 bd 31 3e a3 bd 85 97 d3 bc
       -0.032606278 -0.098202 -0.079708464 -0.025829086
000130 cd 4c 4f bd 4e aa 90 bd 84 f1 95 bd b2 b2 cb bb
       -0.050610352 -0.07063733 -0.07321456 -0.0062163705
000140 71 b4 bd bd 97 8a 4e bc 11 6f 52 bd 62 58 4f 3c
       -0.09262932 -0.012606285 -0.051375452 0.012655349
000150 3e 36 b6 bc 15 2a 40 bd 39 35 de 3c 33 c4 94 bb
       -0.022242662 -0.046915133 0.027124988 -0.0045399903
000160 a5 a1 41 3d 70 83 eb 3c 0c 6e 25 3d d2 23 77 bc
       0.047273297 0.028749198 0.040388152 -0.015084224
000170 ca ae 85 3c c0 b3 21 3d 83 fc e1 bb 42 ba d6 3b
       0.016318697 0.039478064 -0.006896557 0.0065529654
000180 bd f6 fe 3c e3 2c 09 3c 17 d1 cf bb b8 e7 4c bd
       0.031123513 0.008372518 -0.006342064 -0.05002567
000190 29 bd 6e 3c 10 df 3f 3c 4f 4f 30 bd b3 a3 c4 bc
       0.0145714665 0.011710897 -0.043044385 -0.02400384
0001a0 ad c8 e6 bc a4 0c d0 bc 8b 1e 04 3d 69 fe d8 bd
       -0.028171862 -0.025396653 0.03225569 -0.105954
0001b0 15 d4 f4 3b 89 e8 0e 3d f0 9e 8b bd 6a 57 a0 ba
       0.007471571 0.03488973 -0.06817424 -0.0012233083
0001c0 30 1b bd bc 1f 7c 1a bd 7d 47 bf 3d 85 21 20 3d
       -0.023084253 -0.037716027 0.09339807 0.039094467
0001d0 22 19 15 3d 4b 14 66 3d a0 4b 34 3c d9 83 8d 3b
       0.03640092 0.056171697 0.0110043585 0.004318696
0001e0 e8 22 5f 3c a7 3e 1b 3d 7c 65 36 3d eb 2b 79 3c
       0.013619162 0.037901547 0.044530377 0.015208225
0001f0 ae a5 f6 3c ce f6 13 bc 5d f3 9a bd ab 95 2c bd
       0.0301083 -0.009031011 -0.07565949 -0.042134922
000200 91 79 93 3d 19 9c 9c bd df b2 19 bd 87 81 b8 bc
       0.07200921 -0.07646961 -0.0375241 -0.022522701
000210 76 ab b8 bd 9c 06 58 bd 52 3e 20 bc eb 8b 81 bc
       -0.090170786 -0.05274068 -0.009780483 -0.015813788
000220 a1 79 a9 bc b9 b3 f5 bb 59 d3 30 3d 63 eb 5d bd
       -0.02068788 -0.0074982313 0.043170307 -0.05417956
000230 c8 66 4b 3b a4 ac 44 3d b2 17 27 3d 22 85 0e 3d
       0.0031036604 0.048016205 0.040794082 0.034794934
000240 28 bf 98 3c f5 e2 36 bb d5 c3 a9 bb 16 ff 52 3d
       0.018645838 -0.0027906273 -0.0051808157 0.0515128
000250 be b3 8d bd 2c bd 6f bc 2d 1e 1c 3d 23 c8 0f bd
       -0.06919049 -0.014632504 0.038114715 -0.035102975
000260 25 ca 2a 3d 3e 3f 91 3c d6 13 26 bc 65 16 c1 bc
       0.041696686 0.017730352 -0.010136565 -0.023570249
000270 f0 e4 37 3d fa b9 88 3d cb e3 68 bd bc ac 48 3b
       0.044896066 0.06676097 -0.056857865 0.0030620536
000280 57 0f 80 3d 7f 6e 88 bd c4 25 80 3d a4 f4 b7 3c
       0.06252926 -0.066617005 0.06257203 0.02245552
000290 3d ae e8 3c 74 0e d6 bc fd 26 92 3d 4b 22 01 bd
       0.028403396 -0.026129939 0.07136343 -0.031526845
0002a0 09 50 32 3d e2 33 90 3d ea 64 6d 3c cc 18 5e 3c
       0.04353336 0.07041146 0.014489392 0.013555717
0002b0 85 96 0d bc f5 26 3b bd db 64 d0 b9 d4 05 42 bd
       -0.008641844 -0.04569145 -0.00039747995 -0.04736884
0002c0 ee 7a 56 bc ab 64 10 3d 08 cd 99 bd 46 d6 51 3d
       -0.013090832 0.035252254 -0.0750981 0.051229738
0002d0 98 35 b6 bc eb 10 01 bd d1 32 c7 bc 99 90 90 3c
       -0.022242352 -0.031510275 -0.024316223 0.017647075
0002e0 a0 9c e0 bc ce 52 a2 bc c4 e2 e8 3c 94 45 7b bc
       -0.027418435 -0.019814875 0.028428443 -0.015336413
0002f0 31 02 93 3b 8b 3e 7d 3c f8 1b d9 3c b8 91 55 3c
       0.004486345 0.015456806 0.026502594 0.01303523
000300 a1 d6 10 bc 55 39 67 bd 52 19 a5 bc 73 61 0d bb
       -0.008840234 -0.05645116 -0.020153675 -0.0021572977
000310 fc 04 21 3d 34 10 a6 ba 8e dd 86 bd 1c f8 64 3b
       0.039311394 -0.0012669624 -0.06585227 0.0034937924
000320 63 00 3a bd a6 de d5 bb f4 96 54 3b 9d 3f a6 3c
       -0.045410525 -0.006526786 0.0032438608 0.020294005
000330 2e 55 61 bd dd c4 f9 3c 7e 49 2b 3d 0d da 17 bd
       -0.055012874 0.03048938 0.041818134 -0.037073184
000340 7a 3c 1d bd 46 3b 5a 3c fa 80 86 3d 00 91 2d bd
       -0.038387753 0.013319796 0.06567569 -0.04237461
000350 4e c9 de bc 8f af 65 3d 9c b4 80 bc a9 99 a6 3d
       -0.027195599 0.05607563 -0.015711121 0.08134777
000360 bb 3b 82 3c 8d 92 a4 bc dd 67 c0 3d 24 43 9a bc
       0.015897622 -0.020089412 0.0939481 -0.018830843
000370 89 14 8d 3d dd 93 4f 3a c5 1f 6f bc 1c c5 4a 3d
       0.068886824 0.00079184567 -0.014594977 0.049504384
000380 82 2b f8 bc 4c d6 31 3d 2d 1c 4a bd ad d1 fb bc
       -0.030294184 0.04341726 -0.049343277 -0.03073963
000390 03 1c 27 bd 62 ce 0f bd 7a 20 91 bc 85 36 3f 3d
       -0.0407982 -0.03510893 -0.017715681 0.046682853
0003a0 c7 7f cc 3a 69 99 9e 3c a9 8c c1 3c 4b 23 18 3d
       0.0015602045 0.019360261 0.023626642 0.037143033
0003b0 75 1b 90 3d 26 19 b2 3c 55 5a 24 bd 23 20 4c 3d
       0.07036487 0.021740507 -0.04012521 0.049835335
0003c0 59 01 c0 bd c5 c6 88 bd 9a 3f 45 bd 8a 75 4f 3c
       -0.09375257 -0.06678537 -0.04815636 0.012662301
0003d0 21 cc d5 bc 01 c2 20 bc 92 10 25 bd 4a 1d fd 3c
       -0.026098313 -0.009811879 -0.040299006 0.030897755
0003e0 2c 73 14 bd ad a7 e2 3c ed 32 fd 3c 23 b3 f6 3c
       -0.03624265 0.027667845 0.030908072 0.030114716
0003f0 39 27 a4 3c 24 e2 0e bd cb e7 9a 3c e1 f1 50 bc
       0.020038234 -0.034883633 0.018909356 -0.012752981

bias f4 [60]
000000 93 26 f3 3b bd 8c 37 bd 88 99 ca 3b f0 e1 aa 3c
       0.00742037 -0.044811953 0.006182853 0.020859689
000010 66 63 82 bc a5 76 40 3d 76 c1 80 bb fa 15 f7 bc
       -0.015916537 0.04698815 -0.0039293123 -0.030161846
000020 ac 5c 41 3d b0 ec 5d bd b2 e0 3b 3d 74 ce 30 bd
       0.04720752 -0.0541808 0.045868583 -0.04316564
000030 d8 84 4f bd 81 0f 01 bd 47 b7 38 3c 26 fe c1 3c
       -0.0506638 -0.031508926 0.0112741655 0.023680758
000040 2f 39 d1 3c 5c 24 69 bd e7 6c 4e bd b0 2a b9 bc
       0.025539963 -0.05691944 -0.050396826 -0.022603363
000050 0a 02 48 bd a7 77 58 bd 75 c0 df bc 24 2c 29 3d
       -0.04883007 -0.052848484 -0.02731345 0.04130186
000060 63 ca f5 3c 3c f9 03 3d 82 8d 66 3d 9a af f4 bb
       0.030003732 0.03222011 0.056287296 -0.0074672224
000070 d1 1c 05 bd d7 77 57 bd ee 28 14 bd 35 5b 2a bd
       -0.032498185 -0.052604523 -0.036171846 -0.041590888
000080 f6 bb aa bc 4c 4c 08 3d 60 d9 2b bd be 4d 49 3b
       -0.02084158 0.033275887 -0.04195535 0.0030716504
000090 2b f7 7f 3d 5f 7f 25 bc f8 80 26 bd bd 85 03 bd
       0.062491577 -0.010101168 -0.040650338 -0.032109965
0000a0 4c cd 56 3d 3a af 3d bd 9f ae c7 bb b0 42 80 bc
       0.05244188 -0.046309687 -0.0060938145 -0.0156568
0000b0 56 5e 4e bd bc 9e 25 3d ac 80 e9 bc ab da 3d bd
       -0.050382935 0.040434584 -0.028503738 -0.046351116
0000c0 e5 32 4b bd 5d 9f d7 bc 78 5f 9e 3c 9b dc 31 3c
       -0.049609084 -0.026321108 0.019332632 0.010855819
0000d0 da 0a 17 3d bd 39 d1 bc c3 e4 4c bd b5 12 3c bb
       0.036875583 -0.025540227 -0.05002285 -0.0028697674
0000e0 1e 27 b6 3c b3 25 3e bd 98 af 24 bb 29 6c 1a 3c
       0.02223545 -0.04642267 -0.0025129076 0.009425201

weight f4 [20, 60]
000000 a0 a9 75 3d 24 6c fd bd df e5 fe 3b a7 46 d4 3c
       0.05997622 -0.12374142 0.0077788676 0.025912596
000010 f4 f0 f7 bd 19 ba 36 bd c6 a9 d8 3d f6 26 1a 3d
       -0.12106505 -0.04461107 0.10579257 0.037634812
000020 c6 82 41 bb cc 8a 0f be ae 11 35 bd 22 af 2a 3e
       -0.002952741 -0.1401779 -0.044206314 0.1666837
000030 68 43 ee 3d 1d 1b e1 bd 12 bd dc bd 6b fd 46 bd
       0.116339505 -0.109914996 -0.1077825 -0.048581522
000040 1e a4 08 3e c6 28 1a 3e 00 cb 85 bd 84 fd 2e bd
       0.13343856 0.15054616 -0.0653286 -0.04272224
000050 01 37 c2 bd 5f ff 82 bd a1 40 8a bd 90 cd b6 bb
       -0.094831474 -0.063963644 -0.06750608 -0.005578704
000060 7e 1b 93 bc 18 c3 d9 bd 3c 66 06 3d cb b0 af bd
       -0.017957445 -0.10632914 0.032812342 -0.085786425
000070 08 8f 16 3e 00 d1 05 3d 92 bb 7f bc aa 9e d0 bd
       0.14703 0.03267002 -0.015608685 -0.10186513
000080 f0 4f 08 be fa 0f 88 3d 9f 2f d2 bd bf 0e 38 3e
       -0.13311744 0.06643672 -0.10262989 0.17974375
000090 33 1c 4f bd 4c 43 8c bd b4 56 9c 3d b8 8b 16 bc
       -0.050564002 -0.06848773 0.07633725 -0.009188585
0000a0 ac ca f1 bc 07 3f ac 3d bf 27 20 be 5e bb 2a 3d
       -0.029515587 0.08410459 -0.15640162 0.041682594
0000b0 ef 0d ab bd 6f b9 fa bd 6c 8c 87 bb b9 fb ea 3d
       -0.08352267 -0.122424 -0.0041366126 0.114737935
0000c0 d7 98 13 bd d2 5a aa bd ad 82 02 3c 20 a8 d6 bd
       -0.03603443 -0.08318104 0.007965726 -0.10481286
0000d0 1a 8b de 3d c9 aa aa bd 27 05 17 3e 52 d2 8d bd
       0.10866375 -0.08333356 0.14748059 -0.06924881
0000e0 3e e9 0a 3e e7 5c 48 bd b2 39 33 3c 42 29 07 3e
       0.13565537 -0.048916724 0.010939049 0.13199332
0000f0 88 f8 5d bd 5c fd 1c bd 37 0b 7b bd 42 bc 0e be
       -0.054192096 -0.03832756 -0.061289992 -0.13939002
000100 68 6f 44 3d 3c b2 d6 bd 62 89 5a bd fa 78 de 3d
       0.047957808 -0.10483214 -0.053353675 0.10862918
000110 c5 c2 8b 3d 8e d7 f9 3c d8 d3 ec bd d5 72 dd 3d
       0.06824259 0.030498292 -0.115638435 0.10812918
000120 4b 32 86 bd 0d d6 10 be f6 e4 39 bd ea a9 50 bd
       -0.06552561 -0.14144154 -0.04538437 -0.050943293
000130 33 e9 5b 3d 40 e8 1d 3d 0c b0 3b be 2e 8d c4 bc
       0.053689193 0.03855157 -0.18328875 -0.023993101
000140 c4 5f 7c bd 40 4e 43 bb f0 91 d8 3d fe 87 9b bd
       -0.061614767 -0.002980128 0.1057471 -0.07594298
000150 96 0d 8d bd 7b 2c 32 bc 17 ae c1 bd c1 0f a2 3d
       -0.06887357 -0.010874863 -0.09457033 0.07913161
000160 39 1a 2a bd 13 7a 23 be c7 2c 4f 3d 4b 06 9d bd
       -0.041528914 -0.15964536 0.050579812 -0.07667216
000170 a8 1f a6 bc f7 04 98 3d 96 3a 7b 3e 7e bb 0a 3e
       -0.020278767 0.07422822 0.24534068 0.13548085
000180 f7 1f a2 3d a6 49 fd 3b 66 06 63 bd 3a f5 8c bc
       0.07916253 0.007729727 -0.055426024 -0.017206777
000190 33 d4 46 be 42 1c 0f be c8 1a ab 3c a9 f2 69 3e
       -0.19416885 -0.13975623 0.020886794 0.22846474
0001a0 0f a8 28 be 73 ad a5 3c 59 22 15 3e 37 62 fe 3d
       -0.1647036 0.020224309 0.14563884 0.12421077
0001b0 a4 ac b4 bc ff da 31 3d 92 f7 cb bd c7 66 df 3c
       -0.022054978 0.04342174 -0.0995933 0.027270688
0001c0 f9 bd bd bd 99 eb 2b bc 22 56 67 3d 5b 97 27 be
       -0.0926475 -0.010493183 0.056478627 -0.16366331
0001d0 f7 23 16 be 59 2d 94 bc 28 0b c9 bc b2 ee b6 bd
       -0.14662157 -0.01808803 -0.024541453 -0.08932246
0001e0 53 ab 96 bc ba 38 02 bd 57 e3 f7 3d 86 40 91 bd
       -0.01839224 -0.03179238 0.121039085 -0.07092385
0001f0 1b d0 2b bd ae ea 6b bd 1e ae ab 3d 30 b0 67 3d
       -0.04194651 -0.057596855 0.083828196 0.05656451
000200 86 49 d8 bc 8d e0 8f bc 99 da a0 bc 68 4d df 3c
       -0.026402246 -0.017563129 -0.019635485 0.02725859
000210 4f cf 10 be 22 ca 18 3e fe f9 21 3d 1a 1b 09 be
       -0.14141582 0.14920858 0.03954505 -0.13389245
000220 ff d3 0b be c4 fc ab 3c 55 b4 51 3d 18 33 b0 3d
       -0.13655089 0.020994551 0.05119737 0.08603495
000230 d6 19 04 be 8f db 79 bd 28 0c 1a 3e 8d a6 dc ba
       -0.1290048 -0.061000403 0.150437 -0.0016834304
000240 a8 eb a8 3d 41 8f a3 3d 78 82 29 bd c9 ca 9b 3d
       0.08248073 0.07986308 -0.04138419 0.076070376
000250 db 61 a8 bc c9 14 da 3d a4 66 9b bc 5c 07 a0 bb
       -0.020554474 0.10648496 -0.018969841 -0.00488369
000260 db 51 8a bd ef 73 d4 3c 68 35 35 3d 70 a1 ca bd
       -0.06753894 0.025934188 0.044240385 -0.09894073
000270 ed 46 22 3e 58 97 1d be 9b e3 eb 3c 13 2e ee bd
       0.15847369 -0.15389764 0.028795054 -0.11629882
000280 c1 36 60 bd 8e ac 4f bd 53 71 ee 3d 6e d0 a3 3d
       -0.054739717 -0.05070167 0.11642709 0.07998739
000290 8b de 34 be 2c bb 73 3d 27 9d 57 3e 56 7d a6 3d
       -0.17663018 0.059504673 0.21056043 0.08129375
0002a0 64 dc 01 be 5d f9 ed 3c 47 58 d9 3d f6 2b c8 3d
       -0.12681729 0.02904957 0.10612541 0.0977401
0002b0 3e a7 46 3d 2c 2c 1d 3e e2 18 18 be 6b 8f dc 3d
       0.04849934 0.15348881 -0.14853242 0.10769542
0002c0 7e 0b 3e bd 4b 27 5f bd 49 18 25 bd 17 dc 8b 3d
       -0.04639768 -0.054480832 -0.040306363 0.06829088
0002d0 cd 56 15 bd f7 4a 3e bc ab 4f 66 3d 54 c4 ec 3d
       -0.036459733 -0.011614553 0.05622832 0.11560884
0002e0 9a 27 ac bd bf 6b 8e bc 13 2a 29 bd eb f2 90 3d
       -0.08405991 -0.017385362 -0.04129989 0.07077583
0002f0 80 a0 11 3d 52 a9 0d 3e 14 5b 33 3d ab e9 b6 bd
       0.035553455 0.13834122 0.04378803 -0.089312874
000300 19 56 a8 bb 40 cd 5c 3d c2 17 89 3c 54 11 00 be
       -0.0051372168 0.05390668 0.016734961 -0.1250661
000310 dc 76 c1 bd 2b d7 41 bb 0b 34 5f 3e 3a be 02 bd
       -0.09446499 -0.0029577713 0.21797197 -0.031919695
000320 46 aa d3 bb a9 31 9e 3c 6b 39 7d 3d 5a b2 0e be
       -0.006459507 0.01931079 0.061822336 -0.13935223
000330 f5 49 dd 3d 9e 1f 9e bd 6a 2d fd bd 88 61 aa 3d
       0.10805122 -0.07720874 -0.12362178 0.08319384
000340 20 a3 56 3e 74 2a 15 3e a0 ce b3 3d 98 92 ac bd
       0.20960665 0.14566976 0.08779645 -0.08426398
000350 5c d1 b4 bd 75 33 a0 bd 00 10 bb bc 2a 29 02 3e
       -0.08828995 -0.07822315 -0.022834778 0.12711015
000360 0f a2 e6 bc 26 c1 6b bd b0 60 1a 3e 6a 39 34 bd
       -0.028153447 -0.057557248 0.15075946 -0.044000067
000370 bf 91 ba bc 5d cf 44 3e dc cc 46 3e 5f 12 94 bd
       -0.022774575 0.19219728 0.19414085 -0.072300665
000380 e7 d6 80 bd ac 17 1a be b8 98 8c bd 0e 94 14 be
       -0.06290989 -0.15048093 -0.06865066 -0.14509603
000390 19 b1 04 3e 44 85 75 3d 21 be 4c 3d a9 77 2e 3d
       0.12958182 0.059941545 0.04998601 0.042594586
0003a0 18 39 8d 3d 51 35 18 bd 30 c9 a7 3d cc 95 76 bc
       0.068956554 -0.03716022 0.0819267 -0.015050363
0003b0 53 d8 5a bd a3 4f c8 3d 83 eb c1 bd 9d 51 a1 3c
       -0.05342896 0.097808145 -0.094687484 0.019692237
0003c0 ad 0a d5 3d 1b 12 a4 bb dc fb 28 3b 34 ec 37 3e
       0.10402427 -0.005007041 0.0025784886 0.17961198
0003d0 3b 32 e9 3d ca 01 2d 3e d6 84 a7 3d c2 c7 a9 3d
       0.11386534 0.16895214 0.08179633 0.08290054
0003e0 dc 07 5e 3d 2c 4d d7 bc 47 0a e8 3d eb ec 40 3d
       0.054206714 -0.026281916 0.11330085 0.047100943
0003f0 fc 3f c7 3b f3 c1 c3 bd 9c 16 6c bd 81 81 d0 3d
       0.0060806256 -0.09558477 -0.05763875 0.10180951

bias f4 [20]
000000 f5 d6 d8 3c 8d a8 76 bd b3 7e c0 bd a4 2e fa bc
       0.026469687 -0.060219336 -0.09399166 -0.030539818
000010 ea e8 c2 3d 9e 12 13 be 86 96 9a bd d7 82 3c 3d
       0.09517081 -0.1436257 -0.07548241 0.046023216
000020 d2 1e 14 3d cb 95 7b 3d 4c 39 8b bc 10 c0 e0 3d
       0.036162205 0.06142215 -0.016995095 0.10974133
000030 dc bf 4d bd e9 59 d5 3a 11 ed 99 bc 9b f9 43 bd
       -0.0502318 0.0016277406 -0.0187898 -0.047845464
000040 70 b4 96 bc 53 fd b1 3d 62 1b d0 3c 8e 56 f2 bd
       -0.018396586 0.08690896 0.025403682 -0.11832915

weight f4 [12, 20]
000000 ed 31 10 bc 7f 24 70 be 27 a5 55 3e e5 b4 ae 3d
       -0.008800966 -0.23451422 0.20863782 0.08530597
000010 4b ca 51 3d ae 74 39 3e dc f5 4f bd d1 7e 8f be
       0.051218312 0.18110916 -0.05077158 -0.2802644
000020 01 2e 3a 3e 80 94 a3 3e e3 77 35 bd 16 a3 e4 3d
       0.18181612 0.31949234 -0.044303786 0.11163919
000030 01 0c 23 be 42 5f 22 be 4a 12 5b 3e 19 3c a5 3e
       -0.15922548 -0.1585665 0.21393695 0.32272413
000040 cb f8 8f 3e bb d2 82 bc 26 43 5f be 5b 2b 36 3e
       0.281195 -0.015969625 -0.21802959 0.17789976
000050 37 20 c2 3e 71 8a d4 3d e7 71 b4 bd 23 eb 70 3e
       0.37915203 0.10377968 -0.08810788 0.23527198
000060 09 07 04 3e e3 b5 7b 3d 9b 4e b9 3e 1c 1a 17 3e
       0.12893309 0.061452758 0.36192784 0.14756054
000070 e8 6b 58 bc 23 f2 11 bb 2b b1 a0 bc 3d 14 81 3e
       -0.013209321 -0.002226957 -0.01961573 0.25210753
000080 81 e1 62 be 6b 95 64 be 93 3d d7 3d 97 12 38 3e
       -0.22156335 -0.22322623 0.10509791 0.17975841
000090 8c 36 2b 3c e0 47 21 be c4 be ce 3e b7 5e ea 3d
       0.010450017 -0.15750074 0.40379918 0.11443847
0000a0 59 de 73 be 8f d8 3f bd bd 72 ec bd 50 4f 08 be
       -0.23815288 -0.046837386 -0.11545322 -0.13311505
0000b0 89 d3 3e 3e a8 b5 d1 3e d4 5e 43 3d bc ee 98 3e
       0.18635382 0.40958905 0.047697857 0.2986964
0000c0 c2 7e c0 bc 7d 05 ac bd 3f cb 57 bd 04 47 d1 3d
       -0.023497943 -0.08399484 -0.052684065 0.10218623
0000d0 99 9c 8e bb 1a ae 7c 3e 18 45 dc bc 53 21 55 be
       -0.004352164 0.2467579 -0.026888415 -0.20813493
0000e0 dc 32 fe bd 6b 0a 81 bd ba c3 ad bd e6 39 36 bd
       -0.124120444 -0.06300815 -0.084845975 -0.04448881
0000f0 81 56 15 be b3 b7 9e bd f0 93 e1 3d 8f 0b 63 bd
       -0.1458378 -0.077498816 0.11014545 -0.055430945
000100 5f 5d 28 3e 97 81 54 bc ba 9d a8 3d 90 0d 1e 3c
       0.16441868 -0.01297035 0.08233209 0.009646788
000110 df cd c2 3d 15 86 ab bd d6 90 90 3d 4d f6 a9 3e
       0.09511923 -0.083751835 0.07058875 0.33195725
000120 5c ca 8e 3d 38 37 86 be 46 a0 5e 3e cc f1 8c bc
       0.06972191 -0.26214004 0.21740827 -0.017205141
000130 e5 8f 28 be 62 be ae 3e c7 f4 16 be bb 89 d5 bc
       -0.16461141 0.34129626 -0.14741813 -0.026066652
000140 9d da 19 3e 78 e0 8e bd 3b 03 48 3d 92 61 aa bd
       0.150248 -0.06976408 0.048831206 -0.08319391
000150 bf 21 db 3d 57 3c ed 3b 1b c5 f2 3d 24 ac ec bc
       0.10699796 0.007239859 0.11854001 -0.028890677
000160 6a 82 20 3d 08 45 1f 3e 19 83 3e bd 24 81 17 be
       0.039186873 0.15553677 -0.046511743 -0.14795357
000170 be 8b c6 3d 56 98 8a 3e 96 2d 77 be 8c 11 6d 3c
       0.096946225 0.27069348 -0.24138483 0.0144695155
000180 15 70 07 3e 87 3c fa 3d 2d 74 92 3e d3 36 d5 3e
       0.1322635 0.12218576 0.2860426 0.4164339
000190 71 55 1d be 5a 99 f8 3d 43 cc 40 3e 0b e0 8b be
       -0.15364625 0.121386245 0.1882792 -0.2731937
0001a0 2c ad 5c 3e e1 ff 4c 3c 65 89 98 be 80 3f d3 bb
       0.21550435 0.012512178 -0.29792324 -0.006446779
0001b0 aa 3d 50 be d1 d5 dc bc dd 4f 56 be a6 8f 1f be
       -0.20336023 -0.026957424 -0.20928903 -0.15582141
0001c0 a1 9e 8c bc b8 41 51 3e fd af 9d 3e f0 8c 8c 3d
       -0.017165484 0.20435226 0.3079833 0.06862819
0001d0 a8 2a 86 3e b7 5a 2d be 0b 7d 65 bd 75 01 35 be
       0.2620442 -0.16929136 -0.056027453 -0.17676337
0001e0 dd cf fb bc c5 63 d7 3d d2 7f 1a be 5a 13 fb bc
       -0.030738765 0.105170764 -0.15087822 -0.030648876
0001f0 9e 94 72 3e b3 b0 17 3e 50 44 36 be 7c ce 45 3d
       0.23689505 0.14813499 -0.17799497 0.048292622
000200 ef 6c 90 b5 bd 37 40 3d b5 87 2b be 2e ee 9f 3c
       -1.076054e-06 0.046928156 -0.16750987 0.019522753
000210 da 93 b8 3d ea c6 1c be 0c 7e 11 3d bd 42 c8 3e
       0.090125754 -0.15310255 0.0355206 0.39113417
000220 e5 f7 98 3e 1f 23 b3 3d 0b d6 2e be 7f b6 3b be
       0.2987663 0.08746933 -0.17073838 -0.18331335
000230 a8 8b 32 be 3b 14 f7 3e 34 c8 af 3e a7 56 89 be
       -0.17436087 0.48257622 0.3433243 -0.26823923
000240 7d 9e 82 3e 1a 6c a2 bd 70 7e 1c 3d 21 38 33 3c
       0.25511542 -0.07930775 0.038206518 0.010938675
000250 33 24 6f 3d ec 28 5b be 11 8c 53 be e1 30 1c 3e
       0.05838413 -0.21402329 -0.206589 0.15253021
000260 ab 15 55 be 63 87 ed 3d 19 58 25 3e 09 f9 78 be
       -0.20809047 0.115980886 0.16146888 -0.2431375
000270 91 ca 4a be 19 86 e4 3d c3 36 1f be ff 97 05 3d
       -0.19803835 0.111583896 -0.15548234 0.032615658
000280 bf c1 9f 3d 7e d6 8f bc d9 f5 6b be cc a9 b9 3c
       0.07800626 -0.017558333 -0.23043002 0.022663973
000290 45 30 7c 3e 40 09 7b 3d 01 cf 76 be 30 36 99 3e
       0.24627788 0.06128812 -0.24102403 0.29924154
0002a0 87 1e bf 3d 8f 70 a3 3d c0 55 0f 3c 66 91 33 be
       0.093319945 0.07980453 0.008748472 -0.17535934
0002b0 fa 9c 5d 3e e7 03 e2 bc 04 13 00 3e d1 f0 64 3e
       0.21641913 -0.027589751 0.12507254 0.22357489
0002c0 20 bb 7e be 10 17 55 be 4b 9f 2d 3e f7 aa a4 3e
       -0.2487607 -0.20809579 0.16955297 0.32161686
0002d0 eb eb d6 bb ab 4a 3f be 0b b8 a6 bc 55 ce 7b 3b
       -0.0065588853 -0.18680827 -0.02035143 0.0038422544
0002e0 d9 ce eb 3d bc ee 9a 3e 92 de 97 3a 85 a8 ed 3c
       0.115140624 0.30260265 0.0011586717 0.02901102
0002f0 c7 86 12 bd 48 9f a1 bd a2 93 6e 3d 4c 43 92 3d
       -0.035773065 -0.078917086 0.058246262 0.07141742
000300 ce ec 1e bd 99 6a 0e be ae 9c bb 3e 34 42 0a 3e
       -0.038800053 -0.13907851 0.36642975 0.13501817
000310 5d f0 1c be 87 d9 6a 3d 0c 70 e1 3d ed 1d fc bd
       -0.15326066 0.057336356 0.11007699 -0.123103954
000320 5a f6 99 3d 7a 4a 2b be d2 77 41 be f6 18 7c 3d
       0.07517691 -0.1672763 -0.18893364 0.061547242
000330 48 24 9d 3e 3e 0d 48 be e4 a2 4e bd 2a cb d5 3d
       0.30691743 -0.19536301 -0.050448313 0.10439141
000340 66 e4 64 3e 63 f2 79 3e e3 74 5d 3e 08 79 6e 3e
       0.22352752 0.2440887 0.2162662 0.23288357
000350 0c 13 31 3e c1 cc 34 be 7d c7 2a 3d c9 47 9c bb
       0.17292422 -0.17656232 0.041694153 -0.0047692996
000360 cc fa 58 be 98 2f 1a 3e 08 84 06 bd ab 65 e4 bd
       -0.21189421 0.15057218 -0.03284076 -0.11152204
000370 ab 34 43 be af 65 5d 3d e1 e4 6d 3c c0 07 b8 3e
       -0.1906306 0.05405205 0.014519901 0.35943413
000380 a8 a8 99 bd c9 25 ef 3d 8f 9e 8a bd f5 e6 ae bd
       -0.07502872 0.11677129 -0.06768524 -0.08540145
000390 c5 fa c0 3e 6d ab bc 3e c7 f3 fd bd ef 73 3c be
       0.37691322 0.36849537 -0.124000125 -0.184036
0003a0 b3 ce 08 be e8 70 ce 3d 26 e5 82 bd fc 55 71 bd
       -0.133601 0.10080129 -0.06391363 -0.05891989
0003b0 f0 09 04 bc af bd 6c 3d 2b 5a 98 3d 20 84 15 3e
       -0.00805901 0.057798084 0.07439073 0.14601183

bias f4 [12]
000000 93 d4 d5 3d d7 4a 3c be 30 5e b3 bd d1 63 75 3d
       0.10440936 -0.18387924 -0.08758199 0.059909645
000010 f0 a6 34 be 26 44 49 3c d5 9c d4 bd 0e c0 78 3e
       -0.17641807 0.012284314 -0.10381476 0.24292013
000020 df 29 2b 3d e0 74 00 be 75 8c 15 3e cd d6 82 3d
       0.04178798 -0.12544584 0.14604361 0.06388626

weight f4 [10, 12]
000000 d6 26 94 3c f5 97 16 3f f7 f6 95 be 27 a4 a1 bd
       0.018084925 0.5882562 -0.29289982 -0.07892638
000010 b1 19 c5 be 6d 3d a4 bd 58 dc 21 bc 08 f9 93 be
       -0.38496163 -0.080195285 -0.009879194 -0.28900933
000020 16 ca 5a 3d 45 4e 3c 3e 5f a0 c8 3c 75 c0 57 be
       0.05341538 0.18389232 0.024490533 -0.2106951
000030 06 28 b1 3e 77 71 72 be 22 56 05 3e 01 3b 62 3d
       0.34600848 -0.23676096 0.13021138 0.05523205
000040 84 de cb 3d 60 56 6b be 02 7e 2c be 52 8d 68 be
       0.09954551 -0.22982168 -0.16844943 -0.2271016
000050 f5 c4 77 be 77 3b 24 3e 1b 33 97 be fd 68 20 3f
       -0.24196227 0.16038309 -0.29531178 0.626602
000060 fb 8b 61 be ed 68 b1 3d 50 d6 97 3e 87 23 81 3e
       -0.22026055 0.08662591 0.29655695 0.25222418
000070 2f 84 8c be 4c 0b de bd d9 7d c2 bc a3 c9 0b 3d
       -0.27444598 -0.108419985 -0.02374165 0.034127843
000080 a6 59 e0 3d 13 bd 84 3e ec da 8c 3c e7 39 d4 3c
       0.10954599 0.25925502 0.017194234 0.025906516
000090 30 e2 fc 3d be 96 3e be 5b d8 26 be f7 20 34 be
       0.12347829 -0.18612191 -0.1629347 -0.175907
0000a0 43 cd 8f bd 93 89 61 be d8 aa 49 3e fd 12 11 3d
       -0.070215724 -0.22025137 0.19694078 0.0354185
0000b0 85 61 e8 bd 95 ab 04 be 07 a6 c1 3d 2a 1a b0 3d
       -0.113467254 -0.12956078 0.09455495 0.085987404
0000c0 b0 1e 65 3e 7f e7 86 be 10 cb ac be b5 da e9 3e
       0.22374988 -0.26348493 -0.33748674 0.45674673
0000d0 c5 93 1d be 7a a1 9e 3d 39 5e 96 be e0 ab 88 3e
       -0.15388401 0.07745643 -0.2936876 0.2669363
0000e0 c2 67 92 3d ee 70 e2 3b 8f 31 57 3e 7d 5a 1b be
       0.071486965 0.006910435 0.21014999 -0.15171237
0000f0 db 82 24 be 91 49 96 be 79 9e c5 3e 56 54 81 be
       -0.16065542 -0.29353002 0.38597468 -0.25259656
000100 ea 10 9f be c0 0a d7 3e 85 70 91 3d 21 80 03 bd
       -0.31067592 0.4200039 0.071015395 -0.032104615
000110 3e 4c 9f 3e 84 38 38 3e 7f 6f 3d bd e9 33 df bd
       0.31112856 0.17990309 -0.04624891 -0.10898573
000120 e8 af 87 be bd df 7f bd e4 03 df 3c 94 bd 1a be
       -0.26501393 -0.062469233 0.027223535 -0.15111381
000130 96 0b 24 3d 79 f9 e3 3e 0d d1 e8 3d 56 ca 2a 3f
       0.04005011 0.4452627 0.11367998 0.6671499
000140 30 40 85 be b8 76 88 be a1 b1 43 be b9 23 2c be
       -0.26025534 -0.26653075 -0.19110729 -0.16810502
000150 7a d9 b1 3e 05 a7 00 be 06 a7 c1 bd 40 a1 8f 3d
       0.34736234 -0.12563713 -0.09455685 0.07013178
000160 df 5f e3 3d e2 1a ce 3e 0a 92 07 3f c5 0c 8d be
       0.1110227 0.40254885 0.5295721 -0.27548805
000170 32 e1 74 be a1 45 30 3e 18 c7 61 be cc e5 14 be
       -0.2391403 0.17214061 -0.22048604 -0.14540786
000180 c5 a6 16 be 23 27 b9 3e 4a ba ae 3b 43 5e 78 be
       -0.14712055 0.3616267 0.005332266 -0.24254708
000190 97 69 e6 3e f3 69 e3 bd 8e 36 17 be 1c 15 10 be
       0.45002434 -0.111041926 -0.14766905 -0.14070553
0001a0 24 be 81 3e 01 13 9e be 33 12 85 be a9 3e 15 be
       0.25340378 -0.30873874 -0.25990447 -0.14574684
0001b0 08 78 c2 3e fb 9c 2b be 4c 7f 79 be eb 91 14 be
       0.37982202 -0.16759102 -0.24364966 -0.14508788
0001c0 75 bd f1 3d f0 f7 d3 bb 41 b1 6c 3d 04 64 5b be
       0.11803714 -0.0064687654 0.05778623 -0.21424872
0001d0 f6 aa 02 3f f5 83 53 be 71 43 31 3e da 82 38 3e
       0.51042116 -0.20655806 0.17310883 0.18018666
